experiments/freqshape/models/Scomb_transformer_split=4.pt (torch, 15279 bytes, 16 tensors)

transformer_encoder.layers.0.self_attn.in_proj_weight f4 [51, 17]
0	0xbde02803	-0.10945132
1	0x3ec61e98	0.38695216
2	0x3f1a2544	0.6021311
3	0x3e79edc5	0.24407108
4	0x3eddd373	0.43325385
5	0x3ec20fde	0.3790273
6	0x3ed776eb	0.42082915
7	0x3eea745a	0.45791894
8	0xbe137172	-0.14398745
9	0x3d23cfcb	0.03999309
10	0x3f29131d	0.6604479
11	0xbf284e6f	-0.6574468
12	0x3dbadcdd	0.091241576
13	0x3f23f1db	0.6404092
14	0x3f23513d	0.63795835
15	0x3e86e2da	0.2634495
16	0xbd9af773	-0.075667284
17	0xbd9b5158	-0.075838745
18	0x3deb6068	0.114929974
19	0x3c0f8b12	0.008761184
20	0xbe7ce326	-0.24696025
21	0x3f04a392	0.5181209
22	0xbc9f486b	-0.019443711
23	0xbe98a47e	-0.29812998
24	0x38ccb8cf	9.761901e-05
25	0x3e12b258	0.14325845
26	0x3d8cf9a9	0.068835564
27	0xbe3e5468	-0.18586886
28	0xbe48a239	-0.19593133
29	0x3e08af54	0.13348132
30	0x3f135d53	0.57564276
31	0xbd4cb40a	-0.049976386
32	0x3cdd17e7	0.026988937
33	0xbeaf5f98	-0.3425262
34	0x3dfa4a7f	0.1222124
35	0xbd657a50	-0.05602485
36	0xbe6d1e93	-0.23156194
37	0x3db410fc	0.08792302
38	0xbedce929	-0.43146637
39	0xbecd38cc	-0.40082395
40	0xbe00adc7	-0.12566291
41	0xbe9dcf43	-0.3082219
42	0xbe0d3ed5	-0.137935
43	0xbd0e64c8	-0.03476408
44	0xbd3b98ce	-0.045800023
45	0x3dfdf625	0.12400464
46	0x3e061df0	0.13097358
47	0xbee0ab54	-0.43880713
48	0xbe5a0524	-0.21291023
49	0xbecac614	-0.39604247
50	0xbf33a162	-0.70168126
51	0x3e4b025e	0.19825122
52	0x3e20f44f	0.15718196
53	0x3e450417	0.19239841
54	0xbe5f04f9	-0.2177924
55	0x3f754329	0.95805603
56	0x3e5bd5a3	0.21468215
57	0xbbec380e	-0.0072088307
58	0xbcd4e0ad	-0.02598604
59	0x3e0ce60f	0.13759635
60	0xbd486875	-0.048927743
61	0x3b99f678	0.004698571
62	0xbe71955d	-0.23592134
63	0xbe65d009	-0.2244264
64	0x3f7fdde9	0.99947983
65	0x3e86224a	0.26198035
66	0x3e1b499e	0.15164801
67	0x3e993d36	0.29929513
68	0x3de88628	0.11353713
69	0x3e37ad4c	0.17937201
70	0xbd319452	-0.04335434
71	0xbe9844ae	-0.29739898
72	0x3e4c4883	0.19949536
73	0xbec74ada	-0.38924295
74	0xbed9f469	-0.42569283
75	0xbdee4823	-0.11634853
76	0xbde151d8	-0.110019386
77	0x3da9c855	0.082901634
78	0x3ecb4575	0.3970143
79	0xbee5ce79	-0.4488409
80	0xbc6647f2	-0.014055239
81	0x3ed6f779	0.41985682
82	0xbe774a01	-0.24149324
83	0xbe94052f	-0.28910205
84	0x3f0a3625	0.5398887
85	0x3d7246d5	0.059149582
86	0xbd91f9a6	-0.07127695
87	0x3dad37f3	0.08457937
88	0xbdf2507e	-0.11831759
89	0x3ef0b8a7	0.4701588
90	0xbdf225f7	-0.118236475
91	0xbea0e2a6	-0.3142292
92	0xbe96506a	-0.29358226
93	0xbd0529e7	-0.032510664
94	0x3d0dce08	0.034620315
95	0x3e191fc5	0.14953525
96	0xbe423e20	-0.18969011
97	0x3e9fef21	0.31237128
98	0x3f0a147a	0.53937495
99	0xbd90284f	-0.07038938
100	0xbe3e00c3	-0.18554978
101	0xbc4bba00	-0.012434483
102	0x3e5542fa	0.20826331
103	0xbe91e80f	-0.2849736
104	0xbf141398	-0.578424
105	0x3cf9d4e8	0.03049703
106	0xbf5d5894	-0.86463284
107	0x3ea83f84	0.3286096
108	0x3dfffb53	0.12499108
109	0x3efdf079	0.4959753
110	0xbdbdfcff	-0.09276771
111	0xbe66c476	-0.22535881
112	0xbef0ccbd	-0.47031203
113	0x3f262e38	0.64914274
114	0xbed8cced	-0.42343846
115	0xbf0b6e59	-0.5446525
116	0x3de92e25	0.113857545
117	0x3e009243	0.12555794
118	0x3d56f793	0.0524822
119	0xbe59c53e	-0.21266648
120	0x3a087e99	0.0005206853
121	0xbe688ff1	-0.2271116
122	0xbee1f447	-0.4413168
123	0x3cd90348	0.026490822
124	0xbc1b6553	-0.009484607
125	0xbe9086e3	-0.2822791
126	0xbe72d15c	-0.23712677
127	0xbd8b9dc7	-0.06817203
128	0x3df45638	0.119305074
129	0x3e87b91c	0.26508415
130	0xbdeb6316	-0.114935085
131	0x3e139ebf	0.14416026
132	0x3e1a1175	0.15045722
133	0xbec346c6	-0.38139933
134	0xbe56cd13	-0.20976667
135	0x3e7883c5	0.24269016
136	0x3dd4fd2d	0.10399852
137	0xbdf766d4	-0.1208016
138	0xbec81d6a	-0.3908494
139	0xbe3c4261	-0.18384697
140	0xbf0433fd	-0.5164183
141	0xbe15ce76	-0.1462954
142	0xbe599685	-0.21248825
143	0xbe2ec5c1	-0.17067625
144	0xbd6183cf	-0.055057343
145	0x3dd5f053	0.10446229
146	0xbddacb90	-0.10683358
147	0xbe4d6179	-0.20056714
148	0xbe1d29d7	-0.15347992
149	0xbf1e2869	-0.6178041
150	0xbd3aa772	-0.045569845
151	0xbea31d7d	-0.31858435
152	0xbe1c8e8b	-0.15288751
153	0x3c11e84c	0.008905482
154	0xbde204b9	-0.11036057
155	0x3cd6bf1a	0.026214171
156	0xbe8aba02	-0.27095038
157	0x3e96fe4e	0.29490894
158	0xbe1d87db	-0.15383856
159	0xbeb54a9e	-0.3540849
160	0xbc9e6397	-0.019334598
161	0xbcc4b76a	-0.02401324
162	0xbdc5079c	-0.09620592
163	0xbc995e1a	-0.018721629
164	0x3df1d32b	0.11807855
165	0x3e128d48	0.14311707
166	0x3e168a6c	0.14701241
167	0xbdf25cb0	-0.11834085
168	0x3d108ea5	0.035292286
169	0xbefd8339	-0.49514177
170	0xbdd0452e	-0.10169445
171	0x39427e4a	0.00018548328
172	0x3d7c2b28	0.061564595
173	0x3caacad8	0.020848677
174	0xbdd05237	-0.10171931
175	0xbd9d6e6f	-0.07687079
176	0xbe090114	-0.13379318
177	0x3dee4442	0.11634113
178	0xbd36285f	-0.044472095
179	0xbe12c80c	-0.14334124
180	0x3ef42496	0.47684163
181	0xbe0cfb36	-0.13767704
182	0x3df32ae2	0.118734136
183	0xbe3647bf	-0.17800806
184	0x3d10212c	0.035187885
185	0xbe60b600	-0.21944427
186	0x3ea6e405	0.3259584
187	0xbbb498c7	-0.0055113765
188	0x3c8eb1c4	0.01741875
189	0xbdd82eac	-0.10555777
190	0x3e19d256	0.15021643
191	0xbd9fbd8a	-0.077998236
192	0x3d2e5107	0.042557742
193	0xbdb3676b	-0.0875996
194	0xbe7fec3d	-0.24992462
195	0xbd431548	-0.047627717
196	0xbb82edca	-0.003995632
197	0x3eb75edc	0.3581456
198	0x3e82d8b6	0.25555962
199	0x3dfff293	0.12497439
200	0x3b7f1626	0.0038923114
201	0xbe4ac4f8	-0.198017
202	0xbe93d51e	-0.28873533
203	0xbda43b44	-0.080191165
204	0xbe26a62f	-0.16274332
205	0x3d00e0ab	0.03146426
206	0x3e3ef5d6	0.18648466
207	0xbea0ced8	-0.3140781
208	0xbe03b52f	-0.12862085
209	0xbe5b53db	-0.21418707
210	0xbe4a509a	-0.1975731
211	0xbe0c495e	-0.13699862
212	0x3e0b5b0f	0.13608955
213	0x3e1d55f5	0.15364821
214	0x3dd87c2e	0.105705604
215	0xbe1de8a6	-0.1542078
216	0xbd3ad835	-0.045616347
217	0x3d11de38	0.035612315
218	0xbe4348fd	-0.19070812
219	0xbe91f6ea	-0.28508693
220	0x3ea68c40	0.32528877
221	0x3e3708d5	0.17874463
222	0xbd8a5266	-0.067539975
223	0xbe359ee7	-0.17736398
224	0xbd8207d3	-0.063491486
225	0xbd4faebb	-0.050703745
226	0x3d228ee2	0.039687045
227	0x3d1ea657	0.038732853
228	0x3e84287c	0.25812137
229	0xbe13e979	-0.14444532
230	0x3e0857c0	0.13314724
231	0xbea0581e	-0.31317228
232	0x3e68cbed	0.22734042
233	0xbe9d1dee	-0.30686897
234	0xbeb1d478	-0.34732413
235	0xbc8911b9	-0.016732084
236	0x3e86cc56	0.2632777
237	0xbe8c0d44	-0.2735387
238	0xbe664792	-0.2248824
239	0xbcd2ca43	-0.025731212
240	0xbd33c3a1	-0.04388774
241	0xbebe5f43	-0.37182054
242	0x3ee19602	0.4405976
243	0xbd836f2e	-0.0641769
244	0xbe6a3574	-0.22871953
245	0xbe1df515	-0.15425523
246	0xbd4b5f3c	-0.04965137
247	0xbdbed7f8	-0.093185365
248	0x3a73f8d0	0.00093067903
249	0xbe1159fe	-0.14194486
250	0x3e1d07f7	0.1533507
251	0x3e553fe1	0.20825149
252	0xbd9cfd54	-0.07665506
253	0xbe431862	-0.1905227
254	0x3dd583f2	0.10425557
255	0x3d6200aa	0.055176415

transformer_encoder.layers.0.self_attn.in_proj_bias f4 [51]
0	0x3ee1e946	0.44123286
1	0xbdd63b94	-0.104605824
2	0xbe7f8c13	-0.24955778
3	0x3e3c9214	0.184151
4	0xbe57acac	-0.21061963
5	0xbe3db8f0	-0.1852758
6	0x3e52c52d	0.20583029
7	0xbe641829	-0.22274841
8	0xbe2b5fde	-0.16735789
9	0xbe3d93d4	-0.18513423
10	0xbc56a7ac	-0.0131014995
11	0xbde6b120	-0.11264253
12	0xbe15965b	-0.14608137
13	0x3d6f49a5	0.058419842
14	0xbe1bbaa2	-0.15207914
15	0xbdf55d05	-0.11980633
16	0x3de4b5c1	0.11167479
17	0x3c9bd2f6	0.019021492
18	0xbc11587f	-0.008871197
19	0x3c6f9097	0.014621875
20	0x3b998caf	0.0046859602
21	0xbb58d5cd	-0.003308642
22	0x3ccd4c86	0.025060903
23	0x3bfa3465	0.0076356404
24	0x3d147727	0.036246445
25	0x3a1346da	0.00056181627
26	0xbc9422c9	-0.018082993
27	0x3c23bf43	0.009994331
28	0xbd216959	-0.039407108
29	0x3c77f9c2	0.0151352305
30	0x3c03dd5d	0.008048383
31	0x3c1649fe	0.009172915
32	0x3bbd3f05	0.005775335
33	0xbc8b1b15	-0.016980687
34	0x3c18dc76	0.009329906
35	0x3b79a954	0.0038095312
36	0xbc990101	-0.018677237
37	0x3cdf3be8	0.027250245
38	0x3d19e95b	0.03757606
39	0xbc9ea5cb	-0.019366166
40	0xbbe2c20e	-0.006920106
41	0x39abc884	0.00032765057
42	0xbc9d61bb	-0.01921164
43	0x3bd95f80	0.006633699
44	0xbc77a2ad	-0.0151144685
45	0x3bb016f5	0.0053738304
46	0x3b2d0489	0.0026400408
47	0xbb57f505	-0.003295244
48	0xbb5afb06	-0.0033413782
49	0x3d0d5fe7	0.034515288
50	0xbcd05b0f	-0.025434045

transformer_encoder.layers.0.self_attn.out_proj.weight f4 [17, 17]
0	0xbcdb9aab	-0.02680715
1	0xbb24e32f	-0.0025159826
2	0x3ce9b510	0.02852872
3	0x3e37220d	0.17884083
4	0xbb005c7a	-0.001958637
5	0x3d0ae08c	0.03390555
6	0x3dc28b76	0.09499256
7	0xbe13b2cd	-0.14423676
8	0xbe0e2e34	-0.13884813
9	0xbc834819	-0.01602559
10	0xbdd81f8c	-0.10552892
11	0xbdb8d752	-0.09025444
12	0xbb3b1e86	-0.002855213
13	0xbdc30199	-0.09521789
14	0x3e35cc81	0.17753793
15	0xbc51b62c	-0.012799781
16	0xbd3e03d2	-0.046390362
17	0xbd80feaf	-0.06298577
18	0x3de50297	0.111821346
19	0xbdce2237	-0.1006512
20	0xbde16622	-0.110058084
21	0xbd9e9d38	-0.07744831
22	0x3d9608b9	0.073258825
23	0x3d110803	0.03540803
24	0x3c7fd8fe	0.0156157
25	0x3df2253c	0.11823508
26	0x3e680b8e	0.22660658
27	0x3e6002b0	0.21876025
28	0xbdc5e4a3	-0.096627496
29	0x3d411f41	0.047148947
30	0x3e40c7d3	0.18826227
31	0xbdfd55e5	-0.12369899
32	0x3cd81c9b	0.026380828
33	0x3db70b2d	0.089376785
34	0x3dc059f6	0.09392159
35	0xbd52a063	-0.051422488
36	0xbe2ec712	-0.17068127
37	0x3d857dff	0.065181725
38	0x3df3aec5	0.11898569
39	0xbba37d62	-0.004989312
40	0xbd1bd82a	-0.038047947
41	0xbda3fd3d	-0.08007286
42	0xbd632f34	-0.05546494
43	0xbd9827df	-0.0742948
44	0xbe0d0762	-0.13772348
45	0x3e37f764	0.17965466
46	0xbe0cc078	-0.13745296
47	0x3d7c3bed	0.061580587
48	0xbdb97d23	-0.09057071
49	0xbd139400	-0.036029816
50	0xbdf68bb4	-0.12038365
51	0xbe5811de	-0.21100566
52	0x3de5f1d6	0.11227767
53	0xbc254a9f	-0.010088592
54	0x3e28d475	0.16487296
55	0x3db507fd	0.08839414
56	0xbd88082e	-0.06642185
57	0x3e6f2023	0.23352103
58	0x3cdc2365	0.026872346
59	0xbdd47932	-0.10374679
60	0xbe4669bf	-0.19376276
61	0xbde7048f	-0.11280166
62	0xbd389b7f	-0.045070168
63	0x3cbbb75a	0.022914577
64	0x3c4bfad3	0.012449938
65	0xbc156e96	-0.009120604
66	0x3d12e92d	0.035866905
67	0x3d65cd59	0.056104038
68	0xbc7ef260	-0.015560716
69	0x3b363626	0.002780327
70	0x3dbeef5c	0.09322998
71	0xbc02e019	-0.007987999
72	0xbe98a0ab	-0.2981008
73	0x3d3f0439	0.046634886
74	0x3d4d15ea	0.050069727
75	0x3dd3e7c6	0.10346942
76	0xbcb9faa0	-0.022702515
77	0x3d388d36	0.045056544
78	0xbdaa19fc	-0.083057374
79	0xbe3dd5a1	-0.18538524
80	0x3e33e1ba	0.17566577
81	0x3e0ddfc4	0.13854891
82	0x3d418350	0.04724437
83	0xbe03b50e	-0.12862036
84	0x3e0b5a93	0.1360877
85	0xbdf2842a	-0.118416145
86	0x3bde2a95	0.0067799785
87	0xbd2e8faa	-0.042617477
88	0xbe29e5bd	-0.16591544
89	0xbdcabee2	-0.09899689
90	0x3d87d73d	0.0663285
91	0xbe2945bf	-0.16530512
92	0xbd38d9ff	-0.045129772
93	0xbe365616	-0.17806277
94	0xbd3655ff	-0.044515606
95	0x3e044bfe	0.12919614
96	0xbd65c67c	-0.056097493
97	0xbd6acdc3	-0.057325136
98	0x3ca2f1bc	0.019890659
99	0xbda7a8d3	-0.081864975
100	0x3db91f90	0.09039223
101	0x3e0a63bf	0.13514613
102	0xbd2ef764	-0.0427164
103	0x3d6f1526	0.058369778
104	0x3d304e48	0.043043405
105	0xbe2a142a	-0.16609254
106	0x3d189161	0.03724802
107	0x3dab128b	0.08353146
108	0x3caaacef	0.020834414
109	0x3e52a655	0.20571263
110	0xbdda1aa6	-0.10649614
111	0x3e07abd0	0.13249135
112	0xbd3ce2e8	-0.046114832
113	0xbe522806	-0.2052308
114	0x3bab7435	0.005232359
115	0x3cf7a04e	0.030227806
116	0x3e032727	0.12807904
117	0xbd4d6b5f	-0.050151225
118	0x3e6f0cc3	0.23344712
119	0x3da91de9	0.08257658
120	0xbb005116	-0.001957958
121	0xbc1bf454	-0.009518702
122	0xbe589fef	-0.2115476
123	0xbdc60bcf	-0.09670221
124	0xbe03a3b7	-0.12855421
125	0xbe0ee33a	-0.13953868
126	0x3e045395	0.12922509
127	0xbdf3a131	-0.11895979
128	0x3e20e617	0.15712772
129	0xbd1d40ee	-0.038392
130	0xbe2fb0c5	-0.17157276
131	0xbc9028bc	-0.017597549
132	0x3e83bed0	0.25731516
133	0x3d585766	0.052817725
134	0xbd94f457	-0.072731666
135	0x3de29b52	0.11064781
136	0x3d381bf4	0.044948533
137	0x3df65403	0.12027743
138	0x3d8f9d4d	0.070124246
139	0xbeaa87f9	-0.33306864
140	0xbccade46	-0.024764191
141	0xbe198ccc	-0.14995116
142	0x3dba873b	0.091078244
143	0xbd01b097	-0.03166255
144	0x3da5ee19	0.08102054
145	0x3d6a778f	0.057242926
146	0x3e32cf86	0.17461976
147	0xbe221c93	-0.15831213
148	0x3ca84356	0.02053992
149	0x3e0a1414	0.13484222
150	0xbd23431c	-0.039858922
151	0xbb065a1e	-0.0020500491
152	0x3e1899aa	0.14902368
153	0x3e29a7b8	0.16567886
154	0xbd4c41e3	-0.049867522
155	0xbdc79e2f	-0.09746968
156	0x3be5e4b5	0.0070157894
157	0xbe818d3b	-0.25303063
158	0xbd19f643	-0.03758837
159	0xbd818ee9	-0.06326086
160	0x3db27da5	0.08715371
161	0x3d11b78a	0.035575427
162	0x3dd5c5dc	0.10438129
163	0x3d287932	0.041131206
164	0xbe6179d8	-0.22019136
165	0xbcc23a06	-0.023709308
166	0xbdacc77f	-0.08436488
167	0xbe639f31	-0.22228695
168	0xbde83850	-0.11338866
169	0xbced55b9	-0.02897154
170	0x3c9af0b7	0.01891361
171	0xbdfb21e4	-0.122623235
172	0x3d9de431	0.0770954
173	0x3e35ae0f	0.1774218
174	0x3dc4a5b6	0.09601919
175	0xbdef81a1	-0.116946466
176	0x3ddcebc7	0.107871585
177	0xbe2784f6	-0.16359314
178	0xbdf96f28	-0.121794045
179	0x3d20d00b	0.039260905
180	0x3dad2ac4	0.084554225
181	0x3cc2a902	0.02376223
182	0x3caf9032	0.021431062
183	0xbd878520	-0.066171885
184	0xbda64cf5	-0.08120147
185	0x3e0bb3c9	0.13642801
186	0xbe2eebc2	-0.17082122
187	0xba92992d	-0.0011184566
188	0xbd64eadd	-0.055888046
189	0x3c503764	0.012708519
190	0xbd083137	-0.03325006
191	0xbe0a9a3e	-0.13535401
192	0x3e0b12e8	0.13581431
193	0x3d0fda52	0.035120316
194	0x3dbe8d81	0.093043335
195	0xbd8d2051	-0.068909295
196	0xbe176b8a	-0.14787117
197	0x3d2de9ec	0.042459413
198	0x3e04bc7a	0.12962523
199	0x3d8ae8b8	0.06782669
200	0xbc969366	-0.018380832
201	0x3e08f215	0.13373597
202	0x3d39f762	0.04540194
203	0x3e22f79a	0.15914765
204	0xbdfe1736	-0.12406771
205	0x3cbcfa60	0.023068607
206	0x3db8db55	0.09026209
207	0xbd7f53eb	-0.06233589
208	0x3d3f0b7c	0.04664181
209	0xbce21a73	-0.027600503
210	0x3e4a5b82	0.1976147
211	0xbceaa66b	-0.028643807
212	0xbdde5b80	-0.10857296
213	0xbe22e601	-0.15908052
214	0xbd041ed4	-0.032255962
215	0xbb830df6	-0.003999467
216	0xbcecf047	-0.028923167
217	0xbd874e08	-0.0660668
218	0x3e1b38fa	0.15158454
219	0x3d17bef6	0.03704735
220	0xbde08a60	-0.10963893
221	0x3da40caa	0.08010228
222	0x3d8dec4b	0.06929835
223	0xbcb68f4e	-0.02228513
224	0x3e006712	0.12539318
225	0x3dd2347f	0.10263919
226	0xbe10929a	-0.14118424
227	0x3e3741c9	0.17896189
228	0xbe18ae06	-0.14910135
229	0x3b5f84f5	0.0034106348
230	0x3d9f652c	0.07782969
231	0xbe429a2b	-0.19004123
232	0x3e9100b7	0.28320858
233	0xbd214859	-0.039375637
234	0xbe005734	-0.12533265
235	0x3c013a52	0.00788744
236	0x3cf93850	0.03042236
237	0xbd13227e	-0.035921566
238	0xbe31737f	-0.17329215
239	0xbda49ab7	-0.08037322
240	0x3dfedc50	0.12444365
241	0x3e1fbaa0	0.15598536
242	0xbbd02781	-0.0063523655
243	0xbb25d3f6	-0.002530334
244	0xbd8583d0	-0.06519282
245	0xbcf91378	-0.030404791
246	0x3d0a1eaf	0.03372067
247	0x3c8817c3	0.016612893
248	0x3c566a5f	0.013086884
249	0xbcd02408	-0.025407806
250	0x3b4df411	0.0031425992
251	0xbdb98cba	-0.090600446
252	0x3e00d188	0.1257993
253	0x3e20f48b	0.15718286
254	0x3db115f1	0.08646763
255	0x3bc12a3b	0.005894927

transformer_encoder.layers.0.self_attn.out_proj.bias f4 [17]
0	0x3bff3c98	0.0077892058
1	0xbd11af60	-0.03556764
2	0x3cee5203	0.02909184
3	0xbcd0ffa1	-0.025512518
4	0xbd2cb6cd	-0.04216652
5	0xbd570ac1	-0.05250049
6	0xbc16254e	-0.009164168
7	0x3ccdabf0	0.0251064
8	0x3c9f2d9c	0.019430928
9	0xbd4315bf	-0.04762816
10	0x3c435576	0.011922231
11	0xbd225b70	-0.039637983
12	0x3c6650ef	0.014057382
13	0x3c1c0321	0.00952223
14	0x3c0532e5	0.00812981
15	0x3c02a9f5	0.007975091
16	0x3cb9dc39	0.022688018

transformer_encoder.layers.0.linear1.weight f4 [16, 17]
0	0x3c254194	0.010086436
1	0xbdec2ab4	-0.115315825
2	0x3ca43828	0.020046309
3	0x3f2286cb	0.6348693
4	0x3d15b08f	0.036545333
5	0x3d8a01ea	0.06738646
6	0xbd78a7b4	-0.06070681
7	0xbf30d987	-0.6908192
8	0xbea03826	-0.31292838
9	0xbe2936c3	-0.16524796
10	0x3d498f2b	0.0492088
11	0x3c767be3	0.015044185
12	0x3e009911	0.1255839
13	0xbaee1e7e	-0.0018167046
14	0x3c093986	0.008375531
15	0xbdb32fb7	-0.08749335
16	0xbe4e8c92	-0.20170811
17	0xbdd20a9d	-0.102559306
18	0x3eacfc1c	0.33786094
19	0xbe120179	-0.14258374
20	0x3e1892e2	0.14899781
21	0x3e9ae621	0.302537
22	0x3d13287c	0.03592728
23	0x3ead9f91	0.33910802
24	0x3e134224	0.143807
25	0x3e0d3d86	0.13793
26	0x3f10c7cd	0.5655487
27	0x3d36b4d1	0.044606034
28	0x3e0a075f	0.13479374
29	0xbded5199	-0.11587829
30	0xbefa986b	-0.4894441
31	0xbd714e65	-0.058912653
32	0xbe8096fc	-0.25115192
33	0xbd0649d4	-0.03278525
34	0x3d33ec5f	0.043926593
35	0x3dac35e9	0.0840872
36	0x3e174aa3	0.14774565
37	0x3f3531d7	0.70779175
38	0xbd5b8beb	-0.053600233
39	0x3d56035f	0.05224931
40	0xbab91721	-0.0014121273
41	0xbf3dc527	-0.74128956
42	0xbf04dcc4	-0.5189936
43	0x3d3cf289	0.046129737
44	0x3e264691	0.16237856
45	0x3e3edcae	0.1863887
46	0x3e1c8ab3	0.15287285
47	0x3e222976	0.15836129
48	0x3e9d66c2	0.3074246
49	0x3d0f2c02	0.03495408
50	0xbd9e4a94	-0.077290684
51	0xbe74b8c0	-0.23898602
52	0x3e9c40cd	0.3051819
53	0xbe48495a	-0.19559231
54	0xbe0d1f99	-0.13781585
55	0x3ecb4cfb	0.3970717
56	0x3e99ea4c	0.30061567
57	0x3e242c50	0.16032529
58	0x3e054d3b	0.13017742
59	0x3ca29660	0.019847095
60	0x3f06871f	0.5254993
61	0x3d3f179c	0.046653375
62	0x3d9fadc7	0.07796817
63	0xbe13d5f0	-0.1443708
64	0xbf09a572	-0.53768075
65	0x3dedecab	0.116174065
66	0xbe6f24e1	-0.23353912
67	0x3d15db5c	0.03658615
68	0x3cfe056b	0.031008443
69	0x3ddecad9	0.10878534
70	0xbd9e17da	-0.07719393
71	0x3f1e4a47	0.6183209
72	0x3d99a0f7	0.07501405
73	0xbdfc561a	-0.1232111
74	0x3d52284e	0.05130797
75	0xbee6d586	-0.4508478
76	0xbeb012d4	-0.34389365
77	0xbd8e5f38	-0.06951755
78	0x3baa7a71	0.0052025844
79	0x3de0c4e5	0.10975055
80	0x3e4327d6	0.19058165
81	0x3db719e4	0.08940485
82	0x3e31a97c	0.1734981
83	0x3e21c383	0.15797238
84	0x3da90020	0.08251977
85	0x3bb7eda4	0.0056130458
86	0x3d75a99b	0.0599762
87	0x3d7a8647	0.061163213
88	0x3df23ce2	0.11828019
89	0xbe03abe1	-0.12858535
90	0xbd260f8e	-0.040542178
91	0x3d7f5e9a	0.06234608
92	0xbe7553f8	-0.23957813
93	0xbde24de8	-0.11050016
94	0xbdf1f325	-0.11813954
95	0xbd98fb8f	-0.07469856
96	0x3e4a9560	0.19783545
97	0x3dbbe943	0.091753505
98	0xbd043ab1	-0.032282535
99	0xbd9daaca	-0.07698591
100	0x3bca903e	0.006181746
101	0xbe9b63b1	-0.30349496
102	0x3e2cf705	0.16891105
103	0xbd9efcda	-0.07763071
104	0x3d692f06	0.05692961
105	0xbcb16c6d	-0.021658147
106	0xbe605ba1	-0.21909954
107	0xbdc013c7	-0.09378772
108	0xbd1e8cd0	-0.038708508
109	0xbd7abf55	-0.061217625
110	0xbd9c5853	-0.07634034
111	0xbe6439fb	-0.22287743
112	0x3e05264b	0.13002889
113	0xbca9f24a	-0.020745415
114	0x3e3dee76	0.18547997
115	0x3dea404f	0.11438047
116	0xbeb4bdee	-0.35301155
117	0x3de22d5b	0.11043807
118	0xbe01afc7	-0.1266471
119	0xbe46120b	-0.1934282
120	0x3ea6391b	0.32465443
121	0xbe0b2d52	-0.13591507
122	0xbe23b9b7	-0.15988813
123	0x3eba05ee	0.3633265
124	0x3e72639c	0.2367081
125	0x3df3ddf5	0.11907569
126	0xbc9c6c20	-0.019094527
127	0x3d5ca149	0.05386475
128	0x3e8b7a18	0.27241588
129	0xbc92f487	-0.017938865
130	0xbe191863	-0.14950709
131	0xbe8f654e	-0.28006977
132	0xbf152ee7	-0.5827469
133	0xbdb1aa2f	-0.08675038
134	0xbe918ddb	-0.2842854
135	0x3dba1f1d	0.09087966
136	0x3e5fb080	0.21844673
137	0xbe3c958e	-0.18416426
138	0xbd7d7442	-0.06187845
139	0x3f271b45	0.65275985
140	0x3dbc9920	0.09208894
141	0x3d5b2bbd	0.05350851
142	0x3cb25dcd	0.021773243
143	0xbf2fee27	-0.68722767
144	0xbed2e938	-0.41193557
145	0x3d612f17	0.05497655
146	0x3e1ea571	0.15492798
147	0xbca6c76d	-0.020358765
148	0x3e27fbcf	0.16404651
149	0x3dcebbf2	0.100944415
150	0xbcf10595	-0.029421607
151	0x3cfda4b2	0.030962322
152	0xba000aa5	-0.00048843987
153	0xbcbe3d6f	-0.023222653
154	0xbe4eda0d	-0.20200367
155	0xbdaf0d8d	-0.085475065
156	0x3f2b9555	0.6702474
157	0x3b774f81	0.0037736597
158	0x3c3ca20a	0.0115132425
159	0xbda24e8e	-0.07925139
160	0xbf2e2132	-0.680194
161	0xbea44381	-0.3208275
162	0xbc8963fb	-0.016771307
163	0x3d959664	0.07304075
164	0x3da671b9	0.081271596
165	0x398ad131	0.0002647727
166	0x3e200ed2	0.15630654
167	0xbca8d1de	-0.020607885
168	0xbd1bb078	-0.03801009
169	0xbe2e2be0	-0.17008924
170	0x3e2b7e32	0.16747358
171	0xbe0cdf9b	-0.13757174
172	0x3dbe62c2	0.0929618
173	0x3f24e6a1	0.6441441
174	0xbcc67ee5	-0.02423043
175	0x3cc96208	0.024582878
176	0x3ca10736	0.019656759
177	0xbf282097	-0.6567473
178	0xbef2efd6	-0.47448605
179	0xbdb794fc	-0.089639634
180	0x3ddfc671	0.109265216
181	0x3e278ab0	0.16361499
182	0x3d5ba161	0.0536207
183	0xbd124e58	-0.035719246
184	0xbd199e5c	-0.03750454
185	0x3e34c765	0.17654188
186	0xbe6d1567	-0.23152696
187	0xbd29b661	-0.041433696
188	0x3ea8ee52	0.32994324
189	0x3c407079	0.011745566
190	0xbd2d9a53	-0.042383503
191	0x3dcdcf8c	0.10049352
192	0x3d71c3ad	0.0590245
193	0x3e2edf25	0.1707731
194	0xbd580c6e	-0.05274623
195	0x3e24a9d0	0.16080403
196	0x3ef05795	0.4694182
197	0xbe3962bb	-0.18104069
198	0x3d252d32	0.040326305
199	0xbe6010b3	-0.2188137
200	0xbe5c79f3	-0.21530895
201	0xbd893bea	-0.06700881
202	0xbe57cd6f	-0.2107446
203	0xbe00a4ab	-0.12562816
204	0xbb2324ca	-0.0024893754
205	0xbcaed85b	-0.0213434
206	0x3e9d6a5d	0.3074521
207	0x3f054714	0.5206158
208	0xbda69ace	-0.081349954
209	0xbe1f0cfd	-0.15532298
210	0xbe82f5c8	-0.2557814
211	0xbf40868f	-0.7520532
212	0xbedb8b76	-0.42879838
213	0xbbf4f0bc	-0.007474987
214	0x3e175173	0.14777164
215	0x3d902989	0.07039172
216	0x3dcf2a14	0.10115448
217	0xbba65127	-0.005075592
218	0x3dfbd750	0.12296927
219	0xbda83fb0	-0.082152724
220	0xbd6e5174	-0.05818315
221	0x3dc0c862	0.0941322
222	0xbc7fd012	-0.015613573
223	0xbe1ecf15	-0.15508683
224	0xbc5b2b63	-0.013377043
225	0x3e0fc0e5	0.14038427
226	0xbdce7a89	-0.100819655
227	0x3c7ba6ac	0.015359562
228	0xbd9d1035	-0.07669107
229	0x3d78149d	0.060566533
230	0xbd8852c2	-0.0665641
231	0x3d4c1144	0.049821153
232	0xbdac4368	-0.08411294
233	0xbc9d0a5f	-0.019169984
234	0xbd84feee	-0.064939365
235	0xbbfce09c	-0.007717205
236	0x3d3bd43f	0.04585671
237	0xbdd67020	-0.10470605
238	0xbd96b225	-0.07358197
239	0x3c04879b	0.0080889715
240	0x3e23629e	0.15955588
241	0x3ecb50f0	0.39710188
242	0x3de70ea1	0.11282087
243	0x3d09f67f	0.033682343
244	0x3c1c77af	0.009550019
245	0xbf32dd4d	-0.6986893
246	0xbef5045f	-0.47854897
247	0xbe3b8bcf	-0.18315051
248	0x3e3f116b	0.18658988
249	0x3b6bd1b6	0.0035983152
250	0x3e55f54f	0.20894359
251	0x3d578f8d	0.052627135
252	0x3e5ac049	0.21362413
253	0xbc8c3bf0	-0.017118424
254	0xbcae4251	-0.021271857
255	0x3d9942e0	0.074834585

transformer_encoder.layers.0.linear1.bias f4 [16]
0	0x3d9b3aa5	0.07579545
1	0x3de857a9	0.11344845
2	0x3e1d1be4	0.1534267
3	0x3d6330da	0.05546651
4	0xbe0b63e4	-0.13612324
5	0x3c002504	0.007821325
6	0xbc847c99	-0.016172694
7	0xbdbf6136	-0.093447134
8	0xbdde6c07	-0.10860448
9	0x3c6aa868	0.014322378
10	0xbc9b5f19	-0.018966245
11	0xbcce1c4d	-0.02515998
12	0xbdcb45f0	-0.09925449
13	0xbe457e4a	-0.19286457
14	0xbd62d9ef	-0.05538362
15	0x3d323ce5	0.043515105

transformer_encoder.layers.0.linear2.weight f4 [17, 16]
0	0x3d89577f	0.06706142
1	0xbeb9e61e	-0.36308378
2	0x3de8897e	0.113543496
3	0xbee4b157	-0.4466655
4	0x3e6e84db	0.23292868
5	0x3e666579	0.22499646
6	0xbd9f17ee	-0.07768236
7	0xbe7a7f7b	-0.24462692
8	0x3e86a543	0.2629796
9	0x3e4478f4	0.19186765
10	0x3e44e018	0.1922611
11	0xbe45cf9a	-0.19317475
12	0x3e2f34a0	0.17109919
13	0x3cffdb11	0.031232389
14	0x3e8f36c4	0.2797147
15	0xbc0136e3	-0.007886621
16	0x3e2beb8b	0.16789071
17	0x3e31bb6b	0.1735665
18	0x3d3a693c	0.045510516
19	0x3e7e9e1e	0.24865004
20	0xbcd9b082	-0.026573423
21	0xbe73f2ec	-0.23823136
22	0x3db344b4	0.087533385
23	0xbe44bf7d	-0.19213672
24	0x3e561919	0.20908011
25	0x3d3d6148	0.046235353
26	0x3c500eb1	0.012698815
27	0x3eb056b4	0.3444115
28	0x3e1e239b	0.1544327
29	0x3ddec532	0.10877456
30	0xbd421462	-0.04738272
31	0x3ddb4119	0.10705776
32	0xbe067070	-0.13128829
33	0x3d90a557	0.07062786
34	0xbe6daba5	-0.23210008
35	0x3c296912	0.010339992
36	0xbd795154	-0.060868576
37	0x3d6fdbac	0.058559105
38	0x3e2199d8	0.15781343
39	0xbdeeafff	-0.11654662
40	0xbea0a81f	-0.31378266
41	0xbe69f865	-0.22848661
42	0xbe85b0bd	-0.26111403
43	0xbe06ced6	-0.13164839
44	0xbe8c7078	-0.27429557
45	0xbc02512a	-0.007953921
46	0xbe8e2401	-0.27761844
47	0x3d4e4ad9	0.05036435
48	0xbc92e80d	-0.017932916
49	0x3cfc4fab	0.030799707
50	0x3e8959ba	0.26826268
51	0x3e8825a3	0.26591215
52	0x3bd85e36	0.0066030277
53	0x3d57811c	0.052613363
54	0x3d60c4d9	0.05487523
55	0x3eb2fa67	0.34956667
56	0x3e9760e3	0.29566106
57	0x3e7e6253	0.24842195
58	0x3dbfb75a	0.093611434
59	0x3e831461	0.25601485
60	0x3e6ae2b8	0.22938049
61	0xbd82c8f2	-0.063859835
62	0xbcded49b	-0.027200988
63	0x3dfe73b4	0.12424412
64	0xbdfe2acf	-0.12410509
65	0x3ea67ab0	0.32515478
66	0x3cc55f81	0.024093391
67	0x3e8ae821	0.27130225
68	0xbe3a07b5	-0.18167002
69	0xbe02987c	-0.1275348
70	0x3e8e0d3e	0.27744478
71	0x3e17be4b	0.14818685
72	0xbdd644df	-0.10462355
73	0xbd04346c	-0.032276556
74	0xbe0e95c0	-0.13924313
75	0x3e19bbf1	0.150131
76	0x3dfe0d0e	0.12404834
77	0x3d042ab0	0.032267272
78	0x3dee757e	0.116435036
79	0x3d602d70	0.054730833
80	0xbcf4b035	-0.029869178
81	0x3e49c16f	0.19702695
82	0x3cd4e85b	0.025989702
83	0x3e4de034	0.20105058
84	0x3d52e5d9	0.05148873
85	0xbdc1670f	-0.09443485
86	0x3e203124	0.15643746
87	0x3e4ced28	0.20012343
88	0xbc8774f2	-0.016535256
89	0x3e4196ba	0.18905154
90	0xbc647623	-0.013944182
91	0x3e3c6830	0.1839912
92	0x3e06fce9	0.13182415
93	0x3d803c00	0.06261444
94	0x3e0854ad	0.13313551
95	0xbe6bc1c1	-0.2302313
96	0x3dfd811a	0.1237814
97	0xbe3b8305	-0.18311699
98	0x3ea8b62d	0.3295149
99	0xbe679be1	-0.22618057
100	0x3e76c24b	0.24097554
101	0xbdc8b418	-0.09799975
102	0xbe61fd9e	-0.22069404
103	0xbe3946d5	-0.18093427
104	0x3e99ea02	0.30061346
105	0x3d5aeee5	0.053450484
106	0x3eb59aa0	0.35469532
107	0xbd6ccc98	-0.057812303
108	0x3e0b52aa	0.13605753
109	0xbe4375e6	-0.19087943
110	0x3eaca9ea	0.33723384
111	0x3ac0dd31	0.0014714358
112	0xbe3df63d	-0.18550964
113	0xbdbdaf99	-0.09262008
114	0xbe8e9c36	-0.27853554
115	0xbe23566c	-0.15950936
116	0xbe81d86b	-0.25360426
117	0xbe2ece90	-0.17070985
118	0x3d92e6d8	0.07172936
119	0xbed27774	-0.4110676
120	0xbe9d97cc	-0.30779874
121	0xbe781547	-0.24226867
122	0xbddec8b0	-0.10878122
123	0x3dcb44b4	0.099252135
124	0xbda840a8	-0.08215457
125	0x3c8821c5	0.016617665
126	0xbdc50eff	-0.09622001
127	0x3d702885	0.058632392
128	0xbe74658f	-0.23866867
129	0xbd1c438e	-0.038150363
130	0xbe94e34e	-0.2907967
131	0xbe829a90	-0.25508547
132	0xbe3c396e	-0.18381283
133	0xbe774ed5	-0.24151166
134	0x3df8a061	0.12139965
135	0xbeda8713	-0.42681178
136	0xbdc45106	-0.095857665
137	0xbdff568d	-0.1246768
138	0xbe45b540	-0.19307423
139	0xbc3fa0b4	-0.011696029
140	0xbd22c4a7	-0.039738324
141	0xbe1729be	-0.14762017
142	0xbeaeb3ea	-0.3412164
143	0x3dbd72dd	0.09250424
144	0x3e8b9a27	0.27266046
145	0x3ec8b54c	0.3920082
146	0x3e3af7c6	0.1825858
147	0x3e6bb6c9	0.23018946
148	0x3df01f37	0.11724704
149	0xbc933c39	-0.017973052
150	0x3c78603e	0.015159665
151	0x3eba8ba1	0.36434653
152	0x3e18f93f	0.1493883
153	0x3e927896	0.28607625
154	0x3ec68177	0.3877065
155	0x3eb1660e	0.34648174
156	0x3e9bbc7a	0.30417234
157	0xbe237fe8	-0.15966761
158	0x3eb8d19a	0.36097413
159	0xbdf834ff	-0.12119483
160	0x3c5c6338	0.01345139
161	0xbeaa16d4	-0.3322054
162	0xbe6a1191	-0.22858264
163	0xbedc478b	-0.43023333
164	0x3c698562	0.014252992
165	0x3de8b4a5	0.1136258
166	0xbd5b804a	-0.053589143
167	0xbe77c5c4	-0.24196535
168	0xbe764325	-0.24049051
169	0x3dd79f91	0.10528482
170	0xbe7b2aa6	-0.24527988
171	0xbebe446a	-0.3716157
172	0xbeb62852	-0.35577637
173	0xbc856b71	-0.016286584
174	0xbcf0565f	-0.02933806
175	0x3e1c0cd0	0.15239263
176	0x3e172e38	0.14763725
177	0x3eb8d1f3	0.3609768
178	0x3e09be35	0.13451464
179	0x3f01de84	0.50730157
180	0x3e1b0428	0.15138304
181	0x3de61c24	0.11235836
182	0x3e038243	0.1284266
183	0x3ec8c19c	0.39210212
184	0x3e970403	0.29495248
185	0x3dea6580	0.11445141
186	0x3e4b3dc5	0.19847782
187	0x3e31e333	0.17371826
188	0x3e2c33df	0.16816662
189	0x3da4782e	0.08030735
190	0x3ea89297	0.3292434
191	0xbe30098a	-0.17191139
192	0xbeb97d29	-0.36228302
193	0xbdc49b90	-0.09599984
194	0xbe97ea10	-0.29670763
195	0xbe2d9fd6	-0.16955504
196	0xbe0166f2	-0.12636927
197	0xbd7875c4	-0.060659185
198	0xbdfde0ab	-0.12396368
199	0xbe69ae17	-0.22820316
200	0xbe78730f	-0.24262641
201	0xbe0c6ac4	-0.13712603
202	0xbe2e5d53	-0.17027788
203	0xbe366287	-0.17811023
204	0xbe3c114b	-0.18365972
205	0x3d98b78d	0.074568845
206	0xbe5c6a87	-0.21525012
207	0xbd24974d	-0.040183354
208	0x3d34320c	0.04399304
209	0xbe59d0bb	-0.2127103
210	0x3c581ab7	0.013189963
211	0xbe4da3b3	-0.20081978
212	0x3e2303b8	0.15919387
213	0x3dc275f1	0.09495152
214	0xbe85ca93	-0.26131114
215	0xbe2be049	-0.16784777
216	0x3cdf4d2b	0.027258476
217	0x3e058bbe	0.13041589
218	0xbe3503d1	-0.17677237
219	0xbe2d6c35	-0.16935809
220	0xbe341d7d	-0.17589374
221	0xbe1149e1	-0.14188339
222	0xbe11e718	-0.14248312
223	0xbcd2ff56	-0.02575652
224	0x3e754460	0.23951864
225	0xbe9d5c01	-0.30734256
226	0x3f017136	0.5056337
227	0xbee6de9c	-0.45091712
228	0x3e8f8126	0.2802822
229	0x3e454114	0.19263107
230	0xbe481dc3	-0.19542603
231	0xbe45a8d5	-0.19302686
232	0x3ec808c7	0.39069197
233	0x3ece6327	0.40310022
234	0x3eccf6b4	0.4003197
235	0xbe7679a2	-0.24069837
236	0x3db2d91f	0.08732819
237	0x3c94a086	0.01814295
238	0x3e66bad2	0.22532204
239	0x3e141125	0.14459665
240	0xbd8a89eb	-0.06764587
241	0xbd46bde6	-0.048520945
242	0xbc776798	-0.015100382
243	0xbd8bf5b6	-0.06833975
244	0x3df506ac	0.11964163
245	0xbdcc6c32	-0.09981574
246	0x3d01d2e7	0.031695273
247	0x3dbe178d	0.09281836
248	0xbd5b6087	-0.053558853
249	0x3dfa89c7	0.1223331
250	0xbc725d85	-0.014792805
251	0xbe2670a6	-0.1625391
252	0xbd95cfaa	-0.073149994
253	0x3ba31a37	0.0049774903
254	0xbe4376f5	-0.19088347
255	0x3db78950	0.08961737

transformer_encoder.layers.0.linear2.bias f4 [17]
0	0xbe0c93dd	-0.1372828
1	0x3dfcd5e1	0.12345482
2	0x3e380e91	0.17974307
3	0xbd79b5ad	-0.060964275
4	0xbd1eff0c	-0.03881745
5	0x3d513be4	0.051082507
6	0x3ddd4870	0.10804832
7	0xbe35e343	-0.17762475
8	0xbdcf8db6	-0.10134451
9	0xbcba21f0	-0.02272126
10	0x3e2f4214	0.1711505
11	0x3d31616b	0.043305796
12	0x3dbd13d0	0.092322946
13	0x3dd9a99c	0.106280535
14	0x3d691e98	0.056913942
15	0xbb8b4b68	-0.0042509325
16	0xbe04c6bd	-0.12966438

transformer_encoder.layers.0.norm1.weight f4 [17]
0	0x3f3f442f	0.74713415
1	0x3f483235	0.7820161
2	0x3f315f6a	0.69286215
3	0x3f50002f	0.8125028
4	0x3f2f833d	0.6855963
5	0x3f40b6e4	0.7527907
6	0x3f372968	0.71547556
7	0x3f47974d	0.7796524
8	0x3f36b222	0.7136556
9	0x3f666883	0.9000322
10	0x3f28dcfa	0.65962183
11	0x3f32c0c1	0.6982537
12	0x3f3c0330	0.73442364
13	0x3f47f51b	0.78108376
14	0x3f2d0ac6	0.67594564
15	0x3f29c322	0.66313374
16	0x3f25d962	0.64784825

transformer_encoder.layers.0.norm1.bias f4 [17]
0	0xbd4316cf	-0.047629174
1	0x3d0a77a5	0.03380551
2	0xbcf8bd31	-0.030363651
3	0x3c10a7a8	0.008829035
4	0x3d49acad	0.049236942
5	0x3bf4b703	0.0074681058
6	0x3d2840c1	0.04107738
7	0xbc7d24fb	-0.015450711
8	0xbd2a66d7	-0.041601982
9	0x3d869671	0.06571663
10	0x3c897b6b	0.016782483
11	0x3d70044c	0.058597848
12	0xbc8f3967	-0.017483426
13	0xbd022e0c	-0.031782195
14	0x3c38fdf2	0.011291014
15	0xbd6ee705	-0.058325786
16	0xbd4a24ce	-0.049351506

transformer_encoder.layers.0.norm2.weight f4 [17]
0	0x3f91b59c	1.1383548
1	0x3f8b54ee	1.0885293
2	0x3fa58722	1.2931864
3	0x3f982541	1.1886369
4	0x3f9399cf	1.1531314
5	0x3fa002cc	1.2500854
6	0x3fa963a0	1.3233528
7	0x3f95e7b6	1.1711338
8	0x3f87335d	1.056255
9	0x3f96f83e	1.1794508
10	0x3f860dcc	1.047296
11	0x3faf3c6c	1.3690314
12	0x3f8d5100	1.1040344
13	0x3f9f5f42	1.2450945
14	0x3f7bbcfd	0.9833525
15	0x3f8446d8	1.033412
16	0x3f9f9e01	1.2470094

transformer_encoder.layers.0.norm2.bias f4 [17]
0	0x3a74640d	0.000932277
1	0xbe472aea	-0.19449964
2	0x3caa4aa4	0.020787545
3	0xbe4c409e	-0.19946525
4	0xbe64c357	-0.22340141
5	0xbe80fab3	-0.25191268
6	0xbc4ed16c	-0.012623172
7	0x3e62202c	0.22082585
8	0x3e2d318a	0.16913429
9	0xbd6e791e	-0.058220975
10	0xbc7b6402	-0.015343668
11	0xbd8bc9b5	-0.06825582
12	0xbd8d117b	-0.068881
13	0x3e32ff89	0.17480291
14	0xbd76bd25	-0.060238976
15	0x3ecaf4f3	0.39640006
16	0xbd40b497	-0.047047224

mlp.0.weight f4 [17, 17]
0	0xbe82c4b7	-0.25540707
1	0x3e0fc2ce	0.14039156
2	0xbe2a4ed4	-0.16631633
3	0xbdfee9fe	-0.12446974
4	0x3e8dc7cf	0.27691504
5	0x3eaccfcd	0.3375229
6	0xbe2825a8	-0.16420615
7	0x3bdbb4ed	0.0067049176
8	0x3e36b4c5	0.17842396
9	0x3ed0768a	0.40715438
10	0xbe9252ca	-0.28578788
11	0x3ddeb914	0.108751446
12	0xbe395681	-0.18099405
13	0xbe408fef	-0.18804906
14	0xbe3635ac	-0.17793912
15	0x3e0bc6aa	0.13650003
16	0xbddf7936	-0.10911791
17	0xbdae80c2	-0.08520652
18	0xbd586bbf	-0.05283713
19	0x3e151890	0.14560151
20	0xbe40de29	-0.18834747
21	0xbedb6664	-0.42851555
22	0xbee27182	-0.44227225
23	0x3e172d02	0.14763263
24	0x3e2c9dce	0.16857073
25	0x3e981d3a	0.29709798
26	0xbe2b456f	-0.16725706
27	0xbe0ac5c2	-0.13552001
28	0xbf351070	-0.70728207
29	0x3d8c5a5d	0.06853173
30	0x3e07223e	0.13196656
31	0x3d9c76ee	0.076398715
32	0x3e70ec0d	0.23527546
33	0x3e9539b1	0.29145578
34	0xbeb2cae7	-0.34920427
35	0x3e5c0fde	0.21490428
36	0x3ca28203	0.019837385
37	0x3de8847c	0.113533944
38	0x3f0c390a	0.54774535
39	0x3eacd3c9	0.3375533
40	0xbe8d78b8	-0.27631164
41	0x3e4eb4da	0.20186177
42	0xbdcd5382	-0.100256935
43	0x3ea26555	0.31717935
44	0xbeabdca5	-0.33566776
45	0x3f17690f	0.5914468
46	0xbe60ecc4	-0.21965319
47	0xbe56eb4d	-0.20988198
48	0xbe83b6c4	-0.25725377
49	0xbb5d6d18	-0.0033786949
50	0xbef2176d	-0.47283497
51	0x3e3fde9f	0.18737267
52	0xbe8687a0	-0.2627535
53	0x3edaf471	0.4276462
54	0xbdf910d8	-0.12161416
55	0x3c5e1c73	0.0135565875
56	0xbe8ca3ce	-0.27468723
57	0xbed5095a	-0.41608697
58	0xbd47bd64	-0.0487646
59	0x3dd8f497	0.10593527
60	0xbeb9ad0c	-0.36264837
61	0x3e9a9bc9	0.3019698
62	0xbe80dc7d	-0.2516822
63	0x3e5e3819	0.21701087
64	0x3ea8b658	0.32951617
65	0x3d04ac84	0.032391086
66	0x3e7dcbe4	0.2478481
67	0x3db2b194	0.087252766
68	0xbe8bc242	-0.27296644
69	0x3ebb9fa5	0.36645237
70	0xbe43e92b	-0.19131915
71	0xbe131c76	-0.14366326
72	0x3ed8e6aa	0.42363483
73	0x3f0bb543	0.5457346
74	0xbc62adb3	-0.013835358
75	0x3e41491e	0.18875548
76	0x3e0df935	0.13864596
77	0x3ed93a05	0.42427078
78	0xbe936bf1	-0.2879329
79	0x3f043ebe	0.51658237
80	0xbe9f8fc1	-0.31164363
81	0xbf053eaa	-0.5204874
82	0xbe6c6cd4	-0.2308839
83	0xbe1c84e7	-0.15285073
84	0xbea62bbd	-0.32455245
85	0x3ea5978c	0.32342184
86	0xbda3ddb4	-0.08001271
87	0xbf4a09fa	-0.78921473
88	0x3ed7572f	0.42058703
89	0x3caae2a0	0.020860016
90	0x3e0f7618	0.14009893
91	0x3f101895	0.5628751
92	0xbed9a24c	-0.42506635
93	0xbf210b4b	-0.62907857
94	0x3eaebfd3	0.34130725
95	0xbd59f6ac	-0.05321376
96	0x3f16b6be	0.5887259
97	0xbeddbc06	-0.43307513
98	0x3e21c2ed	0.15797015
99	0x3eeda215	0.4641272
100	0x3d80b211	0.062839635
101	0xbed2b6a4	-0.4115497
102	0xbe109ce9	-0.14122356
103	0x3c2ac9ea	0.010424117
104	0x3c1b5d33	0.00948267
105	0xbf09b6fb	-0.5379483
106	0xbe0b8ff1	-0.13629128
107	0xbea2ac9c	-0.31772316
108	0x3ea4f563	0.32218465
109	0x3ee3b08d	0.44470635
110	0x3ee061e1	0.43824676
111	0x3d406374	0.046969846
112	0xbc648dcd	-0.013949824
113	0xbf064be7	-0.5245957
114	0xbe326f61	-0.174253
115	0xbd5f21e6	-0.054475687
116	0xbe1a5af6	-0.15073761
117	0x3e140b8b	0.14457528
118	0x3e9f9142	0.3116551
119	0xbf01d9f4	-0.50723195
120	0x3eaa9678	0.33317924
121	0x3c493540	0.012280762
122	0xbf0a83c6	-0.5410732
123	0x3c5e9687	0.013585693
124	0xbe9c2467	-0.30496523
125	0x3c776c49	0.015101501
126	0x3eee2cb0	0.4651847
127	0x3e98595e	0.29755682
128	0x3e659f8a	0.2242414
129	0xbe75e2da	-0.24012318
130	0xbe6d1fa6	-0.23156604
131	0xbea4e8d8	-0.32208896
132	0x3d418c8d	0.04725318
133	0xbe955fe7	-0.2917473
134	0x3d9bb177	0.07602208
135	0x3e929bfc	0.28634632
136	0xbe9ea85a	-0.30987817
137	0xbc8fc5e9	-0.017550426
138	0x3ce2f290	0.027703553
139	0xbf0e835f	-0.55669206
140	0xbc8fcac0	-0.017552733
141	0xbe8f6b1d	-0.28011408
142	0x3e2ece1b	0.1707081
143	0x3ef2b7ac	0.47405756
144	0x3ed074a3	0.40713987
145	0x3e0832b3	0.1330059
146	0xbd962e4b	-0.073330484
147	0xbec5e073	-0.38647804
148	0xbe83e2e4	-0.2575904
149	0x3d95e412	0.073188916
150	0xbd8b7024	-0.068084985
151	0x3e68d544	0.22737604
152	0x3e6f2df1	0.23357369
153	0xbe2279f5	-0.15866835
154	0xbc8eac6f	-0.017416207
155	0xbe216699	-0.15761794
156	0xbc8ee451	-0.017442854
157	0x3f03dfdc	0.5151346
158	0x3f3e8810	0.74426365
159	0xbe174ef2	-0.14776209
160	0xbe353fd9	-0.17700137
161	0xbe22a12f	-0.15881799
162	0x3eb1ef8f	0.3475308
163	0xbe5f0f41	-0.21783163
164	0x3ed58f53	0.4171091
165	0xbe492bbb	-0.19645588
166	0xbf1a2e62	-0.60227025
167	0xbe09b434	-0.13447648
168	0xbd96b807	-0.07359319
169	0xbe74cd1b	-0.23906367
170	0x3e2ebc66	0.17064056
171	0xbe76a424	-0.24086052
172	0xbe77a263	-0.2418304
173	0x3eb79fe3	0.3586417
174	0xbde9bbd7	-0.11412781
175	0xbe4d4067	-0.20044099
176	0x3f07bcd1	0.53022486
177	0xbe466048	-0.19372666
178	0xbe7fae4c	-0.24968833
179	0x3dab46a9	0.08363087
180	0x3d77ee63	0.060530078
181	0x3e9874d7	0.29776642
182	0xbc50cbf6	-0.012743941
183	0xbc67fc1e	-0.0141592305
184	0x3e274115	0.1633342
185	0x3de86fa8	0.11349422
186	0xbed80bea	-0.4219659
187	0x3e8d6ee3	0.27623662
188	0xbee1120d	-0.43959084
189	0x3f052e67	0.5202393
190	0x3e5e34c5	0.21699817
191	0xbe93eabf	-0.28890035
192	0xbdb9ed37	-0.09078448
193	0xbec9dd32	-0.3942657
194	0xbce27fcb	-0.027648827
195	0xbdf41954	-0.119188935
196	0xbefb34fb	-0.49063858
197	0x3e1ae8e0	0.15127897
198	0xbe9ac07e	-0.30224985
199	0x3ecc54e1	0.39908507
200	0x3eb49060	0.352664
201	0x3c5a1f79	0.013313168
202	0x3e7506a5	0.23928316
203	0x3a9f3f99	0.0012149691
204	0x3eb27a15	0.34858766
205	0xbe844ab9	-0.2583826
206	0xbd5a3f39	-0.05328295
207	0x3e4daf4c	0.20086402
208	0xbe678095	-0.22607644
209	0xbe9c0e57	-0.3047969
210	0x3d89cb5b	0.0672824
211	0xbe92b8c8	-0.28656602
212	0xbdace92a	-0.0844291
213	0xbe952d7f	-0.29136273
214	0xbc08bb6f	-0.008345469
215	0x3e5e8ed0	0.21734166
216	0xbe03602b	-0.12829654
217	0x3ec335c3	0.38126954
218	0x3d88444c	0.066536516
219	0x3e998422	0.29983622
220	0xbe84b69b	-0.25920567
221	0x3eb1801c	0.34668052
222	0xbd80a630	-0.06281698
223	0xbea50eb2	-0.32237774
224	0x3e52ac8e	0.20573637
225	0xbe8c12a3	-0.2735797
226	0xbe3720a3	-0.17883544
227	0x3ebf6c9f	0.3738756
228	0xbecb22f6	-0.3967511
229	0xbedced88	-0.43149972
230	0x3e847bd6	0.2587573
231	0xbc73fccf	-0.014891817
232	0x3ec3fbfc	0.38278186
233	0xbe5282c0	-0.2055769
234	0x3e419688	0.1890508
235	0x3ed51a14	0.4162146
236	0x3e2eaa05	0.17057045
237	0xbe849d5a	-0.259013
238	0x3db3dbc1	0.08782149
239	0xbe8b39d1	-0.27192548
240	0x3eb82231	0.35963586
241	0xbe56c4f4	-0.20973569
242	0xbe7bd2ea	-0.24592176
243	0xbed32b7a	-0.41244107
244	0xbe7ad341	-0.2449465
245	0x3e8441c6	0.2583143
246	0x3e85603c	0.26049984
247	0xbed8e805	-0.42364517
248	0x3e37ed77	0.1796168
249	0xbed61a07	-0.41816732
250	0x3d3bf357	0.045886364
251	0x3e188fa8	0.1489855
252	0xbe4157e9	-0.18881191
253	0x3ea6ed40	0.32602882
254	0x3dcbad7c	0.09945199
255	0xbde8a4d5	-0.11359564

mlp.0.bias f4 [17]
0	0x3d9c981c	0.076462
1	0x3daf03e4	0.08545664
2	0x3e143a60	0.14475393
3	0x3b464cec	0.0030258251
4	0x3e3ee55d	0.18642183
5	0x3d9f2b48	0.07771927
6	0x3df972fd	0.121801354
7	0x3e89e0d0	0.2692933
8	0x3e0e9d1d	0.13927121
9	0xbbd30010	-0.0064392164
10	0xbc498455	-0.012299617
11	0x3e019ada	0.12656727
12	0x3de6118c	0.112338156
13	0x3e8753ab	0.2643102
14	0x3e8fbea9	0.2807515
15	0x3d7a2851	0.061073605
16	0x3e17e714	0.14834243

mlp.2.weight f4 [4, 17]
0	0xbe41a5a1	-0.18910839
1	0xbf0bdbb9	-0.54632145
2	0xbeade64e	-0.3396477
3	0xbe985869	-0.29754952
4	0xbe882b16	-0.26595372
5	0x3eb50d17	0.3536155
6	0xbdae3799	-0.08506698
7	0xbeb1ef24	-0.34752762
8	0xbe187094	-0.14886695
9	0xbe87a2f1	-0.26491502
10	0x3e9f150c	0.31070745
11	0xbd117157	-0.03550848
12	0x3e893820	0.26800632
13	0x3e9fd454	0.3121668
14	0xbe810e18	-0.25206065
15	0xbeddb1cc	-0.4329971
16	0xbdaf8eec	-0.08572182
17	0x3e5d3295	0.21601327
18	0xbeaedd51	-0.34153226
19	0x3ee000b9	0.4375055
20	0xbd5f7bb2	-0.054561324
21	0x3e6c1dac	0.23058194
22	0xbeee0517	-0.46488258
23	0x3dfc3f34	0.123167425
24	0x3e31ce2d	0.17363806
25	0x3d934478	0.07190794
26	0x3eb39073	0.35071144
27	0xbe8c7665	-0.27434078
28	0xbe8f9eb1	-0.2805076
29	0xbdc4d091	-0.096100934
30	0xbe547dbe	-0.20751092
31	0xbf0b41a3	-0.5439703
32	0xbeb7891d	-0.35846797
33	0xbea01697	-0.31267235
34	0xbeb156ec	-0.3463663
35	0x3db4221d	0.08795569
36	0xbe07d771	-0.13265778
37	0x3f06e7d8	0.52697515
38	0xbe231203	-0.1592484
39	0xbea5d224	-0.32386887
40	0xbea047e7	-0.31304857
41	0xbeec8ceb	-0.46201262
42	0xbf270678	-0.65244246
43	0x3b2eb51f	0.002665825
44	0x3d2d71ee	0.04234498
45	0x3e9aed59	0.30259207
46	0x3e4e3329	0.20136704
47	0xbd97d4c7	-0.07413631
48	0x3ed91f30	0.42406607
49	0xbda54742	-0.08070232
50	0x3e4fc44f	0.2028973
51	0xbc01a9a5	-0.007913982
52	0x3ee48e7f	0.44639966
53	0xbe8496fd	-0.25896445
54	0xbeaf4c50	-0.3423791
55	0xbdd6a9a4	-0.10481575
56	0xbf1434bb	-0.5789296
57	0x3eae0130	0.3398528
58	0x3e697f8d	0.22802563
59	0x3e86aca9	0.26303604
60	0xbf13aaf0	-0.57682705
61	0xbe12bf88	-0.14330876
62	0xbf24676b	-0.64220303
63	0xbee66d58	-0.45005298
64	0xbecf97aa	-0.40545398
65	0x3dc9c25a	0.09851523
66	0x3ea3a17b	0.31959137
67	0xbf23ff4d	-0.64061433

mlp.2.bias f4 [4]
0	0x3e3842ee	0.17994282
1	0xbe083213	-0.13300352
2	0x3de7aece	0.11312638
3	0x3ded49de	0.11586355
