experiments/freqshape/models/Scomb_transformer_split=2.pt (torch, 15279 bytes, 16 tensors)

transformer_encoder.layers.0.self_attn.in_proj_weight f4 [51, 17]
000000 ef 94 33 3d aa 4c dd 3e c9 5b cc 3d 20 99 97 be
       0.043843206 0.43222553 0.09978444 -0.29609013
000010 69 5c e8 3e ba d6 dd bd 7f e8 32 be 7b 7e 11 be
       0.45383003 -0.108319715 -0.17471503 -0.14208405
000020 25 d5 e3 3d 8b 2f 6d bd 59 4a 52 3e f7 9f 2a bf
       0.111246385 -0.05790667 0.20536174 -0.66650337
000030 3c 63 99 3d c0 45 cd 3e 14 62 48 3e 94 2f 47 bd
       0.074896306 0.40092278 0.19568664 -0.04862936
000040 30 d6 23 3e 40 70 ee 3d 4b 46 90 bc fc d9 e2 3c
       0.15999675 0.11642504 -0.017611643 0.027691834
000050 0b ec 53 be 11 bf c1 3d 94 5b 2d be 64 61 36 3c
       -0.20695512 0.09460271 -0.16929466 0.011131618
000060 9a 7b f0 bd cd 9c 2d be 7c e9 d6 3d 14 db 5d 3e
       -0.11742325 -0.16954346 0.10493752 0.21665603
000070 47 a0 1f 3d 78 f2 9f 3d 6e 25 82 3e 75 6d 5b be
       0.03897121 0.07809919 0.25419182 -0.21428473
000080 a5 a0 5f be 43 67 51 3e 1c 14 0e bd e3 d2 5d bd
       -0.21838625 0.20449547 -0.034687147 -0.054156195
000090 39 e7 b8 be 38 e1 6a be fa d2 02 3f c7 4e ac be
       -0.3611391 -0.22937477 0.51103175 -0.33653852
0000a0 c1 f1 a1 be b9 03 ac be 2b a9 54 3e e8 0a b1 3e
       -0.31629756 -0.3359659 0.20767657 0.34578633
0000b0 ff 2d 95 3e fb fe 0c bf bb 88 04 b8 d6 7e 9c 3e
       0.29136655 -0.5507657 -3.1598593e-05 0.30565518
0000c0 ce f5 2f be ae 58 4a be c2 9e 45 be 21 b4 d1 bd
       -0.17183611 -0.19760391 -0.19298843 -0.10239435
0000d0 4a 35 d7 3d de b3 1b be c0 1b c8 bd 37 1e e6 3e
       0.10508211 -0.15205333 -0.09770918 0.44944927
0000e0 29 09 31 3d 16 8b 23 3e 74 03 c0 3e 84 89 c4 3e
       0.043221626 0.15971026 0.37502635 0.38386166
0000f0 11 9e bf 3d cc 4d 24 3e 59 3d 01 bf b6 0f 70 be
       0.09356321 0.16045302 -0.50484234 -0.23443493
000100 ce b5 95 3e 07 3e 62 3e a0 00 ca 3e 06 5e f8 3e
       0.29240268 0.22093974 0.39453602 0.48509234
000110 c3 82 66 3c b6 33 c9 bc f6 1e 7a bd 2d 92 c1 3e
       0.014069262 -0.02456079 -0.061064683 0.37806836
000120 0d 0e 39 be 72 38 e6 3c 06 fe 30 3e dd a0 ab 3e
       -0.18071766 0.028103087 0.17284402 0.33521166
000130 70 96 01 bd 44 a5 b1 3d b9 f3 7f be df c0 e1 3d
       -0.03163761 0.086741 -0.24995317 0.11023115
000140 a7 f9 8a be 03 b5 d1 be 65 64 d7 bc 45 2e 85 3e
       -0.27143595 -0.40958413 -0.026292989 0.26011863
000150 6f 4e 87 be 59 6c cb bc af bb 79 be f4 19 99 3e
       -0.26427028 -0.024831938 -0.24388002 0.29902613
000160 30 32 a1 3e fa f8 e8 bd ea c2 ad 3d 02 d8 15 3e
       0.31483603 -0.113756135 0.084844425 0.14633182
000170 55 15 5c 3e 06 b5 fe bd 69 de 74 be 4a f6 39 bf
       0.21492513 -0.12436871 -0.23912968 -0.7264143
000180 1d 70 72 3f e8 cf 06 3e e7 9c 81 3d 7f 4a a2 3d
       0.9470232 0.13165247 0.06328755 0.07924365
000190 cb 13 8f 3d c1 4c a4 bc 26 b3 ad 3d 12 d3 ba 3e
       0.06986197 -0.02005613 0.084814355 0.3648916
0001a0 8c 83 c5 be 65 b2 fe bc d6 d2 96 3e 2d 4b d4 bb
       -0.38576925 -0.031090925 0.2945773 -0.006478688
0001b0 37 b7 4f be b2 59 cd be 3c 50 96 3d dc 8c 32 3e
       -0.20284735 -0.40107495 0.07339522 0.17436546
0001c0 7e f5 0d 3f 9b 5d 4a bf 4f f1 60 3e 2b c7 0c bd
       0.55452716 -0.7904908 0.21967052 -0.03436963
0001d0 4c 3d 22 be 68 3e ca be 38 0b 95 bd 9f 51 30 be
       -0.15843695 -0.39500737 -0.072775304 -0.17218636
0001e0 22 40 f3 3d 37 59 cf be fd c5 0c be 47 ae 8c be
       0.11877467 -0.40497753 -0.13747402 -0.27476713
0001f0 82 36 53 3e ec cd db 3d f8 81 d0 3d 5d cb ba 3d
       0.20626262 0.10732636 0.101810396 0.0912082
000200 7b 4f d9 3e 8b 43 a9 3e b2 c3 ed bd 0d 42 94 3d
       0.4244345 0.33059344 -0.116095915 0.07239161
000210 3f 70 f2 be 86 11 57 3e 4b 08 09 3d 17 ec a0 be
       -0.47351262 0.21002778 0.033455174 -0.31430122
000220 5e b0 3a be fa 55 ac be c8 5b 21 bd 6d c3 13 be
       -0.18231341 -0.33659345 -0.03939417 -0.14430018
000230 9d ba 25 bf 59 70 e2 bd 7f 47 c2 3c 3f 12 18 3e
       -0.64737874 -0.11056585 0.023715733 0.1485071
000240 cf 26 89 3a 13 07 fe bd 10 61 c6 be ee eb b9 3e
       0.0010463836 -0.12403693 -0.38745928 0.36312813
000250 4d a3 de bd 9f 10 44 bf 6e 9c ac be ee 11 97 be
       -0.10870991 -0.7658786 -0.33713096 -0.29505867
000260 ca 48 57 3e 2e 0f 97 bc 4a 2b 6c bd 78 ee 71 be
       0.2102386 -0.018439855 -0.05765847 -0.23626125
000270 72 71 d3 3d e2 83 42 bf 82 43 62 bd d0 47 86 bd
       0.10324372 -0.7598249 -0.05524016 -0.06556666
000280 d8 89 0b 3d 31 0a 1a ba 1f d4 05 be b3 db c6 be
       0.034067005 -0.00058761524 -0.13069199 -0.38839492
000290 1d d5 d7 3e 13 af f1 3d 95 ae 61 bf 40 81 6c bc
       0.4215478 0.11800971 -0.88157016 -0.0144351125
0002a0 f6 51 99 be 4e 54 18 3f fd ed 53 3e f7 4b af 3d
       -0.29945344 0.5950364 0.20696254 0.08559411
0002b0 47 67 64 be fe 85 80 3e 06 13 c0 be b0 a2 d6 3d
       -0.22305022 0.25102228 -0.37514514 0.10480249
0002c0 ea 87 41 3e 5f 67 ca 3d 6f 00 f7 3d 2f ab 18 be
       0.18899503 0.09882998 0.120606296 -0.14909051
0002d0 05 33 8e 3e d6 9b f3 be 26 1b ad 3e 4d cd 03 bd
       0.277733 -0.4757983 0.33809775 -0.032178212
0002e0 7a a0 b4 bb 3f 87 fd 3d 28 5f 96 be 53 13 aa 3d
       -0.0055122944 0.12379312 -0.29369473 0.08304467
0002f0 ae 54 2c bc 1d 63 44 be 44 cf 07 3d da e1 af be
       -0.010518236 -0.19178434 0.03315665 -0.34352
000300 c2 44 bc be 2a 08 3e be eb 23 09 bb 83 2b ea 3d
       -0.36771208 -0.18557802 -0.002092595 0.114340805
000310 67 e9 00 be 50 b8 ce bc 1e 42 e1 be e0 d8 05 bd
       -0.12589036 -0.025234371 -0.43995756 -0.03267753
000320 ee 43 c5 be f0 01 c2 be a1 bd 2c bd f8 19 2d be
       -0.3852839 -0.37892103 -0.04217303 -0.16904438
000330 81 bc fb 3d 4e a8 0b 3e 5a 9b 8b 3e ff 5e 3a 3d
       0.12291814 0.13638422 0.2726696 0.04550075
000340 4d 45 3f 3f 81 eb 14 3e 95 cb f3 3d 3c eb a3 bd
       0.7471512 0.14542963 0.119040646 -0.08003852
000350 5e 00 b8 3d 69 73 d8 3d 77 55 82 3e aa 1d dd be
       0.08984445 0.10568888 0.2545583 -0.43186694
000360 36 40 9b bc 01 54 82 3e 1d 59 be 3d 30 4d 02 3e
       -0.018951517 0.25454715 0.09294341 0.12724757
000370 29 1f 7b 3e 4d 8f 81 3e d8 48 08 3e 6f 17 89 bd
       0.24523605 0.25304642 0.13309038 -0.06693923
000380 31 29 95 3e 04 af a4 3d ed 31 35 bd c4 1a a1 3d
       0.2913299 0.08041194 -0.044237066 0.07866433
000390 25 70 fb bc ad 5e ea 3c 7a 81 9b 3b d8 ba e5 3d
       -0.030693123 0.028609598 0.0047456594 0.11217278
0003a0 92 24 1e be 38 37 9d be 43 48 19 3d d7 10 5c 3e
       -0.15443638 -0.3070619 0.03742243 0.21490799
0003b0 82 4d 1e 3e 3e 6d a7 3e b9 69 11 3d d3 99 b0 bd
       0.15459254 0.32700533 0.035501216 -0.0862309
0003c0 7f 8b aa 3d da df 1e be 80 07 ec 3d 1e c5 82 bc
       0.08327388 -0.1551508 0.11524868 -0.015963133
0003d0 59 25 3b bd 37 65 ec bd 23 83 15 bc e3 43 57 be
       -0.045689914 -0.11542743 -0.009125504 -0.2102199
0003e0 68 7b 25 be 5b fa 00 be a1 bc fc 3d 2a a9 aa 3d
       -0.16160357 -0.12595503 0.123406656 0.08333047
0003f0 7b cd 21 be 13 6a 56 be 38 37 87 3e 99 04 bd be
       -0.15801041 -0.20938902 0.26409316 -0.3691757

transformer_encoder.layers.0.self_attn.in_proj_bias f4 [51]
000000 36 a8 01 bd ea ae 21 be 2a 2e 3b be 78 f3 5b 3e
       -0.03165456 -0.1578938 -0.18279329 0.21479595
000010 07 df 14 3e 5d e1 1e 3e 26 d8 44 be c6 b5 a7 3d
       0.14538203 0.15515657 -0.19223079 0.081889674
000020 6f cb 86 bd aa 22 f3 bd 3d e5 c3 3c af 1f 1b be
       -0.06581771 -0.11871846 0.02391302 -0.15148805
000030 38 ec e3 3d fd 58 27 3e ab 35 32 be 8c 52 48 be
       0.111290395 0.1634254 -0.17403285 -0.19562739
000040 a7 70 a7 be e5 7e 78 bb 66 18 8f bc 85 c4 e5 b9
       -0.32703134 -0.0037917432 -0.017467689 -0.00043824702
000050 f2 7c 16 3c 78 84 c5 3c d6 bc ce 3b a1 54 c1 bc
       0.009185063 0.024111018 0.006309132 -0.023599925
000060 c9 86 7e b9 2b 91 03 3d 18 85 01 bc 77 c2 91 3b
       -0.00024273539 0.032120865 -0.007905267 0.004448231
000070 d2 f6 ab 3a a9 70 ad bb 83 e0 19 3c dd 3b 7c 3c
       0.0013119823 -0.005292971 0.009391907 0.015395132
000080 6b b0 14 3d 34 b6 ea bb fb 33 ef bc 71 15 26 3c
       0.036301058 -0.0071628336 -0.02919959 0.010136948
000090 8b a6 b1 3c 1e 16 d8 bc b1 fb 9d bc bb 28 80 bc
       0.02168586 -0.026377734 -0.019285055 -0.015644422
0000a0 79 fd 2c 3c 05 0d 05 bb 17 78 bd 3b f9 00 58 3c
       0.010558479 -0.002030195 0.005782138 0.013183826
0000b0 07 c7 0b bb 53 3d 80 bc 8f 5e 17 3c 3e cc eb bb
       -0.0021328346 -0.015654242 0.009238853 -0.0071959784
0000c0 5e 8f 27 bd 2c 60 95 bb 5e 49 b7 bc
       -0.04090821 -0.0045585837 -0.022373851

transformer_encoder.layers.0.self_attn.out_proj.weight f4 [17, 17]
000000 9f a8 d4 bd f5 77 2d 3e 0b 34 06 be e1 05 a8 3d
       -0.103837244 0.16940291 -0.1310579 0.08204246
000010 57 1e 4d be 47 fc 99 bd 31 64 db bd 54 e9 c4 bc
       -0.20031105 -0.07518821 -0.10712469 -0.02403704
000020 92 78 e2 bd 55 7e 61 3d 0a 04 8f 3d 93 03 0d be
       -0.11058153 0.05505212 0.06983192 -0.13770895
000030 d6 05 9b bd 40 a9 09 bb 00 a1 89 bb b1 95 50 3d
       -0.075694725 -0.0021005422 -0.004200101 0.050924007
000040 b0 db 8a 3e e8 bd 10 bd 53 83 26 bd 76 13 d0 3c
       0.27120733 -0.03533736 -0.040652584 0.025399905
000050 df 8e 07 3c 7b 49 1d bd ff 48 f9 3d 61 78 07 bd
       0.008273809 -0.038400155 0.12172126 -0.033073787
000060 ed e4 00 3e f4 bc c0 3c 6e 8b 9b bd de e3 1c 3e
       0.12587328 0.0235276 -0.075949535 0.153213
000070 07 ea 11 3e a3 ff f4 bd 5f 8b 4e 3e c6 aa 6a 3d
       0.1424943 -0.11962821 0.20170353 0.05729177
000080 d8 e7 31 be 6a e6 33 3e 85 98 35 be 30 43 2e be
       -0.17373598 0.17568365 -0.17733963 -0.17017817
000090 5a 2b 66 3e bb 82 ad 3c ec 0c 74 3e 20 08 20 3e
       0.22477475 0.021180501 0.23833054 0.156281
0000a0 a7 2a 26 bd ae 87 1a 3e 5f b3 e2 bd 2c db b8 bc
       -0.04056802 0.1509082 -0.110693686 -0.022565447
0000b0 67 55 06 bd 80 5c 27 3e 07 ee 15 3e 49 08 36 be
       -0.03279629 0.1634388 0.14641581 -0.17776598
0000c0 9c 71 8a bd 90 0c 74 3e d2 7c b0 3b 5a 5e cb bc
       -0.067599505 0.23832917 0.0053859735 -0.024825264
0000d0 09 57 04 3e 97 54 c3 3d 92 4a ba 3d 3d a0 2b 3e
       0.12923826 0.095376186 0.090962544 0.16760345
0000e0 fd 3d 16 3e 5b cf 77 3c 5b ed 50 3d da 15 13 be
       0.14672084 0.015125121 0.05100761 -0.14363804
0000f0 1f 5b b7 3d f3 a3 40 3c e1 7a 62 3e 16 ef 03 3e
       0.08952927 0.011757839 0.22117187 0.12884173
000100 28 4b 74 be 39 45 5d bd 94 57 de 3d 8d d0 ba bd
       -0.23856795 -0.054021094 0.10856548 -0.09121809
000110 ec a0 e3 bc 4d 28 25 be 92 0b ca bc 17 19 20 3e
       -0.027786694 -0.16128655 -0.02466372 0.15634571
000120 98 a5 99 bc b1 a2 b1 bd c5 75 de 3d 8f e8 fb 3d
       -0.018755719 -0.08673609 0.108623065 0.123002164
000130 0a 3c d0 bd c9 bf 56 bd 95 79 8a bd cf 6e 36 3d
       -0.101677015 -0.052428994 -0.06761471 0.04453927
000140 9f d7 69 3d 14 fb 5b bd 56 e2 07 bd 8f cb 3f be
       0.057090398 -0.053706244 -0.033174835 -0.18729995
000150 d3 4d 92 3d 43 cf 8e bb 88 54 dd 3d 7c 3f 23 bc
       0.0714375 -0.0043582036 0.10807139 -0.009963866
000160 ee f9 20 bd 95 4f 40 be 41 08 ec 3d f8 f2 8b be
       -0.03930085 -0.18780358 0.11525012 -0.27333808
000170 8c 32 e5 3d ab 59 36 3e ec 6a 13 3e 27 c8 6c 3e
       0.11191282 0.17807643 0.14396256 0.23123227
000180 27 da 17 be 7c a5 6f 3c 42 32 17 3e 47 d5 e5 3d
       -0.14829312 0.014626857 0.14765266 0.1122232
000190 2f f1 68 3b 27 f4 8f bd 59 a9 68 3e bb 2a 0a 3e
       0.0035544147 -0.0702899 0.22720851 0.13492863
0001a0 a1 3e 87 bb 56 81 01 be 13 c5 bb 3c 08 08 54 3d
       -0.004127339 -0.12646994 0.02292112 0.05176547
0001b0 9f de df 3c 18 65 ee 3d bf 0e d5 bd 57 98 e2 bd
       0.027327834 0.11640376 -0.10403203 -0.11064213
0001c0 f9 4a 7d 3e 78 c7 45 be 5f 03 25 bd e0 20 c2 bd
       0.24735631 -0.19314373 -0.040286418 -0.09478927
0001d0 10 7e 81 bd aa 4d 60 be 49 ad 10 3e 66 35 31 be
       -0.06322873 -0.21904626 0.14128603 -0.17305526
0001e0 4c 92 1a 3e a7 fe 61 3b bf fe e9 3d 35 61 3a 3e
       0.1509487 0.003448406 0.11425542 0.18201144
0001f0 f1 d7 71 3d 89 02 b0 bc d1 48 e0 3d 04 dd 4a 3d
       0.05904383 -0.021485584 0.109513886 0.049527183
000200 c3 38 08 be 8b 5b 38 be e4 3f 94 3d b9 d5 eb 3d
       -0.13302903 -0.18003671 0.07238749 0.11515374
000210 2a be 3c bc 8f d3 2a be 99 c6 a2 3d 55 20 4e bc
       -0.011519948 -0.16682266 0.07948036 -0.012580951
000220 ed 23 00 be 1d 2b be 3a df c6 89 3d 15 01 fe bd
       -0.12513705 0.0014508698 0.06727385 -0.1240255
000230 cc cf 1e bd 19 76 f9 bd 64 a7 8c 3c 5d fa 7a bd
       -0.03877239 -0.121807285 0.017169662 -0.06127392
000240 b7 04 f7 bd e6 83 43 be a2 de a2 3d 20 93 cb bd
       -0.12061446 -0.19093284 0.0795262 -0.09940171
000250 d3 9e e0 3c f7 38 1c 3e f1 0e b3 bd 8d 61 e8 bd
       0.027419483 0.15256105 -0.08743084 -0.11346731
000260 0a ce 13 bd 19 13 1e be eb 25 ba 3d d8 84 51 3d
       -0.036085166 -0.15436973 0.090892635 0.05115208
000270 c2 12 10 bc 69 a2 ba 3d ed b8 48 3c 21 49 e5 3d
       -0.008793535 0.091130085 0.012251121 0.11195589
000280 0c ae 55 3d e5 02 f7 3d 2f 89 de bd a7 ad 5b be
       0.052167937 0.12061099 -0.108660094 -0.21452962
000290 93 f4 74 3d 32 1d 2f 3c 0b 29 78 be 11 88 69 3d
       0.059803557 0.010688113 -0.24234407 0.05701453
0002a0 c8 22 5a 3e fb b8 35 3d da 51 a5 3d 5e 09 ea 3c
       0.2130233 0.044365864 0.080722526 0.02856892
0002b0 80 eb 8b be b8 37 a9 3c 6a 6f b2 bd 8c 17 f6 bc
       -0.2732811 0.020656452 -0.08712657 -0.030040525
0002c0 95 59 f6 bc 9b 78 cb 3d f8 d4 1c bd d2 8c d3 bd
       -0.030072013 0.09935113 -0.03828904 -0.10329594
0002d0 e6 c3 ca bc 79 ab ab be 37 a8 00 be 7b 3c 9f bd
       -0.024751615 -0.3352926 -0.12564169 -0.077752076
0002e0 43 3b d6 3d 32 c8 08 3e 78 f0 4c 3e 89 89 94 3d
       0.10460522 0.13357618 0.20013607 0.07252795
0002f0 65 75 23 be 2f b9 ae bb 21 cd 3d bd 36 18 64 be
       -0.15962751 -0.005332134 -0.046338204 -0.2227486
000300 b7 68 df 3d fc aa 8e be c6 33 a3 bd 18 f9 ab bd
       0.10908645 -0.27864826 -0.079688594 -0.0839712
000310 d5 78 a3 3d 92 bd b8 3d 11 15 2e be c4 1e 64 3d
       0.07982031 0.09020533 -0.17000224 0.055693403
000320 03 b5 9e 3e 00 83 95 bc e8 8c 55 3d b0 f5 01 3e
       0.30997476 -0.018250942 0.05213633 0.12691379
000330 ae 38 d7 bd 58 01 d2 bd aa f7 5b 3e fa 54 80 3d
       -0.10508858 -0.102541625 0.21481195 0.06266208
000340 ad 3a e8 3d d2 a1 09 3e 8d 17 91 bd 89 ef 35 be
       0.113393165 0.13440636 -0.0708457 -0.17767157
000350 e8 e8 30 3e ad 09 49 3e d2 0a 70 be a7 31 bd bd
       0.17276347 0.19632597 -0.23441628 -0.09237986
000360 79 87 81 bd d6 54 c9 3c f4 0a c4 bd 6b d5 11 3e
       -0.063246675 0.024576586 -0.09572402 0.14241569
000370 48 f2 8f bd 42 8d 62 3d 49 f7 b4 bc 78 b4 0a 3e
       -0.07028633 0.055310495 -0.022090571 0.13545406
000380 6b 57 88 3a 41 41 a8 b9 8f 20 9c bc f6 7e 90 bd
       0.0010402029 -0.00032092075 -0.019058494 -0.07055466
000390 db 14 fc bc 07 77 0a 3e 1e f7 83 bc 25 28 03 be
       -0.030771663 0.13521968 -0.016109046 -0.12808283
0003a0 9a d1 54 3e 65 14 3f 3e fd ea df 3d a6 92 bd bd
       0.20783082 0.18660124 0.10933492 -0.092564866
0003b0 d7 ed c0 3a 7b 76 d9 bd 14 bf 26 be 08 be 77 3d
       0.0014719319 -0.106183015 -0.16283828 0.060483962
0003c0 2c 46 14 bd aa 06 1a be a6 7a cb 3d c0 5a 33 3c
       -0.036199734 -0.15041605 0.09935503 0.010946929
0003d0 96 b0 41 3e f2 b3 ef bd 57 24 d9 3d f4 cc 2b bd
       0.18915018 -0.11704244 0.106026344 -0.041943505
0003e0 6e b4 0b be 3f 03 9b 39 a6 e5 85 bd e4 fc 1a be
       -0.13643047 0.00029566322 -0.065379426 -0.15135533
0003f0 e5 47 e3 3d 0b c3 26 bd 6a 86 00 be d0 45 04 3e
       0.11097697 -0.04071335 -0.12551275 0.12917256

transformer_encoder.layers.0.self_attn.out_proj.bias f4 [17]
000000 7b 97 30 bc fe 10 f1 bb cb a5 f1 bb 10 8d bc bb
       -0.010778303 -0.007356762 -0.0073745004 -0.0057541206
000010 af 95 41 3d ac 8c b6 3c cf d3 6f bb 92 1d 3c bc
       0.04726189 0.022283874 -0.0036594754 -0.0114816595
000020 31 be 5b bb 2f a7 00 b9 c6 57 53 bd c0 4b 45 3d
       -0.003353011 -0.00012269312 -0.05159738 0.048167944
000030 86 20 14 3c 17 fd 2e 3d cc a0 0c 3d 39 1f d9 3b
       0.009040957 0.042721834 0.034333035 0.0066260365
000040 54 23 44 3d
       0.047885254

transformer_encoder.layers.0.linear1.weight f4 [16, 17]
000000 84 13 41 be 11 f4 73 be d4 92 51 3e ce 70 dd 3d
       -0.18855101 -0.23823573 0.20466167 0.108125314
000010 ea 68 fa bd 24 eb b8 be 64 1b e5 bd ec bd 9f bc
       -0.12227042 -0.36116898 -0.11186865 -0.019499741
000020 c8 70 3f 3c 59 74 f2 3d ad de 1f bd 68 6c 56 be
       0.011684604 0.11838598 -0.03903072 -0.20939791
000030 9f 86 8f 3c b2 a5 9c bd 7d 0a ea bd 03 e3 72 3d
       0.017520247 -0.076487914 -0.11427782 0.059298526
000040 0c 92 18 bc 46 e1 a1 3e f8 63 ea 3d 61 72 70 be
       -0.009312164 0.31617182 0.11444849 -0.23481132
000050 f6 33 ac 3d 14 4e 24 be f7 c7 33 38 b0 b9 c6 3e
       0.08408348 -0.1604541 4.2863157e-05 0.38813543
000060 87 69 f5 3c 24 88 a9 3d 59 63 96 3d 73 ed 2e 3f
       0.029957546 0.0827792 0.07343168 0.6833107
000070 a8 77 df 3d ed f1 37 be 94 bd ce bd d9 26 11 be
       0.109114945 -0.17963381 -0.10094753 -0.14174975
000080 97 d3 22 3e 4b cb 08 bf 2f 89 d0 3d 20 4e f1 bd
       0.15901028 -0.534352 0.10182416 -0.11782479
000090 d0 5f 9f 3d 16 a6 52 3e 80 16 26 3e fc ab a2 be
       0.07781947 0.2057117 0.1621952 -0.3177184
0000a0 1f 0e d2 bd 30 b9 2c 3d e2 29 15 3e 74 bc 95 3e
       -0.102566 0.042168796 0.14566758 0.2924534
0000b0 b6 22 4c 3d 2f 3b 66 be b7 98 15 3e 20 14 28 be
       0.04983779 -0.22483514 0.14609037 -0.16413927
0000c0 b2 43 b8 3e 9a 3b 82 be d3 98 66 3e b3 e0 63 be
       0.35989147 -0.25436097 0.22519235 -0.22253685
0000d0 91 c1 44 be 83 53 8f 3e 46 ff 36 3e d7 1f d6 bd
       -0.19214465 0.27993402 0.17870817 -0.10455292
0000e0 af a9 0d bf 56 9a 43 3c 80 16 63 bc 3b e2 10 bc
       -0.5533704 0.011938652 -0.013860345 -0.008843
0000f0 49 0e c0 3e 7f 4b 2c be 3e a0 db be 1e de d3 bc
       0.375109 -0.16825674 -0.42895693 -0.02586275
000100 f9 da 10 be 8b 6d 11 3d 49 2d 9d be e4 38 2e bc
       -0.14146031 0.03550486 -0.30698612 -0.010633681
000110 61 6f fa 3e 69 95 29 3e 22 b7 1d be 7d 94 6d be
       0.489131 0.16560902 -0.15401891 -0.23201175
000120 0b f2 58 bd c3 30 58 bd ad 2a 07 3f e7 1b b7 3d
       -0.052965205 -0.052780878 0.52799493 0.08940869
000130 81 d6 09 3e 76 a6 e8 3c ea 31 b8 3e 39 97 f4 3d
       0.13460733 0.028399687 0.3597558 0.11942906
000140 20 9e 15 be 67 cb 3a be d9 aa 52 be 67 44 f5 3d
       -0.14611101 -0.18241654 -0.20572986 0.11975937
000150 cc 94 06 bf e6 26 82 3c 4e 48 14 bb 26 d1 6b bd
       -0.52570796 0.015887689 -0.0022626105 -0.057572506
000160 10 06 aa bd 7d a7 8c 3d 66 b1 34 3e db 39 0b ba
       -0.083019376 0.06867883 0.17645797 -0.00053110503
000170 bd b8 64 be 38 cf c7 3d 1b 27 89 bb 9a 0a 10 3e
       -0.22336097 0.09756321 -0.00418557 0.14066544
000180 ad 94 4c 3e 34 a5 25 be 47 58 0d 3e 36 ce f5 bd
       0.1997859 -0.16176301 0.13803206 -0.12002222
000190 26 19 63 3e b7 5f 88 bd ac 02 30 3d ef bd b6 be
       0.22177562 -0.06658881 0.042971298 -0.35691783
0001a0 74 c4 35 3e 31 c5 88 3e f5 47 1f be 25 7d 25 bf
       0.17750722 0.26712945 -0.15554793 -0.6464408
0001b0 eb de da bd 03 50 6e 3e df 99 32 3b 53 c9 5d 3e
       -0.106870495 0.2327271 0.002725236 0.2165883
0001c0 03 d3 15 be c5 29 f6 be 10 d8 06 3e 7d dd a4 bc
       -0.14631276 -0.48078743 0.13168359 -0.020125145
0001d0 21 18 cb 3d bf 20 ba be 67 2e 31 3d 61 69 2d be
       0.099167116 -0.36353108 0.043257143 -0.1693473
0001e0 e1 b8 86 be 73 b6 46 3e 5a e2 84 3e ed fd 1f bc
       -0.26312926 0.19405536 0.25953943 -0.0097651305
0001f0 28 94 f5 be 80 3e 8e 3d e6 59 c3 3c 62 6f 18 3e
       -0.47964597 0.06945515 0.023846578 0.14886239
000200 50 fa 78 3e 15 34 b2 bd 3d 5c 12 bf 13 80 8b 3a
       0.24314237 -0.0870134 -0.57171994 0.0010643027
000210 94 3a 10 3e ca 07 8b 3e 2b b2 a8 bd 93 4c 86 bc
       0.14084846 0.2715438 -0.08237108 -0.016393935
000220 2d 61 92 bc d5 42 85 bd 40 f3 4f 3e d6 6a d3 3d
       -0.017868603 -0.06506888 0.20307636 0.10323112
000230 ff cc 16 3e 3c 19 ee be b3 cc a1 bc 45 b3 7d 3e
       0.14726637 -0.46503627 -0.019750929 0.24775417
000240 e3 b4 46 be e8 96 ad 3e ae b2 0f 3d a9 99 ce be
       -0.1940494 0.33904195 0.03508251 -0.40351608
000250 b5 e6 ca bd de 09 30 3e 91 47 69 3e f7 1b 5e be
       -0.09907285 0.17191264 0.22781207 -0.21690355
000260 0f 17 40 3e 4a ac 30 3c 58 1c 01 3d 89 85 2d 3d
       0.18758796 0.010783264 0.03152117 0.042363677
000270 e0 38 81 3e c6 9a 38 3d 30 0e 83 3d 51 b3 25 be
       0.25238705 0.04506948 0.063991904 -0.16181685
000280 54 92 0b be 7a 55 4a bd 65 41 48 3c 06 71 4f 3d
       -0.13630038 -0.049397923 0.0122226225 0.050644897
000290 85 ce 40 be f4 0a 5a bd d8 be 37 3d 2b 00 a7 bd
       -0.18828781 -0.053233102 0.044859737 -0.08154329
0002a0 d1 f0 71 bb 93 22 e1 3d 46 55 25 3f 0e 7d 1e 3d
       -0.003691722 0.10992923 0.6458324 0.03869348
0002b0 54 11 66 be df e0 5d be a1 c6 af 3d 48 10 b2 3c
       -0.22467548 -0.21667813 0.08582807 0.02173628
0002c0 d9 d3 d2 3e 9b 5a 4b 3d 73 cf 4d 3e 90 3b 0b be
       0.41177252 0.049646955 0.20098667 -0.1359694
0002d0 52 95 ea 3e 5e f4 55 3d 6d 90 9a be f2 38 22 be
       0.45817047 0.052235 -0.30188313 -0.15842035
0002e0 cd e7 35 be 48 fd a3 3d 04 f4 1b bf a8 98 38 be
       -0.17764206 0.08007294 -0.60919213 -0.18026984
0002f0 bc c0 b2 3c 6c 96 74 3d e9 8c 6d bc fd ad f7 bd
       0.021820419 0.059713766 -0.014498928 -0.120937325
000300 60 3f b4 bd fe d9 24 3d 75 59 c6 3d 28 99 22 3d
       -0.0880115 0.040246956 0.09685031 0.039696842
000310 59 c7 34 bd 70 64 12 3e 07 31 84 3b 93 c7 7a 3a
       -0.044135425 0.14296126 0.004034165 0.0009566482
000320 16 9b 85 3c c8 7b b2 bd 50 91 2c 3d 02 a5 06 3d
       0.016309302 -0.08715016 0.04213077 0.032872207
000330 21 00 2e 3e 55 5c b6 3c 4b a1 99 bd a0 c2 23 be
       0.16992237 0.022260824 -0.07501467 -0.15992212
000340 5b 4b 23 3d 2e 45 49 bd 1a 77 1d 3e 25 87 cc bd
       0.039866786 -0.04913824 0.15377465 -0.09986714
000350 7b b7 3a be 9a d2 46 bd 0c 3b 7f 3c 3d fe 6c 3e
       -0.18234055 -0.04854069 0.015578043 0.23143859
000360 1f 28 13 be 71 85 a8 bd 91 de dd bc 5a 6b 6a 3e
       -0.14370774 -0.08228577 -0.027083667 0.22892514
000370 31 3c 42 3d f2 d1 27 be 96 8f ab 3d a3 79 58 be
       0.047420684 -0.16388682 0.08376996 -0.2114015
000380 c7 bd 5f 3d 2f 83 65 3e 74 b6 8b bd f6 69 ed 3c
       0.054624345 0.22413324 -0.068219095 0.02898119
000390 6b 19 70 3d f3 1d c5 bc 24 eb 97 bd 6c 89 13 be
       0.05861799 -0.024062132 -0.074178964 -0.14407891
0003a0 4a f1 a3 3e 01 1e bb 3d 88 3c 77 bd 80 43 0b 3d
       0.32020026 0.09136582 -0.06036046 0.03399992
0003b0 df 0b e4 3d ec dd 27 be 43 0a f0 3e a5 5f af 3d
       0.11135077 -0.1639325 0.4688283 0.085631646
0003c0 79 84 d9 bd 1a 08 a8 bd 2d 97 91 be ec bb 81 3d
       -0.1062097 -0.0820467 -0.2843565 0.063346714
0003d0 14 2c b8 3e c3 81 92 bd 9d f6 4a 3e 27 19 47 be
       0.3597113 -0.07153656 0.19820638 -0.19443189
0003e0 37 3e 0a 3f 0a 6b 20 3e bb 23 8d be 9f e0 a4 be
       0.5400118 0.15665832 -0.27566323 -0.32202622
0003f0 00 78 52 be 84 73 16 3b 84 81 13 bf 02 74 38 bd
       -0.20553589 0.0022957036 -0.576195 -0.04503251

transformer_encoder.layers.0.linear1.bias f4 [16]
000000 76 0f 9b bd 9b 1f 27 3e 17 c6 ca 3d 64 5a ba bd
       -0.07571308 0.1632065 0.09901064 -0.09099272
000010 35 37 15 3d a7 d1 d1 3d b5 62 77 3d dc 7b db 3d
       0.036429603 0.10245066 0.06039687 0.10716984
000020 49 f5 76 bc 44 c7 4b 3d d7 28 06 be ff 7a 38 be
       -0.015073129 0.04975058 -0.13101517 -0.1801567
000030 5e 98 22 3e 94 fe 0b bd 1c 35 20 bd c2 a5 e3 bc
       0.15878436 -0.03417833 -0.03911315 -0.027789

transformer_encoder.layers.0.linear2.weight f4 [17, 16]
000000 be a7 bc 3d 68 08 6e 3e 36 7f 03 3e de 6a cc 3e
       0.09211682 0.23245394 0.12841496 0.39925283
000010 29 10 c1 3d 7d a6 87 bd 8b ff 92 3e 67 1d a7 3e
       0.094269104 -0.06623552 0.2871059 0.3263962
000020 b4 0b 63 3d e6 73 5d 3d d5 95 27 3e 40 f3 b0 bd
       0.055431083 0.054065607 0.1636575 -0.08640146
000030 50 51 0d be 2e 41 91 bd 1f fc 8a 3e f2 6b 9a 3c
       -0.1380055 -0.0709251 0.27145478 0.0188503
000040 bf b7 9b 3b 68 c9 b5 3d 67 e2 75 3d 7f ad 63 be
       0.004752129 0.08876306 0.060030367 -0.22234152
000050 88 36 b9 bc 59 e8 2a bd 0d d3 3c 3d c0 7b 45 3d
       -0.02260901 -0.04172549 0.04609971 0.04821372
000060 25 45 42 bc 5f 44 a7 3d 52 87 17 be 61 42 05 bd
       -0.011857306 0.081673376 -0.14797714 -0.032534007
000070 a5 70 8a be ac df 0c be 2d e6 36 3e 95 85 59 be
       -0.27039066 -0.13757199 0.17861243 -0.21242364
000080 ff b5 74 3d 21 73 bd 3c aa 7c 14 bc 6b 3f c1 3e
       0.059743878 0.023126187 -0.009062925 0.37743697
000090 1b f0 38 3e 92 99 db 3d 23 a9 9b 3e 63 88 b0 bc
       0.18060343 0.107226506 0.3040248 -0.02154941
0000a0 44 62 b4 bd bc 18 90 bd ea c3 ad 3e 14 e6 62 bd
       -0.08807805 -0.07035968 0.33938533 -0.0553952
0000b0 a2 29 31 3d 30 8e c8 3d 30 85 b6 bb 6b b8 4e 3e
       0.043252595 0.09792745 -0.0055700764 0.20187537
0000c0 2f 97 7a bd b1 0d 60 3d 17 ac 60 bb 8e 54 8b 3e
       -0.061179336 0.054700557 -0.003428226 0.27212948
0000d0 d5 0a 5f 3c aa 08 da 3d df c5 0b 3d 96 d4 b5 bd
       0.013613422 0.10646184 0.03412425 -0.08878438
0000e0 a4 f9 b6 bc 32 88 d4 bc b3 2d 03 3e bc 28 da 3d
       -0.022335835 -0.02594385 0.12810402 0.10652301
0000f0 9c e6 f7 3d 00 d4 94 3d fd 1e 26 bd e9 c0 c0 3d
       0.12104532 0.07266998 -0.040556896 0.09411795
000100 f0 34 b2 bd 19 b6 96 be 39 21 8b 3c 4a 21 88 be
       -0.08701503 -0.29435804 0.016983615 -0.26587898
000110 31 7d c5 be dc f6 b5 3d fa c4 8b be 04 2c 63 be
       -0.38572076 0.08884975 -0.2729872 -0.2218476
000120 0a 8b db bd c4 be a6 3c 03 6f 90 be 08 64 2b 3d
       -0.10719879 0.020354636 -0.28209695 0.041843444
000130 70 33 be bd d8 83 8b bc 37 eb ae be ff db 3c be
       -0.09287155 -0.017030641 -0.3416383 -0.18443297
000140 a0 de a1 bc 2f 09 ba ba 1f 43 8e 3d df 49 26 be
       -0.019759476 -0.0014193411 0.06946396 -0.16239117
000150 5a cd f8 bb e4 9d 4d be 06 c7 29 be aa 07 59 ba
       -0.007592839 -0.20079762 -0.16579828 -0.0008279035
000160 a0 6f 09 be bd 61 12 3e 1b fc 85 be d5 ba b0 bd
       -0.13421488 0.14295097 -0.26168904 -0.086293854
000170 2d b6 6f be 69 ed f9 3b 25 69 db bd 1e e3 b3 be
       -0.23409338 0.0076271784 -0.10713414 -0.35134214
000180 a8 22 18 3d cc ce 40 3e ef 9a a5 3e 8a e1 37 3e
       0.037142426 0.18828887 0.32344767 0.1795713
000190 80 88 c9 3e 31 54 68 3c 06 e2 b8 3e 1e 0b cb 3d
       0.39361954 0.014180229 0.36109942 0.0991423
0001a0 6e 6f 86 3e f8 c4 40 3e a1 a3 b1 3e 0a ae 48 3d
       0.2625689 0.18825138 0.3469515 0.0489941
0001b0 dd cb 8d be 1f f0 73 be a8 9e 94 3e fc 0a 2c 3e
       -0.27694598 -0.23822068 0.29027295 0.16801065
0001c0 84 15 38 3e 5d 2a a3 3e 6f b4 56 3d b0 33 b0 3e
       0.17976958 0.31868258 0.05241817 0.34414434
0001d0 37 68 b4 3e ca e6 b9 bc 60 ec c6 3d 16 d7 de 3d
       0.3523576 -0.022693057 0.09713054 0.10880868
0001e0 d6 c6 67 3d e6 6c 1f be dc 1c 27 3e d7 fa bc bd
       0.05658611 -0.15568885 0.16319603 -0.092275314
0001f0 bd 21 62 3d b5 7f 30 be 0e ec 70 3e 8e c7 21 3e
       0.055207957 -0.17236216 0.23527548 0.1579878
000200 7d d4 de 3d 0f 2b ff 3d 74 b3 45 3d 32 f9 43 3e
       0.10880373 0.12459385 0.048266843 0.19138029
000210 f8 a3 6b 3b f2 04 a1 bd 4e fa fa 3d 81 43 c0 bc
       0.0035955887 -0.07862271 0.12254773 -0.023469688
000220 ec 8d a8 3e 98 59 b1 3d f1 5e ca 3d 14 9e b7 bd
       0.32920778 0.08659667 0.0988139 -0.08965698
000230 e5 63 52 3d 30 4d 7a bb 77 cd cc bd be 8a aa bd
       0.051364798 -0.003819298 -0.10000127 -0.08327244
000240 57 8e 8f 3d ff 00 23 be 66 1c 49 3b a4 29 a8 3e
       0.07009571 -0.15918349 0.0030687093 0.3284427
000250 af c0 71 3e b8 94 27 3e 18 6d 50 3e 20 60 3b 3e
       0.23608659 0.16365325 0.20354116 0.18298388
000260 16 87 68 bd 86 5b 01 be ef 27 83 3e c4 0f 38 bd
       -0.056769453 -0.1263257 0.25616404 -0.04493691
000270 9f 1a 71 3d e6 a6 29 3e 69 30 e5 ba 2b 73 87 3e
       0.05886328 0.16567573 -0.0017485741 0.26455054
000280 7f 06 6a 3d b9 1c 40 3d a2 bd ec bc e5 40 a2 3e
       0.0571351 0.046902392 -0.028899018 0.31690136
000290 3c 09 5c 3e f2 db 5e be 3e dc a2 3e 6b f5 82 3e
       0.21487898 -0.2176359 0.31808656 0.25577864
0002a0 f4 59 05 3e 85 cd 00 be 65 5f df 3e fd 12 6c 3c
       0.13022596 -0.125784 0.43627468 0.014408824
0002b0 87 88 0d be 99 fc 68 bc 8d 0c da 3e c4 59 30 3e
       -0.13821612 -0.01422038 0.425877 0.17221743
0002c0 31 e0 c0 3d ec 20 85 be 5b 6a af 3d 6a 79 8a bd
       0.09417761 -0.2600168 0.085652076 -0.06761439
0002d0 b6 ce 59 be 7a 74 55 be 05 0e 05 3e 2d e3 7f 3c
       -0.2127026 -0.20845214 0.1299363 0.015618128
0002e0 dd 2f 91 bd a5 31 27 bd 6a 03 8b bd 4e df 13 be
       -0.07089207 -0.04081883 -0.067877606 -0.14440653
0002f0 b9 56 9d be 47 9c 1b be b9 f5 84 be ed 1f 0a be
       -0.30730227 -0.15196334 -0.25968722 -0.13488741
000300 dc f9 b2 3d b7 5f 02 bd aa a2 e4 bd 9e 5f 8f 3e
       0.08739063 -0.031829562 -0.11163838 0.28002638
000310 44 9b 11 be 6c f1 37 3e 3d 34 26 bd e7 89 07 3e
       -0.14219385 0.17963189 -0.040577162 0.132362
000320 02 d1 fe bd 02 c8 30 be c5 ca 75 bc d5 3d db 3c
       -0.12442209 -0.17263797 -0.015001957 0.026762882
000330 81 ef 1c bd 10 1c 3b bd c5 77 cd 3c 97 1d 61 3e
       -0.038314346 -0.04568106 0.025081525 0.21983944
000340 63 48 4d 3d 11 a1 a2 be 26 0c a4 3d 09 e5 75 be
       0.05011786 -0.3176351 0.0801013 -0.24013151
000350 9b 09 18 be 90 dd 9f bd ff f4 99 bd 0d 6e 4c be
       -0.14847414 -0.078059316 -0.075174324 -0.19963856
000360 07 eb 9b be 9d 92 d0 bd 9b 12 52 be 7f dc 17 3e
       -0.3045275 -0.10184214 -0.2051491 0.14830206
000370 65 66 bc 3c 93 70 16 3e d9 b1 a6 be 0f 01 89 3d
       0.022998044 0.14691381 -0.32557562 0.06689655
000380 50 97 9d bc 7a 6d 8a be 2c 58 05 be 38 52 ab be
       -0.01923719 -0.2703665 -0.13021916 -0.33461165
000390 67 55 a5 be 07 22 2f 3e 04 c4 d0 bd 9b d5 4f be
       -0.3229172 0.17102824 -0.10193637 -0.20296328
0003a0 0a 7f 2b be 3a bf 7f bc fd a0 20 be 96 4e 2e bd
       -0.1674768 -0.015609557 -0.15686412 -0.042555414
0003b0 89 55 a2 3d 15 7f f3 bc a6 89 a1 be ad c3 a7 be
       0.07926471 -0.029723683 -0.3155033 -0.32766476
0003c0 1c bd 8b 3c c6 5c 0a 3e f9 46 bb bc 51 7f 08 be
       0.017057948 0.13511953 -0.02286099 -0.13329817
0003d0 c1 60 d9 bc fc 29 1a be 12 fd 61 bd 80 aa a3 bd
       -0.026535394 -0.15055078 -0.055172987 -0.07991505
0003e0 6d 39 94 3d 4d 99 70 bd 8e 4e 30 3c a4 52 3e be
       0.072375156 -0.05873995 0.010760916 -0.18586212
0003f0 9b e5 98 be 9d 90 b8 3d 1d ea a5 3e 0b d6 13 be
       -0.29862675 0.09011958 0.32405177 -0.1443712

transformer_encoder.layers.0.linear2.bias f4 [17]
000000 54 64 9f 3b aa 7a 8f bd 1a 9d a5 bd 39 aa d7 3d
       0.004864255 -0.07005818 -0.08086605 0.10530514
000010 73 61 35 bd 4e 8c 43 be e8 82 15 3e 3e a9 d3 3d
       -0.044282388 -0.1909649 0.14600718 0.10335015
000020 50 9a 29 bd ec 3d de bd a8 9d 0c 3e 8a a4 fb 3d
       -0.04140693 -0.108516544 0.13732016 0.12287243
000030 c4 79 b9 bd ba a1 42 bc c2 46 4f bd c9 a3 ec bd
       -0.09056428 -0.011879379 -0.05060459 -0.11554677
000040 91 de ac 3b
       0.0052755554

transformer_encoder.layers.0.norm1.weight f4 [17]
000000 48 1a 4f 3f ed 38 43 3f 80 58 47 3f 8b 34 36 3f
       0.80899477 0.76258737 0.77869415 0.71173924
000010 51 0d 40 3f 6a 55 48 3f 65 14 51 3f b9 df 31 3f
       0.7502032 0.7825533 0.81671745 0.69482
000020 27 f5 32 3f 19 be 3c 3f f9 35 3e 3f c6 01 68 3f
       0.6990532 0.73727566 0.74301106 0.90627706
000030 0a eb 32 3f 41 4f 35 3f 8d ad 3f 3f af 14 40 3f
       0.6988989 0.70824057 0.7487419 0.7503156
000040 38 b9 54 3f
       0.8309512

transformer_encoder.layers.0.norm1.bias f4 [17]
000000 2c 8b 92 3c 25 58 b4 bb ce ed cc 3c 13 d3 67 bc
       0.017888628 -0.0055036717 0.025015738 -0.014149445
000010 6b 57 bf bb 7e 77 21 bd 24 fe 6f 3d 0c 92 43 3d
       -0.0058392785 -0.039420597 0.058591977 0.047746703
000020 e8 b6 fd b9 b4 45 8c 3c 9a ce eb 3c d6 bd dc ba
       -0.00048392196 0.01712308 0.028785039 -0.0016841243
000030 a1 a4 a1 bc da 87 85 bd 23 61 d2 bc 98 7f 0d bc
       -0.019731821 -0.06520052 -0.025681084 -0.008636378
000040 2c 56 56 bd
       -0.052328274

transformer_encoder.layers.0.norm2.weight f4 [17]
000000 3f 37 a1 3f 51 0e 8b 3f ec 14 91 3f 56 f5 6d 3f
       1.2594985 1.0863744 1.133451 0.9295248
000010 35 e5 a5 3f 8c 34 82 3f 1b dc a6 3f 80 8f a2 3f
       1.2960573 1.0172286 1.3035921 1.2700043
000020 9a 90 9d 3f b2 93 92 3f f8 fd a1 3f 89 78 b5 3f
       1.2309754 1.1451323 1.265563 1.417741
000030 7e 7f 8f 3f db 5e a5 3f ec db a3 3f 1e 38 8f 3f
       1.1210783 1.2919573 1.280149 1.1189001
000040 31 e1 a3 3f
       1.2803098

transformer_encoder.layers.0.norm2.bias f4 [17]
000000 6b 4c 18 be 53 7c 2a 3e 9b 9c 9e 39 6c ca bc 3d
       -0.14872901 0.16648988 0.0003025279 0.092182964
000010 0d 5c 46 3e f3 45 60 bd 89 c4 a8 bd 88 c4 40 be
       0.19371052 -0.05475421 -0.08240611 -0.1882497
000020 b7 86 04 bf 33 6f 97 bd 20 fe 58 bd 23 9a 03 3f
       -0.5176806 -0.073942564 -0.052976727 0.5140707
000030 dc 23 22 3e d5 72 0d 3e 7e ca 8c be eb 91 24 3e
       0.15833992 0.13813336 -0.2749824 0.16071288
000040 98 20 82 3e
       0.25415492

mlp.0.weight f4 [17, 17]
000000 82 39 f7 3d 38 11 8d be 52 79 99 3e 99 5a 66 3e
       0.120715156 -0.275522 0.29975373 0.22495498
000010 b2 c3 ca be ec f4 5b bd 09 91 25 bc 44 77 19 3f
       -0.3960243 -0.053700373 -0.01010538 0.5994761
000020 ac d4 32 3e 9d bc 45 3e 4a 69 7b bd 9e a6 90 be
       0.1746394 0.19310232 -0.06137971 -0.2825212
000030 5e b9 32 3c 12 3b 53 bc 78 f7 99 be 7c 8c b3 be
       0.010908453 -0.012892501 -0.30071616 -0.3506812
000040 61 fc 32 be 91 dd 58 be 8c 60 15 3e 92 ac 8e bd
       -0.17479087 -0.21178271 0.14587611 -0.06966509
000050 e1 1c bb bc 46 b7 94 3e 59 2d cb 3d f3 df 0a be
       -0.022840919 0.29046077 0.09920759 -0.13561992
000060 ae 15 82 be 18 a3 80 be 26 86 07 be 1c 55 4a be
       -0.25407165 -0.2512443 -0.13234767 -0.19759029
000070 ae 38 c7 bc 12 c7 5a 3e 21 16 a9 3d c9 07 63 3e
       -0.02431902 0.21365002 0.08256174 0.22170939
000080 6b b0 37 3e 31 29 ba 3e 26 f2 99 3e 71 94 bc 3e
       0.17938392 0.36359552 0.30067557 0.36832002
000090 4d 75 bf be 8f da 68 be f1 20 d7 3c 4a 93 74 3d
       -0.3739418 -0.22739623 0.026260825 0.05971078
0000a0 11 c4 d5 3e 05 7e ba be 96 dc 9b be 8d 41 e4 be
       0.4175115 -0.3642427 -0.3044173 -0.4458126
0000b0 3e f3 82 3e 77 ee c2 3e 27 8a 41 be 10 3a 7a be
       0.25576204 0.3807256 -0.18900357 -0.24436212
0000c0 22 b7 aa be 35 1b b6 3e 76 8b 62 3d 5d ef 64 be
       -0.33342844 0.35567632 0.05530878 -0.22356935
0000d0 ff 1c 47 be 42 7e c7 3e 32 cb a0 3e f3 16 7e 3d
       -0.19444655 0.38963515 0.31405026 0.062033605
0000e0 99 b0 cf be bd 2b 98 be f8 34 03 3e 1e fe 3f be
       -0.4056442 -0.2972087 0.12813175 -0.18749282
0000f0 ed 94 96 3e a2 51 bf 3c 96 02 39 3e 7f e4 d4 3e
       0.29410496 0.023354355 0.18067393 0.4158058
000100 76 66 bf 3d 92 36 da be 8b cf c9 be 1b 78 19 3e
       0.09345715 -0.4261976 -0.39416155 0.14987223
000110 cb 56 a6 3e 5a 08 b2 3e 66 c5 a0 be 89 59 1b be
       0.32488093 0.34771997 -0.31400603 -0.15170874
000120 66 e7 c1 3e 63 99 84 3e 0c c4 15 3e 28 ed e4 be
       0.37871855 0.25898275 0.14625567 -0.44712186
000130 8f c1 19 be a8 8f e6 be 40 ab 84 3e 65 df 14 3f
       -0.15015243 -0.45031476 0.25911903 0.58153373
000140 92 4b 83 be 7e 52 f6 bc f3 6f 9a be eb 4a 1c 3e
       -0.25643593 -0.030068632 -0.30163535 0.15262954
000150 07 84 45 3d 57 4e 34 3e 51 ae c6 bd 89 be 32 3d
       0.048221614 0.1760801 -0.09701217 0.04363874
000160 e3 63 5f 3e 73 af e3 be 09 4b 4c be 41 87 7d 3e
       0.21815448 -0.44469795 -0.19950499 0.24758627
000170 78 58 2f 3f e8 a8 25 3d 39 aa 94 3e c2 d7 4c bd
       0.6849437 0.040444285 0.2903612 -0.05001045
000180 5e 1f 71 3c 0f 18 66 3e 90 ee 67 3c 0f f7 29 be
       0.014716951 0.22470115 0.014155999 -0.16598152
000190 c8 c6 87 be 67 fa 55 be 69 71 0b 3f 3b bd eb 3d
       -0.26518846 -0.20896302 0.54469925 0.11510702
0001a0 19 01 a1 bd 7e 1d 12 bd f5 b1 ee be 88 a0 d4 3d
       -0.078615375 -0.035672657 -0.46620145 0.103821814
0001b0 d7 86 4a 3f 09 c2 4a 3e 82 32 81 bd 48 4b 7f be
       0.79112 0.19800581 -0.06308462 -0.24931061
0001c0 a8 f2 42 3f 09 27 03 3e 26 f5 29 be 3c 34 50 bf
       0.76151514 0.1280786 -0.16597423 -0.81329703
0001d0 dc db c1 be d6 87 a3 3e 63 7a 13 bf 50 e5 74 be
       -0.37863052 0.31939572 -0.5760862 -0.23915601
0001e0 6c 95 a9 3d 69 04 b8 bc d3 cb 50 3d f8 7f 0c 3f
       0.08280453 -0.02246304 0.050975632 0.54882765
0001f0 bc 85 b0 3e 28 e1 0d be 36 65 b6 be fd 2f a0 be
       0.3447703 -0.13855422 -0.35624093 -0.31286612
000200 d0 74 69 be 3f 68 e6 be d4 ef 3e 3e 49 9c 8a bd
       -0.22798467 -0.45001408 0.18646175 -0.0676809
000210 61 de 98 3d 8d 15 3c 3e 7a 4d bf bd a1 b6 ca 3e
       0.074642904 0.18367596 -0.09340949 0.3959246
000220 19 05 b3 bd 77 c3 b6 3d 59 90 94 bc fc f1 b1 3c
       -0.08741207 0.08924001 -0.018135237 0.021721832
000230 d7 e9 54 3b e9 cd c3 bd b2 8f 69 3d bb 08 30 be
       0.0032488012 -0.095607586 0.057021804 -0.1719083
000240 9d 30 df 3d 27 d8 8f 3d 32 b2 cb 3d 8a d3 4e bc
       0.10897944 0.0702365 0.099460974 -0.012623677
000250 57 c3 8c 3d f9 f7 cf 3d 6b 32 07 3e 1c b7 4e 3c
       0.068731956 0.10154719 0.13202827 0.012616899
000260 ef 98 0d be 79 d5 2f be b0 9a e9 3d c6 8a c8 bd
       -0.13827871 -0.17171277 0.114064574 -0.09792094
000270 7a 98 ed bd f8 74 0d 3f c5 85 54 3e 17 fe 4f be
       -0.11601348 0.55256605 0.20754154 -0.20311771
000280 9c 59 a3 be b3 9f 83 bc 57 51 43 be dc b5 99 be
       -0.31904304 -0.016067361 -0.19073997 -0.3002156
000290 c4 04 8e 3e cf 29 37 bd ce 98 cf 3e 24 b2 7b 3e
       0.2773801 -0.044717606 0.40546268 0.24579674
0002a0 fe 05 02 3d 1a 41 b1 3e 7f 04 cd 3c 5c 13 90 3d
       0.031743996 0.3461998 0.025026558 0.070349425
0002b0 70 b1 f7 be fd 91 a8 be 80 0c a5 3e 82 3f 89 3e
       -0.48377562 -0.3292388 0.322361 0.26806265
0002c0 65 19 ec bd 8e af f1 be 9c 49 11 be 9a ac a9 be
       -0.11528281 -0.4720425 -0.14188236 -0.33139497
0002d0 f1 1e f0 3c 86 e4 95 3e cf be c1 be 8d e3 88 3e
       0.029311629 0.29275912 -0.37840888 0.26736107
0002e0 b1 5d 65 3d 43 d0 46 3e 74 9c b8 bc 51 af a9 be
       0.055997554 0.19415383 -0.02253554 -0.33141568
0002f0 83 e0 b0 ba 30 ed 9d bd a5 3a 1e 3c 86 f3 03 3f
       -0.0013494644 -0.077112556 0.009657537 0.5154346
000300 bb bb 60 bd 17 aa b5 be e7 87 c1 be c1 5c 74 be
       -0.054866534 -0.3548133 -0.37798998 -0.23863508
000310 43 df 2a 3c 67 8a 90 be b5 09 5f 3e 83 8c 8b 3e
       0.010429206 -0.28230593 0.21781047 0.2725564
000320 f6 c5 1c 3f 72 dd 4c be b4 66 c0 3d 23 16 2a 3f
       0.61239564 -0.2000635 0.09394589 0.6644003
000330 2d 2e ea 3b e4 0f a2 3e 57 4f f5 be cc 2b 5d be
       0.007146618 0.3165275 -0.47912094 -0.21598738
000340 21 d5 94 3e d0 6c 11 3f 64 62 56 3e ac 58 db be
       0.29068854 0.5680666 0.2093597 -0.4284109
000350 80 01 fb bd a9 8b 0a bf 45 67 96 3e 6a df 0d 3f
       -0.122561455 -0.54119354 0.29375663 0.5541903
000360 00 ff b2 be aa 61 64 be 25 9e 6a be 85 f1 c1 3e
       -0.34960175 -0.22302881 -0.2291189 0.37879577
000370 09 83 72 3b 08 3d f3 be 2f 3d 20 3e 4c 1e 8f 3d
       0.0037004373 -0.475075 0.1564834 0.069882005
000380 1e 71 71 3e 7e 53 0d 3f 66 00 98 3c 40 fd e0 be
       0.23578307 0.55205524 0.018554877 -0.43943214
000390 f6 6f b5 be b8 c3 af be b4 77 42 3d 82 bb fc be
       -0.35436982 -0.3432901 0.04747744 -0.49361807
0003a0 9b 33 cf 3e 19 4d a7 3e b4 f1 0c 3f ac 2e 2e bd
       0.4046906 0.32676008 0.5505631 -0.04252498
0003b0 12 ba fc 3d 04 1a 13 3f db 40 ee 3c 01 4c 42 be
       0.123401776 0.5746157 0.02908366 -0.18974306
0003c0 0f 51 ba 3e a5 69 66 3e 12 4c 9a be f1 61 c4 be
       0.36389968 0.22501238 -0.30136162 -0.38355973
0003d0 56 d3 00 3e 82 35 82 3e 44 a5 5f be 6f e9 be 3e
       0.12580618 0.25431448 -0.21840388 0.3728747
0003e0 4e 36 9f bd 40 93 06 bc d8 1f 1b 3d 8e 6d 3c 3b
       -0.0777403 -0.008213818 0.037872165 0.0028751823
0003f0 8e 58 38 be 3c 51 a1 bc 4a 45 c2 3d f3 a9 81 bd
       -0.18002531 -0.019692056 0.09485872 -0.06331243

mlp.0.bias f4 [17]
000000 74 f0 c6 3d 77 cc cc 3d 73 b3 be 3e 1f 26 c9 3d
       0.097138315 0.09999936 0.37246284 0.09821724
000010 f8 9a 95 3e 4c 38 15 bc ef f4 bd 3d f3 96 33 3e
       0.29219794 -0.0091076605 0.09275233 0.17538051
000020 75 37 fb bd bc 01 89 3e 06 f6 06 bd f4 0e fd 3d
       -0.12266437 0.26759136 -0.03294947 0.12356368
000030 32 a7 de 3e 55 cf 79 3e e9 50 87 3e 9d d9 ca bc
       0.43486935 0.24395497 0.26428917 -0.02476197
000040 f3 59 8e 3e
       0.27803

mlp.2.weight f4 [4, 17]
000000 17 2f 5e bf ef db 1f be 64 b6 a3 3e 1b 78 86 bd
       -0.86790603 -0.15611242 0.3197509 -0.06565877
000010 92 ee 39 3e c4 3f bb be d8 5a 0b 3f 37 4b ca be
       0.18157414 -0.36572087 0.5443549 -0.3951051
000020 c1 12 f9 3d d5 c2 b0 be 1d 0d f5 3c bc e7 0e bf
       0.1216178 -0.34523645 0.02991348 -0.5582235
000030 3c 63 24 3e 0e f7 17 bf f6 b6 5a be b9 9f ac be
       0.1605348 -0.5936135 -0.21358857 -0.3371561
000040 54 8c c0 3e 82 26 c2 3e c3 05 a2 be 46 51 a6 be
       0.37607062 0.37920004 -0.3164502 -0.32483882
000050 23 54 b4 3e 2e c7 15 be 3c 98 ff 3e 80 81 59 be
       0.3522044 -0.14626762 0.49920833 -0.21240807
000060 02 2b 8b be 75 61 3d 3e b6 b5 f0 be 1d 10 58 bd
       -0.2718125 0.18494208 -0.47013634 -0.05274974
000070 99 e2 86 3d 13 59 bf be 2d c0 d0 bb db 8f ca 3e
       0.06586189 -0.37372646 -0.0063705654 0.39562878
000080 86 55 86 3e 93 54 98 be 54 da 14 bf 2e 36 25 3d
       0.26237124 -0.29752025 -0.5814564 0.040334873
000090 ed 73 02 3e d1 86 40 bf 95 61 6e 3e 39 f9 75 bf
       0.12739535 -0.75205714 0.23279412 -0.9608341
0000a0 be 04 80 be 76 85 4a 3e be f8 ff bd e9 aa 1e 3e
       -0.25003618 0.19777474 -0.12498616 0.15494885
0000b0 e6 e1 8b 3e ea 49 82 3c d0 13 26 3e f2 20 1c be
       0.27320784 0.015904386 0.16218495 -0.15246943
0000c0 4d e7 dd be 9b 05 6d bf 26 5e a4 3d 4c 41 19 bf
       -0.4334053 -0.9258668 0.0802577 -0.5986526
0000d0 ce ca bc 3e 94 d2 0f bf 69 64 53 3c d7 83 55 bf
       0.36873478 -0.5618069 0.012902358 -0.83404297
0000e0 6f d6 04 bf 23 c5 29 be fc 92 cf 3e ac 75 13 be
       -0.518897 -0.16579108 0.40541828 -0.14400357
0000f0 9c fb bd 3e 4c ad 41 bf d5 7d 75 3e 9d 18 14 bf
       0.37106025 -0.75655055 0.23973782 -0.57850057
000100 bc 60 90 3e 42 5e 40 be 74 2e ad be 38 23 1f bf
       0.28198802 -0.18785957 -0.33824503 -0.62163115

mlp.2.bias f4 [4]
000000 7c 38 05 3e 32 d5 3d 3e 11 85 81 bd 8a e3 73 3e
       0.13009828 0.18538359 -0.063242085 0.23817268
