experiments/freqshape/models/Scomb_transformer_split=5.pt (torch, 15279 bytes, 16 tensors)

transformer_encoder.layers.0.self_attn.in_proj_weight f4 [51, 17]
0	0xbdae6346	-0.08515029
1	0xbd4ca7dc	-0.04996477
2	0x3df5a38b	0.11994084
3	0xbe8a4411	-0.27005056
4	0xbd7f5a46	-0.06234195
5	0x3c3b4e41	0.011432231
6	0xbe7f7149	-0.24945559
7	0xbd454b6a	-0.048167624
8	0x3e91941c	0.2843331
9	0xbe9015ce	-0.28141636
10	0xbe42b0b3	-0.19012718
11	0xbe068ee4	-0.13140446
12	0xbdf6d26e	-0.12051855
13	0xbe1b04ee	-0.151386
14	0xbdbd275b	-0.09236022
15	0xbe1d67f3	-0.15371685
16	0x3e796bb7	0.24357496
17	0xbc23e682	-0.010003688
18	0xbf0857cc	-0.5325897
19	0x3d8bbaba	0.06822725
20	0x3df2ebe8	0.11861402
21	0xbe7fc0df	-0.24975918
22	0xbec2f801	-0.38079837
23	0xbec54ac8	-0.38533616
24	0x3d1ae1a7	0.037812855
25	0xbeaa40a2	-0.33252436
26	0xbe3a72da	-0.18207875
27	0x3d016b05	0.031596202
28	0xbee6d598	-0.45084834
29	0x3e8ba769	0.2727616
30	0xbe04333f	-0.12910174
31	0xbdb11a58	-0.08647603
32	0xbe8d6776	-0.27617997
33	0x3e99be1d	0.30027857
34	0xbe2fb584	-0.17159086
35	0xbc7b663c	-0.015344199
36	0xbdd0008a	-0.10156353
37	0x3c2182f8	0.009857886
38	0xbe80659b	-0.2507752
39	0x3cdda75e	0.027057346
40	0xbe40375e	-0.18771121
41	0xbe909bbe	-0.28243822
42	0xbe6106d9	-0.21975268
43	0x3e571c20	0.21006823
44	0x3dd072a2	0.101781145
45	0x3d8e7054	0.06955019
46	0x3e87b2d5	0.26503626
47	0x3d79fb5f	0.06103074
48	0xbe8ea10e	-0.2785725
49	0x3dfafd3c	0.12255332
50	0x3e9f065b	0.31059536
51	0xbd917460	-0.07102275
52	0x3ebc21ec	0.3674463
53	0xbeb7bee4	-0.35887825
54	0xbeb932a7	-0.36171457
55	0x3e84222a	0.25807315
56	0x3dc8e47c	0.09809205
57	0x3e673adf	0.22581051
58	0xbe60a5cc	-0.21938246
59	0xbe0dca37	-0.1384667
60	0x3c9722fc	0.018449299
61	0x3e8a1479	0.26968744
62	0x3e9e822b	0.30958685
63	0x3de6f77d	0.112776734
64	0x3d84b85e	0.06480478
65	0xbd873f08	-0.06603819
66	0x3e34200d	0.17590351
67	0xbe41ff77	-0.18945108
68	0xbe035d69	-0.12828602
69	0xbea41b56	-0.32052106
70	0x3efae0f1	0.48999742
71	0x3f04c636	0.51864946
72	0xbdc445b1	-0.09583605
73	0x3ed2c3fa	0.41165143
74	0x3e87101e	0.26379484
75	0x3e4ce920	0.20010805
76	0xbe8a51cb	-0.27015528
77	0xbef315f0	-0.47477674
78	0xbedc6f62	-0.43053728
79	0xbe39e00f	-0.18151878
80	0x3dec0ca0	0.115258455
81	0xbdc1843f	-0.09449052
82	0x3da22d88	0.07918841
83	0x3ddeec97	0.1088497
84	0x3dc45d41	0.09588099
85	0x3cd4cf08	0.025977626
86	0xbe443bf9	-0.19163503
87	0x3e825a91	0.25459722
88	0x3e66ff65	0.22558363
89	0x3e569473	0.20955066
90	0x3e6a8bd2	0.229049
91	0xbcc04071	-0.023468228
92	0x3dd5a4f0	0.1043185
93	0xbc67120f	-0.014103427
94	0x3d221813	0.03957374
95	0xbe02ab24	-0.12760597
96	0xbde10a74	-0.10988322
97	0x3dc68cbb	0.09694811
98	0xbc09b2a5	-0.008404409
99	0x3e383206	0.17987832
100	0x3e9f7f8d	0.31152
101	0xbe4f111f	-0.20221375
102	0xbe6d3c22	-0.2316747
103	0xbe14fe9b	-0.1455025
104	0xbe559a86	-0.20859727
105	0xbd4e6969	-0.050393496
106	0x3e89baca	0.2690032
107	0x3dce356c	0.10068783
108	0x3dabc2f9	0.083867975
109	0xbe5dca3c	-0.21659178
110	0xbd3eca1e	-0.046579473
111	0xbe28cc25	-0.16484125
112	0xbc1baff1	-0.009502397
113	0x3ddf28bd	0.10896442
114	0xbe8a184c	-0.26971662
115	0x3be23f1a	0.006904495
116	0x3e601ccf	0.2188599
117	0xbe0f7828	-0.1401068
118	0x3e29fe8d	0.1660101
119	0xbe29cdd7	-0.16582428
120	0x3e4521d8	0.19251192
121	0x3c51d288	0.012806542
122	0x3e7f878f	0.24954055
123	0x3e04f292	0.12983158
124	0x3e98cb6f	0.29842708
125	0x3e94e9d1	0.29084638
126	0x3e077686	0.13228807
127	0x3e18dfec	0.1492917
128	0xbd44ad0c	-0.048016593
129	0xbe2a838b	-0.16651742
130	0x3de71fcd	0.112853624
131	0xbebe3310	-0.37148333
132	0x3e4dbefa	0.20092383
133	0xbd824fc1	-0.06362868
134	0x3e8d71ab	0.27625784
135	0xbd5278af	-0.051384624
136	0x3e0ef568	0.13960803
137	0x3e06d1ba	0.13165942
138	0x3dd78550	0.10523474
139	0xbe7ec62d	-0.24880286
140	0xbe2f0c60	-0.17094564
141	0x3d992935	0.07478563
142	0xbe874242	-0.26417738
143	0xbeb1fc1b	-0.34762654
144	0xbd022341	-0.031771902
145	0x3e034248	0.12818253
146	0xbcb34d66	-0.021887492
147	0xbcde443b	-0.027132144
148	0xbe252663	-0.16127925
149	0xbe322e93	-0.17400579
150	0x3d870c1a	0.06594105
151	0xbd541fcd	-0.05178814
152	0xbe8698cb	-0.26288447
153	0xbe3516a6	-0.17684421
154	0x3e42e25d	0.19031663
155	0x3ecce5e1	0.40019134
156	0x3f157f7b	0.58397645
157	0xbe9853d1	-0.29751447
158	0x3ecf5ce3	0.40500554
159	0x3eaa87ff	0.33306882
160	0x3ea7d5c8	0.3278029
161	0x3e0a9454	0.13533145
162	0xbe4e2bf8	-0.2013396
163	0xbef508f7	-0.47858402
164	0xbf120d07	-0.5705113
165	0xbe73e445	-0.23817547
166	0xbeb574c3	-0.35440645
167	0x3db70831	0.08937109
168	0x3da6480a	0.08119209
169	0x3d83849f	0.0642178
170	0x3b8e9c53	0.0043521314
171	0xbe9e890e	-0.3096394
172	0xbe103a90	-0.1408484
173	0xbe4d1e30	-0.20031047
174	0xbe00ac71	-0.12565781
175	0xbc07c410	-0.008286491
176	0xbe83ab2f	-0.2571654
177	0xbe772a69	-0.24137272
178	0xbde92455	-0.11383883
179	0x3de1b7b7	0.11021369
180	0xbe824655	-0.25444284
181	0x3c961b25	0.01832349
182	0x3ec5a111	0.38599446
183	0xbe7cc8b9	-0.24685945
184	0xbe56abfb	-0.20964043
185	0x3ad542a1	0.0016270467
186	0x3d5f4f0b	0.05451874
187	0xbe5584e1	-0.2085147
188	0x3e8d6093	0.27612743
189	0xbe31c9ba	-0.17362109
190	0xbdf145c0	-0.11780882
191	0x3e64262a	0.22280183
192	0xbc6163dc	-0.0137567185
193	0x3e8af299	0.27138212
194	0x3d8b12ac	0.06790671
195	0x3e84645e	0.25857824
196	0xbdabc9de	-0.083881125
197	0x3ed2dcff	0.41184232
198	0x3e13c1a6	0.1442934
199	0xbd8c810b	-0.068605505
200	0x3e895070	0.2681918
201	0x3e4a7606	0.19771585
202	0x3d284bb0	0.041087806
203	0x3de36d25	0.11104802
204	0xbe4c4ef4	-0.19951993
205	0xbe8ca61d	-0.27470484
206	0x3e00ba2e	0.12571022
207	0x3caf068a	0.021365423
208	0xbdff7943	-0.12474301
209	0xbd4acac9	-0.049509797
210	0x3dfffd09	0.124994345
211	0x3c8245b4	0.015902378
212	0xbc562cb8	-0.013072185
213	0xbdae4c52	-0.08510651
214	0xbe0b482d	-0.13601752
215	0xbd5bb83c	-0.053642496
216	0x3e102da1	0.14079906
217	0xbe7a3013	-0.24432401
218	0x3e342562	0.17592385
219	0x3d99d67a	0.07511611
220	0x3e9a10e9	0.30091026
221	0xbe3bbc6e	-0.18333599
222	0xbeea379e	-0.45745558
223	0x3e918062	0.2841826
224	0x3e1f3501	0.15547563
225	0xbe8b2a86	-0.2718088
226	0xbe4c6cfa	-0.19963446
227	0xbe8933ca	-0.26797324
228	0xbdc05764	-0.093916684
229	0x3d0b776c	0.034049436
230	0xbe8a6bb3	-0.27035293
231	0xbdabe2a4	-0.08392838
232	0xbe359bdb	-0.17735235
233	0x3b8ca1fe	0.004291772
234	0xbe892c2c	-0.26791513
235	0xbd4c4744	-0.04987265
236	0x3e400156	0.1875051
237	0xbd6d2eb2	-0.05790586
238	0x3daafda0	0.083491564
239	0xbe09dfe7	-0.13464318
240	0x3e80fa08	0.2519076
241	0x3ea2bc57	0.31784317
242	0xbdf3b4f1	-0.11899746
243	0x3e92e8c5	0.28693214
244	0x3e93021b	0.28712544
245	0x3ea010b1	0.31262735
246	0xbdd1d05b	-0.10244819
247	0xbbc19a95	-0.00590832
248	0x3d9c8b5f	0.076437704
249	0xbe81ae78	-0.25328422
250	0x3e191a01	0.14951326
251	0xbd87a760	-0.06623721
252	0x3e9051bb	0.28187355
253	0x3e938e26	0.28819388
254	0xbdd548b4	-0.10414258
255	0x3e32691c	0.17422909

transformer_encoder.layers.0.self_attn.in_proj_bias f4 [51]
0	0xbd9e096f	-0.07716643
1	0xbe12b85f	-0.14328144
2	0xbdcedb08	-0.10100371
3	0xbb5ed3e6	-0.0034000813
4	0x3e4e2f1c	0.20135158
5	0x3d99c8c3	0.075089954
6	0xbd2b645d	-0.04184376
7	0x3e44177c	0.19149584
8	0xbde101ef	-0.10986697
9	0x3e95845d	0.29202548
10	0xbe265a8a	-0.16245475
11	0x3d01d023	0.031692635
12	0xbd22fc9b	-0.039791685
13	0xbd66b64a	-0.05632619
14	0x3e2bd356	0.16779837
15	0x3de8152d	0.11332164
16	0xbd3fe400	-0.046848297
17	0xb9b0d3d8	-0.00033727172
18	0x3c3f6b7f	0.011683344
19	0xbc734697	-0.014848373
20	0xba354b34	-0.0006915808
21	0xbc91e7c1	-0.017810704
22	0x3bfe792e	0.0077659106
23	0xbab8e94f	-0.0014107617
24	0xbaa4d2d7	-0.0012575042
25	0xbbf9c31c	-0.007622136
26	0x3ade9011	0.0016980191
27	0xbb108461	-0.002205156
28	0x3c5d7182	0.013515832
29	0x3b554aad	0.003254573
30	0x3ba087ef	0.004899017
31	0xbc69610b	-0.014244328
32	0xbbda34a6	-0.006659108
33	0xbbfd536f	-0.0077308933
34	0xbb220be1	-0.0024726319
35	0xbc3112a6	-0.010807669
36	0x3c5840c2	0.013199033
37	0xbcfe7a51	-0.031064184
38	0xbc801b44	-0.015638001
39	0x3c3f56ef	0.011678441
40	0x3a54c1be	0.0008116028
41	0xbb8e59ec	-0.0043442156
42	0xbcf3809a	-0.029724408
43	0x3ca09bf8	0.019605622
44	0xbc2f9131	-0.010715769
45	0x3cd2f476	0.025751334
46	0x3c9ba0d3	0.018997585
47	0x3a50a42f	0.00079590356
48	0x3d0a95f1	0.0338344
49	0x38cdac61	9.80727e-05
50	0xbb510bcc	-0.00318979

transformer_encoder.layers.0.self_attn.out_proj.weight f4 [17, 17]
0	0x3e2afbf9	0.16697682
1	0xbc594a18	-0.013262294
2	0xbd1ff013	-0.039047312
3	0xbe54dfa1	-0.20788433
4	0x3e546218	0.20740545
5	0x3de5ea12	0.11226286
6	0xbd0311e6	-0.03199949
7	0x3e288d27	0.16460095
8	0x3e363b8f	0.17796157
9	0xbdfdd719	-0.12394542
10	0xbd854030	-0.065063834
11	0x3c23a6e9	0.009988525
12	0xbce0be7c	-0.02743458
13	0xbe8ab445	-0.2709066
14	0xbd9fba05	-0.07799152
15	0xbe43767f	-0.19088171
16	0xbdc88db9	-0.097926565
17	0xbe74cc37	-0.23906027
18	0xbd97b9d0	-0.07408488
19	0x3dcd467f	0.10023212
20	0xbdcd7d3c	-0.10033652
21	0x3bb2c5b1	0.0054556956
22	0x3db14294	0.08655277
23	0x3e0d0297	0.13770519
24	0xbc67c5fe	-0.014146326
25	0xbe84b83c	-0.2592181
26	0xbd108a4e	-0.035288148
27	0x3e4ff251	0.2030728
28	0xbd657992	-0.05602414
29	0x3c47526d	0.012165648
30	0xbe11b1df	-0.14228009
31	0x3d2edac8	0.042689115
32	0x3e4c922d	0.19977637
33	0x3e3d48b9	0.18484773
34	0x3e30c177	0.17261301
35	0xbe014f94	-0.12628013
36	0xbde5ebdb	-0.112266265
37	0xbc48b4e6	-0.012250161
38	0xbe0f2d4a	-0.1398212
39	0x3c478b28	0.0121791735
40	0xbe89dd8c	-0.2692684
41	0x3d2a36fe	0.04155635
42	0xbe411a59	-0.18857707
43	0x3dbc955c	0.092081755
44	0xbdb139bb	-0.08653589
45	0xbd6d4cb0	-0.057934463
46	0x3e3fccf0	0.18730521
47	0x3e49f2ea	0.1972157
48	0x3e216aee	0.15763447
49	0x3e2de716	0.16982684
50	0x3e7d7cce	0.2475464
51	0x3e1043fc	0.14088434
52	0xbda40fbb	-0.08010813
53	0xbdaf3449	-0.085548945
54	0xbdb9d91b	-0.09074613
55	0xbe05b285	-0.13056381
56	0x3e420afa	0.189495
57	0x3d1eed58	0.038800567
58	0xbe3ae1b3	-0.1825016
59	0xbcd856c1	-0.026408555
60	0x3e611638	0.21981132
61	0xbe1efac2	-0.15525344
62	0xbdc53551	-0.0962931
63	0xbe18e410	-0.14930749
64	0xbe1a143c	-0.15046781
65	0x3e4694d6	0.19392714
66	0xbe10d6ed	-0.14144488
67	0x3e341e72	0.17589739
68	0x3dcd59ea	0.10026915
69	0x3d952ec1	0.07284308
70	0xbdf490a0	-0.119416475
71	0x3e44c6a5	0.19216402
72	0x3d05f350	0.032702744
73	0xbd80f3cb	-0.062965
74	0xbda5e9ac	-0.0810121
75	0x3c55e760	0.013055652
76	0xbe1ed691	-0.15511538
77	0xbd873ee9	-0.06603796
78	0xbdcfbf8f	-0.10143959
79	0x3ddf86b3	0.10914364
80	0xbe07f954	-0.13278705
81	0xbd2c6d9c	-0.04209672
82	0x3dc60846	0.09669547
83	0xbd3151df	-0.04329097
84	0xbe82cfe1	-0.25549224
85	0x3c26a777	0.010171763
86	0x3df0d754	0.117598206
87	0xbdb123c2	-0.086493984
88	0x3de65e92	0.112485066
89	0x3e6f9142	0.23395255
90	0xbcf92cb6	-0.030416828
91	0x3d1d1a7b	0.038355332
92	0xbe6b9966	-0.23007736
93	0x3da2835a	0.079352096
94	0xbcb6a4a4	-0.022295304
95	0xbdee5dc9	-0.11638982
96	0xbe0f90d5	-0.14020093
97	0x3d8ee257	0.06976765
98	0x3cb9e65c	0.022692852
99	0xbe068f0d	-0.13140507
100	0xbda92a17	-0.08259981
101	0xbe05fcfe	-0.1308479
102	0xbdbe6200	-0.09296036
103	0x3e3e3dfb	0.18578331
104	0x3da86b02	0.08223535
105	0xbe1f5710	-0.15560555
106	0xbda8c60c	-0.082408994
107	0x3e04f1ee	0.12982914
108	0xbdf3eac2	-0.11910011
109	0xbde84b7e	-0.11342524
110	0xbe3d1c87	-0.18467914
111	0x3dc5670e	0.09638797
112	0x3de95776	0.11393635
113	0xbd2ab4e6	-0.041676424
114	0xbbf4729c	-0.0074599516
115	0xbd030055	-0.03198274
116	0x3df2dad3	0.11858144
117	0x3d514830	0.051094234
118	0xbd9dd3a2	-0.077063814
119	0xbe816ff3	-0.25280723
120	0x3e61b7c9	0.22042765
121	0x3db8d026	0.09024076
122	0xbc5e2068	-0.013557531
123	0xbe9585ad	-0.2920355
124	0x3e2e4973	0.17020206
125	0xbe4e2620	-0.20131731
126	0x3e7aabd0	0.24479604
127	0x3c77e140	0.015129387
128	0xbe446669	-0.19179691
129	0x3e0f5108	0.13995755
130	0x3d99a5d9	0.07502336
131	0x3d80199d	0.06254885
132	0x3df5251e	0.1196997
133	0x3d67be8c	0.056578204
134	0xbdf974c1	-0.12180472
135	0x3d9e99a3	0.07744148
136	0xbc3c5147	-0.011493987
137	0x3dc524bc	0.09626147
138	0xbe56b4a1	-0.20967342
139	0xbd502a10	-0.050821364
140	0xbc738443	-0.014863077
141	0xbdea0255	-0.11426226
142	0x3e8403d3	0.25784168
143	0x3e19332d	0.14960928
144	0x3d5c0bcc	0.053722188
145	0x3de96bae	0.113974914
146	0xbd928688	-0.07154566
147	0x3d46c305	0.04852583
148	0xbd75f72a	-0.060050167
149	0xbe2767ba	-0.16348162
150	0xbd1cb622	-0.038259633
151	0xbd9bb1ee	-0.07602297
152	0xbe68e674	-0.22744161
153	0x3e835eb4	0.2565819
154	0xbd888d78	-0.06667608
155	0xbe6db45c	-0.23213333
156	0x3e3b8d6f	0.18315671
157	0x3dde0542	0.108408466
158	0xbe348f04	-0.17632681
159	0xbe5b4a00	-0.21414948
160	0x3dae619f	0.085147135
161	0x3d97f33e	0.07419442
162	0x3e45af07	0.19305049
163	0x3d0f9eb3	0.035063457
164	0x3db76a14	0.0895578
165	0x3e3245d6	0.17409453
166	0xbde46f95	-0.11154095
167	0x3defb2f0	0.117040515
168	0xbe2b810a	-0.16748443
169	0xbe28f14e	-0.164983
170	0x3e026afe	0.12736127
171	0x3c807c38	0.015684232
172	0x3ca20797	0.01977901
173	0x3c9bcec5	0.019019494
174	0xbe8a8009	-0.27050808
175	0x3e50589d	0.20346303
176	0x3de51d3d	0.111872174
177	0x3e124c85	0.14287002
178	0x3d963bce	0.073356256
179	0xbe3964a8	-0.18104804
180	0x3e2ecb46	0.1706973
181	0xbde7191a	-0.112840846
182	0x3e850375	0.259792
183	0xbc862f4f	-0.01637998
184	0x3dbd5239	0.09244198
185	0x3d5514ec	0.052021906
186	0xbe07f24e	-0.13276026
187	0x3e3c8b5b	0.18412535
188	0xbd0d61ca	-0.034517087
189	0x3e4e7400	0.20161438
190	0xbe1f84d6	-0.15578017
191	0xbc4c68c0	-0.012476146
192	0x3e82d9f4	0.2555691
193	0xbde8e3b4	-0.11371556
194	0xbe257b89	-0.16160406
195	0xbe6b28f4	-0.22964841
196	0xbe0d08ac	-0.1377284
197	0xbdefe032	-0.11712684
198	0xbe834062	-0.25635058
199	0x3e1ae71a	0.15127221
200	0x3da50af2	0.08058728
201	0xbbe6d9fe	-0.0070450297
202	0x3db24518	0.08704585
203	0x3e35379c	0.17696995
204	0x3df8d042	0.12149097
205	0x3d144ecc	0.03620796
206	0xbd9d853e	-0.076914296
207	0x3e3efbda	0.18650761
208	0xbe6f5c27	-0.23374997
209	0xbdbd50cb	-0.09243926
210	0xbe3a7764	-0.18209606
211	0xbe23be49	-0.15990557
212	0x3e0a9e05	0.13536842
213	0x3e14963a	0.14510432
214	0xbe2e52d2	-0.17023781
215	0x3e059d83	0.13048367
216	0xbd02ae18	-0.03190431
217	0x3e384187	0.17993747
218	0xbdbdf457	-0.0927512
219	0x3d53dce1	0.05172432
220	0xbe03ee54	-0.12883884
221	0xbe034f18	-0.1282314
222	0x3c49e769	0.012323239
223	0xbe27b542	-0.16377738
224	0x3b4797d8	0.0030455496
225	0x3e12c2d3	0.14332132
226	0x3e5e9285	0.2173558
227	0xbd38e1c7	-0.045137193
228	0xbdc49f23	-0.096006654
229	0xbe183aed	-0.14866228
230	0xbd8c1df8	-0.068416536
231	0xbd26edda	-0.040754177
232	0xbd37c6cb	-0.044867318
233	0x3d0bc1cb	0.034120362
234	0x3d93aad1	0.07210315
235	0xbcbaa7ab	-0.022785028
236	0x3c7ad5ce	0.015309764
237	0x3e156c95	0.14592202
238	0x3e0d61a9	0.13806786
239	0x3c5c485e	0.013444988
240	0xbe8dc77b	-0.27691254
241	0x3c99a668	0.018756106
242	0x3eb77018	0.35827708
243	0xbcf0f877	-0.029415352
244	0x3cbc9f04	0.023025043
245	0xbe86c3a4	-0.26321137
246	0x3e3f62c1	0.18690015
247	0xbd636446	-0.05551555
248	0xbe20fd71	-0.1572168
249	0xbd91229a	-0.07086678
250	0x3dc88e52	0.097927704
251	0xbe23419f	-0.15943001
252	0x3dc75cb9	0.09734482
253	0xbc7168f3	-0.0147344945
254	0x3d9a4ff9	0.07534785
255	0x3df0924b	0.11746653

transformer_encoder.layers.0.self_attn.out_proj.bias f4 [17]
0	0xbd1d0e5d	-0.038343776
1	0x3bd67adf	0.006545409
2	0x3ccf1627	0.025279118
3	0xbbd98e3f	-0.0066392715
4	0xbc825ef6	-0.015914422
5	0xbca24dc7	-0.019812478
6	0x3d2715b2	0.040792175
7	0x3cf1d5ba	0.029520858
8	0x3cffd9f2	0.031231854
9	0x3ca846af	0.020541517
10	0xbd03e147	-0.032197263
11	0x3cfd919c	0.030953221
12	0x3b885410	0.0041604117
13	0xbd145567	-0.03621426
14	0xbd16a968	-0.036782652
15	0x3bfd980e	0.0077390736
16	0x3c932656	0.017962616

transformer_encoder.layers.0.linear1.weight f4 [16, 17]
0	0x3cb34f50	0.021888405
1	0xbd81a3fb	-0.06330105
2	0x3d979fd4	0.07403532
3	0x3d0fd463	0.035114657
4	0xbe42b5d1	-0.1901467
5	0x3c972c3e	0.018453714
6	0xbe6269a4	-0.22110611
7	0x3e14202b	0.14465396
8	0xbb93128f	-0.0044882963
9	0x3e886814	0.26641905
10	0x3d4ecda8	0.050489098
11	0xbda3c64a	-0.07996805
12	0xbd6e9356	-0.05824598
13	0x3d9baede	0.07601713
14	0x3db18d52	0.08669533
15	0x3dd9d403	0.10636141
16	0x3de709f3	0.112811945
17	0xbe2a6244	-0.16639048
18	0x3dcb2900	0.099199295
19	0xbcf62640	-0.030047536
20	0xbdc9028f	-0.09814941
21	0x3d1b0ca5	0.037853856
22	0x3da9c194	0.08288875
23	0xbe316e6b	-0.17327277
24	0xbe6d80dc	-0.23193687
25	0xbd9ac774	-0.07557574
26	0x3e71a26e	0.23597118
27	0xbd9ca856	-0.07649295
28	0xbe078864	-0.13235623
29	0xbce674a9	-0.0281318
30	0xbe186d24	-0.14885384
31	0x3ea53333	0.32265624
32	0x3d475ccb	0.04867248
33	0x3da05cad	0.078301765
34	0xbe1cca15	-0.15311463
35	0x3d75160d	0.059835482
36	0x3ca10578	0.019655928
37	0x3db4a8bc	0.08821246
38	0xbeb32c32	-0.34994656
39	0xbe35b76b	-0.1774575
40	0x3c57d677	0.013173691
41	0xbd484219	-0.04889116
42	0xbd51947b	-0.051166993
43	0xbe7b981e	-0.24569747
44	0xbdf12c46	-0.117760226
45	0x3b36954d	0.0027859986
46	0xbd827e3e	-0.06371735
47	0x3c264457	0.010148129
48	0xbeac1bef	-0.33615062
49	0x3e0d6e63	0.1381164
50	0x3e8a3d02	0.2699967
51	0x3d582087	0.052765395
52	0x3ee6f082	0.45105368
53	0x3d341357	0.043963756
54	0xbd86997a	-0.06572242
55	0x3d09a2eb	0.033602636
56	0xbd808d3b	-0.062769376
57	0xbc8f9cdd	-0.017530853
58	0x3e8735a6	0.26408118
59	0xbf092595	-0.5357297
60	0xbe8da4ee	-0.27664894
61	0x3ec9de42	0.39427382
62	0x3f0fa362	0.5610868
63	0xbe5674de	-0.20943019
64	0x3e60eb85	0.21964844
65	0xbe80bbab	-0.2514318
66	0xbe3e0b62	-0.1855903
67	0xbd09e313	-0.03366382
68	0x3d9da07f	0.07696628
69	0xbe05eea1	-0.13079311
70	0xbd301c3d	-0.04299568
71	0x3e552b69	0.20817341
72	0x3e4e6137	0.20154272
73	0x3e7c9540	0.2466631
74	0x3cde0487	0.027101768
75	0xbede425d	-0.43410006
76	0x3e24aa74	0.16080648
77	0x3e6a918b	0.22907083
78	0x3d8e4e9c	0.06948587
79	0xbcd5509f	-0.02603942
80	0xbe27935b	-0.16364805
81	0x3dc2527b	0.09488388
82	0x3f122862	0.5709287
83	0xbe8c9070	-0.27453947
84	0xbe1ef0a6	-0.15521488
85	0x3e1460b2	0.14490011
86	0xbe2b992f	-0.16757654
87	0xbe4a1bc5	-0.19737156
88	0x3b8d5cd4	0.0043140445
89	0x3dfe74c1	0.12424613
90	0xbdacc4fe	-0.08436011
91	0xbe78a9b6	-0.2428349
92	0xbf176db1	-0.5915175
93	0x3deefda1	0.116694696
94	0x3d95cfc2	0.07315017
95	0xbe043bc6	-0.12913427
96	0xbd3f4f8f	-0.046706732
97	0xbe192d2c	-0.14958638
98	0x3cb06282	0.021531347
99	0x3f2a2097	0.6645598
100	0xbd08052f	-0.03320807
101	0xbe5062c6	-0.20350179
102	0x3d3d753c	0.04625438
103	0xbe01672e	-0.12637016
104	0xbe7bc443	-0.24586587
105	0xbe576edf	-0.21038388
106	0x3c70af0f	0.014690175
107	0xbdfcf1cb	-0.12350806
108	0xbd819765	-0.06327704
109	0x3e46425e	0.19361255
110	0x3d0de9e2	0.034646876
111	0xbdda5081	-0.10659886
112	0xbe283040	-0.16424656
113	0xbe830a30	-0.2559371
114	0x3e0a2ac7	0.13492881
115	0xbd6e905a	-0.058243133
116	0x3e8012ed	0.2501444
117	0xbe12c6b6	-0.14333615
118	0xbe198378	-0.14991558
119	0x3d8120cb	0.06305083
120	0x3ecc65c7	0.399214
121	0x3e53ff2c	0.20702809
122	0xbe6170e9	-0.22015728
123	0xbdc0faa2	-0.094228044
124	0xbeacd18e	-0.33753628
125	0xbd27a3a5	-0.040927548
126	0x3e1086e8	0.14113963
127	0xbe96ca6a	-0.29451305
128	0xbe8e3153	-0.27772006
129	0x3ef8a4fd	0.48563376
130	0x3efde89f	0.49591538
131	0xbe0d1db8	-0.13780868
132	0xbd843e6b	-0.06457218
133	0xbdb7ab9e	-0.0896828
134	0xbe20ebe7	-0.1571499
135	0xbdd3063c	-0.103039235
136	0xbe0d47eb	-0.13796966
137	0x3d1d1cc7	0.038357522
138	0x3e942c8d	0.2894024
139	0x3df337be	0.11875866
140	0xbcc90460	-0.024538219
141	0xbe9b28db	-0.30304608
142	0xbd822322	-0.06354357
143	0xbdffdcab	-0.12493261
144	0xbf0ab64f	-0.5418443
145	0xbe525635	-0.20540698
146	0x3eaf7448	0.34268403
147	0x3f07737d	0.52910596
148	0x3dc4ce3d	0.09609649
149	0x3e342e8e	0.17595884
150	0xbe457d56	-0.19286093
151	0x3d891f85	0.06695465
152	0x3d49991c	0.049218282
153	0x3e17be97	0.14818798
154	0xbdb8d426	-0.09024839
155	0x3e13c57f	0.14430808
156	0xbe48e599	-0.19618835
157	0xbe067e19	-0.1313404
158	0x3daec6b6	0.08533995
159	0x3d9b54e0	0.07584548
160	0x3e545bf2	0.207382
161	0x3dbff4e0	0.09372878
162	0x3cb7a5c9	0.02241792
163	0xbdd3bebc	-0.10339114
164	0x3ce30802	0.02771378
165	0xbd743dbe	-0.059629194
166	0x3d43decb	0.047819894
167	0xbe69b8cc	-0.228244
168	0x3dc9fabb	0.09862276
169	0x3d42f9c4	0.047601476
170	0x3e3e8102	0.186039
171	0xbd8a38d9	-0.06749124
172	0xbe97d994	-0.29658186
173	0xbde1481e	-0.110000834
174	0x3e8df495	0.27725664
175	0xbda43b9d	-0.08019183
176	0xbe0c28f9	-0.13687505
177	0xbf0699cd	-0.5257843
178	0x3c280cd9	0.010256969
179	0x3e54b1f0	0.20771003
180	0xbd2bc15e	-0.041932456
181	0xbe6987a6	-0.22805652
182	0xbd9cdfb8	-0.076598585
183	0x3d8f85b5	0.070079245
184	0x3f3ab89d	0.7293795
185	0xbe5a13ce	-0.21296617
186	0xbe43bec2	-0.19115737
187	0x3e26030e	0.16212103
188	0xbd70b603	-0.05876733
189	0xbe8bf790	-0.27337313
190	0xbe180d11	-0.14848734
191	0x3e83027f	0.25587842
192	0x3e32bb05	0.17454155
193	0xbcc42e3a	-0.023947824
194	0xbf11495a	-0.5675255
195	0x3e047c10	0.12937951
196	0x3e574bac	0.2102496
197	0xbdb659de	-0.089038596
198	0x3d833cf5	0.06408111
199	0xbda25d30	-0.0792793
200	0xbdafcdfa	-0.08584209
201	0x3ec92879	0.3928869
202	0x3e1d5f93	0.1536849
203	0xbe2e047a	-0.16993895
204	0x3e315006	0.17315683
205	0xbdbfb058	-0.09359807
206	0xbceb5c94	-0.028730668
207	0x3dc11d14	0.09429374
208	0x3e2d68c2	0.16934493
209	0xbdf5a742	-0.119947925
210	0x3d561359	0.052264545
211	0xbeec083d	-0.46100035
212	0x3c9940db	0.018707683
213	0xbdd55fbb	-0.1041865
214	0xbe46c05b	-0.19409315
215	0xbd2e632b	-0.042575043
216	0x3d6b277e	0.05741071
217	0x3ba3df9b	0.005001021
218	0x3ed57796	0.416928
219	0xbc525ea3	-0.012839946
220	0xbdfd599a	-0.12370606
221	0xbcfd1e1f	-0.030898152
222	0x3de41f37	0.11138766
223	0x3e527602	0.20552829
224	0xbe1413f3	-0.14460735
225	0xbe268d61	-0.1626487
226	0xbd8072e4	-0.06271914
227	0xbdcdd160	-0.10049701
228	0x3d0dbdba	0.034604765
229	0xbed615cb	-0.41813502
230	0xbea8aa93	-0.32942638
231	0x3e11e66e	0.14248058
232	0x3eb63c75	0.35593
233	0x3d1f8ba7	0.038951542
234	0x3e244120	0.16040468
235	0xbbb4e049	-0.005519901
236	0xbd4b69af	-0.049661335
237	0xbe29bc6a	-0.1657578
238	0x3c82f8c7	0.015987767
239	0xbe88716a	-0.26649028
240	0xbd157826	-0.036491536
241	0x3dc78cec	0.097436756
242	0xbd5750a5	-0.052567143
243	0xbbe683ba	-0.007034746
244	0xbd676221	-0.056490067
245	0x3e457fc1	0.19287015
246	0xbe2a8f96	-0.16656336
247	0xbe6fb907	-0.23410426
248	0xbdfe47f5	-0.124160685
249	0x3dd7b03c	0.10531661
250	0x3e387417	0.18013035
251	0xbd0a04f7	-0.03369614
252	0xbd01926c	-0.03163378
253	0xbd811483	-0.063027404
254	0xbd388ccf	-0.04505616
255	0x3e8cba54	0.27485907

transformer_encoder.layers.0.linear1.bias f4 [16]
0	0xbdaa9fbf	-0.083312504
1	0xbd8ee870	-0.06977928
2	0xbcdcbd2f	-0.026945679
3	0x3c6a0e64	0.014285658
4	0x3d9aa097	0.07550161
5	0x3d52172d	0.051291633
6	0xbd8c3cc6	-0.06847529
7	0xbca6f43e	-0.020380136
8	0xbd5a4659	-0.053289745
9	0xbd335760	-0.0437845
10	0x3da79f57	0.081846885
11	0xbe0bfb05	-0.13669975
12	0x3e153b7d	0.14573474
13	0x3d705477	0.058674302
14	0x3dbb7b7a	0.09154411
15	0x3e075994	0.13217765

transformer_encoder.layers.0.linear2.weight f4 [17, 16]
0	0xbe41e612	-0.18935421
1	0x3e5778bc	0.2104215
2	0x3d416a43	0.04722048
3	0x3ebc9bd4	0.36837637
4	0x3e8687ee	0.2627558
5	0x3e0a7386	0.13520631
6	0xbe65b07d	-0.22430606
7	0x3cdb98f1	0.026806327
8	0x3e4ad94e	0.19809458
9	0x3d935bc9	0.07195241
10	0x3eec9b6c	0.46212327
11	0x3e7b95f7	0.24568926
12	0x3d6ebc6e	0.05828517
13	0x3e835934	0.25653994
14	0xbdf738b0	-0.12071359
15	0x3ddce636	0.10786097
16	0xbd17ac33	-0.037029456
17	0xbe0807ef	-0.13284276
18	0xbe4e7cb8	-0.20164764
19	0x3ea4b5a3	0.32169828
20	0xbe2296c1	-0.1587782
21	0x3dc5d241	0.096592434
22	0x3e81977a	0.2531088
23	0x3e583f84	0.2111798
24	0x3e65f1cd	0.22455521
25	0xbcee5c68	-0.029096797
26	0x3e8a1e79	0.26976374
27	0x3e9568bf	0.29181477
28	0xbd07eb3e	-0.03318333
29	0x3d52d984	0.05147697
30	0x3dbcf21e	0.09225868
31	0x3dea9153	0.114535
32	0x3d460296	0.04834231
33	0x3c342461	0.0109950015
34	0xbe271d28	-0.16319716
35	0x3e6c9fc3	0.2310782
36	0xbdfee1f1	-0.12445439
37	0x3e832310	0.25612688
38	0x3e60593f	0.21909045
39	0x3e755512	0.23958233
40	0x3cae4280	0.021271944
41	0xbd83fab6	-0.06444304
42	0x3e768240	0.24073124
43	0x3d2bc821	0.041938905
44	0x3c99da16	0.01878075
45	0x3d5c739c	0.05382119
46	0x3e591897	0.21200787
47	0x3daa7408	0.083229125
48	0x3dc750e5	0.09732226
49	0x3e2c8a1e	0.16849563
50	0xbe46b7d0	-0.19406056
51	0x3ec19d3c	0.37815273
52	0x3dfe6fed	0.12423692
53	0x3e51d905	0.20492943
54	0x3e60861a	0.21926156
55	0x3e768e91	0.24077822
56	0xbd5a39f7	-0.053277936
57	0xbe17dec1	-0.14831068
58	0x3dba6c70	0.09102714
59	0x3e6f7df9	0.23387899
60	0x3e3fa11b	0.187138
61	0x3cd1b5e7	0.025599433
62	0x3d48d509	0.04903129
63	0x3ddc4b73	0.10756578
64	0x3e21e528	0.15810072
65	0xbe851a6d	-0.25996724
66	0x3e681067	0.22662507
67	0xbe915e04	-0.2839204
68	0x3e7be706	0.24599847
69	0x3e962c12	0.29330498
70	0xbe238f1b	-0.15972559
71	0xbe915efb	-0.28392777
72	0xbe02f99f	-0.12790535
73	0x3c89e624	0.016833372
74	0x3c8123e3	0.015764182
75	0x3e33e52b	0.1756789
76	0x3cc3091b	0.023808053
77	0xbe8c7299	-0.2743118
78	0x3d244177	0.040101495
79	0x3e10731d	0.14106412
80	0xbe0a52d9	-0.13508166
81	0xbd4f4ab9	-0.05060837
82	0x3d6509eb	0.05591766
83	0xbdc2f07a	-0.095185235
84	0xbd82a651	-0.063793786
85	0xbe741aa5	-0.23838289
86	0xbe53cb70	-0.20683074
87	0x3d230421	0.03979886
88	0xbdb88ee0	-0.09011626
89	0xbc8eaec7	-0.017417325
90	0xbe606340	-0.21912861
91	0xbde51183	-0.11184981
92	0x3e472f8c	0.19451731
93	0xbe3ac81a	-0.18240395
94	0xbdeebc99	-0.11657066
95	0x3d7b02db	0.06128202
96	0xbc848fa5	-0.016181776
97	0xbe2aff62	-0.16698983
98	0xbe0e7a08	-0.13913739
99	0x3d811fba	0.063048795
100	0xbe593e6e	-0.21215221
101	0xbe83670b	-0.25664553
102	0x3e810b3c	0.25203884
103	0xbc830450	-0.015993267
104	0x3e433b46	0.1906558
105	0xbc7323a7	-0.014840043
106	0xbdfc53d6	-0.12320678
107	0xbeb2c5ef	-0.34916636
108	0xbe8abea6	-0.27098578
109	0x3e0aadca	0.13542858
110	0xbcc52885	-0.024067173
111	0xbe69f4ef	-0.22847341
112	0x3dbe992f	0.09306561
113	0xbd2191cb	-0.03944568
114	0x3ccb613c	0.024826638
115	0xbee94fc4	-0.4556867
116	0xbe6311a8	-0.22174704
117	0xbeb88541	-0.36039165
118	0xbe05fb31	-0.13084103
119	0xbec2cf3e	-0.38048738
120	0xbe970214	-0.29493773
121	0xbe3b6f9e	-0.18304297
122	0xbe2231b4	-0.15839273
123	0xbe964f4b	-0.2935737
124	0xbeb697d6	-0.35662717
125	0xbe89369e	-0.26799482
126	0x3dfe2f7e	0.12411402
127	0xbe263c6f	-0.16233991
128	0xbd661d4c	-0.056180283
129	0xbe818a7e	-0.25300974
130	0xbdf0ff82	-0.11767484
131	0xbddc0e5f	-0.107449286
132	0xbd21101f	-0.039322015
133	0xbec7c8c8	-0.3902037
134	0x3dadfa46	0.084950015
135	0xbedcbee4	-0.43114388
136	0xbe076e26	-0.13225612
137	0x3e7de6f2	0.2479513
138	0xbe19a8ea	-0.15005842
139	0xbe99522a	-0.299455
140	0x3de49d2e	0.11162792
141	0xbec365b0	-0.3816352
142	0xbd441938	-0.047875613
143	0xbe0afb35	-0.1357239
144	0xbe54087a	-0.20706359
145	0xbe81a590	-0.25321627
146	0x3d0314f9	0.032002423
147	0xbe5f35bc	-0.21797842
148	0xbe5f34ec	-0.21797532
149	0xbde823a7	-0.11334925
150	0xbdf64fc4	-0.12026933
151	0xbdee884a	-0.11647089
152	0xbe4f848b	-0.20265405
153	0x3c324ac7	0.010882086
154	0xbea40c74	-0.3204075
155	0xbe8d7cff	-0.27634427
156	0xbe0bea58	-0.13663614
157	0x3d955bc5	0.07292894
158	0x3e137c78	0.1440295
159	0xbe2ed798	-0.1707443
160	0xbdf242b1	-0.118291266
161	0x3dcb1b76	0.09917347
162	0x3e041502	0.12898639
163	0x3dc40c09	0.09572608
164	0xbd059a85	-0.032618064
165	0x3dffca63	0.12489774
166	0x3dfd5c63	0.12371137
167	0xbe2b3534	-0.16719514
168	0x3d96a20d	0.073551275
169	0x3daa6a2f	0.08321034
170	0x3ecf0e4d	0.40440598
171	0x3dab291d	0.08357451
172	0x3e3c1cad	0.18370314
173	0xbe1d9e75	-0.15392478
174	0xbe502bef	-0.2032926
175	0x3e30a500	0.17250443
176	0xbcb94aed	-0.022618735
177	0x3d91d7c9	0.07121236
178	0xbe0f09b2	-0.13968542
179	0xbbf957f0	-0.00760936
180	0x3d9789d2	0.07399334
181	0x3e5747f3	0.2102354
182	0x3ea34d6a	0.31895
183	0x3ea38ec2	0.31944853
184	0xbcda19be	-0.026623603
185	0xbdef61b0	-0.11688554
186	0x3efacb3f	0.4898319
187	0x3de32390	0.110907674
188	0xbc56be60	-0.013106912
189	0x3d925084	0.071442634
190	0x3dd5001b	0.10400411
191	0x3d606382	0.054782398
192	0x3cd09fbb	0.02546679
193	0x3d25ce69	0.04048005
194	0xbe5449ca	-0.20731273
195	0x3b86d469	0.0041146767
196	0xbe4d9c93	-0.2007926
197	0xbf0488d6	-0.51771295
198	0x3d9dcfa8	0.07705623
199	0xbec75457	-0.38931534
200	0xbe12a514	-0.14320785
201	0x3d7c4276	0.06158682
202	0xbebdde33	-0.37083587
203	0xbe6a75f3	-0.22896557
204	0xbea39300	-0.3194809
205	0xbe7bf500	-0.24605179
206	0xbe5640b8	-0.20923126
207	0xbec35460	-0.3815031
208	0xbd2132c3	-0.03935505
209	0x3dbaae48	0.09115273
210	0x3e256dc6	0.16155156
211	0xbe30e467	-0.17274629
212	0x3eae8574	0.34086192
213	0x3e089575	0.13338263
214	0x3d0020cc	0.031281278
215	0xbe91d610	-0.2848363
216	0xbdffeff7	-0.124969415
217	0x3bc6cedd	0.0060671405
218	0x3ef0f69d	0.4706315
219	0xbd13578e	-0.03597217
220	0xbd55b1eb	-0.05217163
221	0xbe7d4780	-0.24734306
222	0x3cd72186	0.026261102
223	0x3d01a4d0	0.031651318
224	0xbe5b7b3b	-0.21433727
225	0xbdf7a9f4	-0.12092963
226	0x3ef25ec4	0.47337925
227	0x3e7233b5	0.23652537
228	0x3d68e674	0.056860402
229	0x3ef6ff35	0.48241583
230	0xbe262337	-0.16224371
231	0x3e4433e3	0.19160418
232	0x3ea50b0b	0.32234988
233	0x3e5dc8ba	0.21658602
234	0x3ee6a7ac	0.45049798
235	0x3e280ad6	0.16410384
236	0x3da4c914	0.08046165
237	0xbd77d01c	-0.060501203
238	0xbbb2c378	-0.0054554306
239	0x3ea70ca3	0.3262683
240	0x3d9b72e5	0.07590274
241	0xbe51d509	-0.20491423
242	0xbdae2886	-0.08503823
243	0xbe53df09	-0.2069055
244	0xbcbbe112	-0.02293447
245	0xbec7ddcd	-0.39036408
246	0xbd9ba4c4	-0.07599786
247	0x3e3b608b	0.18298547
248	0x3e1a7344	0.15083033
249	0x3e58cc44	0.21171671
250	0xbe2aa25d	-0.16663499
251	0xbe3833f0	-0.17988563
252	0xbe989fdd	-0.29809466
253	0xbce99ead	-0.028518045
254	0x3e3d203d	0.18469329
255	0xbebb39fc	-0.36567676

transformer_encoder.layers.0.linear2.bias f4 [17]
0	0x3e0a57bb	0.13510029
1	0x3e251ddd	0.16124673
2	0xbd541834	-0.051780894
3	0xbe21c727	-0.15798627
4	0x3d78f879	0.060783837
5	0xbcfaeec5	-0.030631432
6	0x3d92e6e5	0.07172946
7	0x3d9bd7e4	0.07609537
8	0x3cdf257d	0.027239555
9	0x3e5a36ba	0.21309939
10	0x3daa2110	0.083070874
11	0x3e0e3ae7	0.13889657
12	0xbe4c1cde	-0.19932887
13	0x3e424ebc	0.18975347
14	0xbdf0679a	-0.117385104
15	0xbd47dcaf	-0.048794445
16	0x3e0e4a33	0.13895492

transformer_encoder.layers.0.norm1.weight f4 [17]
0	0x3f69cddb	0.91329736
1	0x3f75da6f	0.9603643
2	0x3f7380f7	0.9511866
3	0x3f5b2691	0.8560572
4	0x3f637818	0.88855124
5	0x3f5e6e59	0.8688713
6	0x3f5e173a	0.8675419
7	0x3f78abdf	0.97137254
8	0x3f7547f3	0.9581291
9	0x3f66c101	0.9013825
10	0x3f762273	0.96146315
11	0x3f67e8b6	0.90589464
12	0x3f5ef56d	0.8709324
13	0x3f549c14	0.83050656
14	0x3f7fdccc	0.99946284
15	0x3f60f0d2	0.8786746
16	0x3f673510	0.9031534

transformer_encoder.layers.0.norm1.bias f4 [17]
0	0x3d0c714c	0.034287736
1	0x3ced1cb0	0.028944343
2	0xb621c604	-2.410613e-06
3	0x3d0bffca	0.034179486
4	0x3c983248	0.018578663
5	0xbd0479e6	-0.032342814
6	0xbd4ae12b	-0.049531143
7	0xbd4621bc	-0.048372015
8	0xbb55c59e	-0.003261901
9	0xbcb2aacb	-0.021809956
10	0xbcbb4289	-0.022858875
11	0x3d5296d1	0.05141336
12	0xbd901f1b	-0.07037183
13	0x3ca5ad26	0.020224165
14	0x3cb56618	0.022143409
15	0xbcb524bd	-0.022112245
16	0xbc61945e	-0.013768284

transformer_encoder.layers.0.norm2.weight f4 [17]
0	0x3fa5ab5b	1.2942919
1	0x3fa2dad2	1.2723029
2	0x3f977e36	1.1835392
3	0x3f9681b1	1.1758329
4	0x3f98a5ab	1.1925558
5	0x3f8f1a16	1.1179836
6	0x3f9b5079	1.2133933
7	0x3fab0e9c	1.3363833
8	0x3fa8b68b	1.3180708
9	0x3f8ecca9	1.1156207
10	0x3fa21edc	1.2665668
11	0x3f9b8082	1.2148592
12	0x3fab1add	1.3367573
13	0x3f9187a1	1.1369516
14	0x3fb86952	1.4407141
15	0x3fa0463d	1.2521435
16	0x3faaca5f	1.3343009

transformer_encoder.layers.0.norm2.bias f4 [17]
0	0xbe2dd428	-0.16975462
1	0xbd4323c4	-0.04764153
2	0x3cb4d17c	0.022072546
3	0xbe286e8f	-0.16448425
4	0xbb108e56	-0.0022057495
5	0xbd7b767f	-0.061392304
6	0xbc443ca3	-0.011977348
7	0x3e2d59e7	0.16928826
8	0x3de9fb7c	0.1142492
9	0xbd1c2f60	-0.038131118
10	0xbe3c1175	-0.18366034
11	0xbe26cecb	-0.16289823
12	0xbdf1dc3f	-0.11809587
13	0xbbe3b355	-0.0069488683
14	0xbe1cf3cb	-0.15327375
15	0x3e94ef59	0.29088858
16	0x3e986022	0.29760844

mlp.0.weight f4 [17, 17]
0	0xbce1b1bf	-0.027550576
1	0xbe660a45	-0.22464855
2	0xbeaa499a	-0.3325928
3	0x3d956fdd	0.07296727
4	0x3c704a15	0.0146661
5	0x3e4ac2ff	0.19800948
6	0xbe6db6ea	-0.23214307
7	0xbdd3a6f2	-0.10334577
8	0x3e894463	0.26809987
9	0x3eb2e2aa	0.34938556
10	0xbec098e2	-0.3761664
11	0xbeac9093	-0.3370405
12	0x3ea9563b	0.330736
13	0xbd47a89d	-0.048744787
14	0xbd8b8f42	-0.06814434
15	0x3dfbd86b	0.12297138
16	0x3e226a94	0.15860969
17	0xbb5ac616	-0.0033382229
18	0xbdce4c7a	-0.100731805
19	0xbdc022be	-0.093816265
20	0xbe3b99b5	-0.18320353
21	0xbcb696a8	-0.022288635
22	0xbb25d328	-0.002530286
23	0xbe6a596f	-0.22885679
24	0x3dd8ead8	0.10591668
25	0xbd9e4b5d	-0.07729218
26	0xbe4907a1	-0.19631816
27	0xbe111b19	-0.14170493
28	0x3d4408d3	0.047859978
29	0xbe0f2213	-0.13977842
30	0x3e7e367b	0.2482547
31	0x3e32a9ec	0.17447633
32	0xbd5e2bf0	-0.05424112
33	0x3e1361cc	0.14392775
34	0x3e46fc54	0.19432193
35	0x3ed24b1c	0.4107293
36	0x3e573d16	0.21019396
37	0x3e394adc	0.18094963
38	0xbe8cee55	-0.27525583
39	0xbd863560	-0.06553149
40	0x3dfa7d08	0.12230879
41	0xbdd6a343	-0.104803585
42	0xbf01a733	-0.5064575
43	0xbe8ff34c	-0.28115308
44	0x3e4c465d	0.19948716
45	0x3ea74e74	0.32677042
46	0xbe9f1bed	-0.31075993
47	0xbe3ee02c	-0.18640202
48	0xbd6f073f	-0.05835652
49	0x3da7513e	0.081697926
50	0x3e059269	0.13044132
51	0xbe6be806	-0.23037729
52	0xbe93e8a6	-0.28888434
53	0xbe52b773	-0.20577793
54	0xbd410d14	-0.047131613
55	0xbe3dbf98	-0.18530118
56	0xbc50e5e9	-0.012750127
57	0xbe1e3d44	-0.15453058
58	0x3ec21e41	0.37913707
59	0x3ee8aa9f	0.45442674
60	0x3d3a9bd6	0.045558773
61	0xbeaa941d	-0.33316126
62	0xbea164fe	-0.31522363
63	0x3ed9a431	0.4250808
64	0xbe32baf2	-0.17454126
65	0xbe90ba98	-0.2826736
66	0x3ea3a2de	0.31960195
67	0x3e888e64	0.26671135
68	0xbe8aaa13	-0.2708288
69	0xbe96fb98	-0.29488826
70	0x3dda39c7	0.106555514
71	0xbe98f26c	-0.29872453
72	0x3cc8ca67	0.024510575
73	0x3e5587dd	0.20852609
74	0xbb9e98e5	-0.004840004
75	0x3e88d8f6	0.26728028
76	0x3ed37ed3	0.41307697
77	0x3e453647	0.19258986
78	0xbe22123e	-0.15827271
79	0xbedb8010	-0.4287114
80	0xbd582a5a	-0.052774765
81	0x3d6642ff	0.056216236
82	0xbc5331ca	-0.012890289
83	0x3e26d44a	0.1629192
84	0x3ea85bc5	0.32882515
85	0x3d09b501	0.033619884
86	0xbe96587d	-0.29364386
87	0xbeb326a7	-0.34990427
88	0xbd8af027	-0.06784087
89	0x3e978716	0.2959525
90	0x3e96d399	0.2945831
91	0xbec7cc1f	-0.3902292
92	0xbde19e6b	-0.11016544
93	0x3ea3c995	0.31989732
94	0x3d725b37	0.05916902
95	0xbe83baae	-0.25728363
96	0xbe86aec5	-0.26305214
97	0xbd625f9a	-0.055266954
98	0x3e0141ca	0.12622753
99	0x3e87d1de	0.26527303
100	0xbd1c102d	-0.038101364
101	0x3bed0a72	0.007233911
102	0x3e8b7d06	0.27243823
103	0xbd38b462	-0.0450939
104	0xbd89085a	-0.06691046
105	0x3e81d3a0	0.2535677
106	0x3ea958c8	0.33075547
107	0x3e784c9c	0.24247974
108	0xbe1a25f4	-0.1505354
109	0xbeb75efa	-0.3581465
110	0x3e866db9	0.26255587
111	0xbe6b4753	-0.22976427
112	0xbe5ace73	-0.21367817
113	0xbdef0b7f	-0.116721146
114	0xbeb91b97	-0.36153862
115	0x3ea3926c	0.3194765
116	0x3e831ce2	0.25607973
117	0xbdb821cf	-0.089908235
118	0xbe05dc2d	-0.13072272
119	0xbeb5ee8b	-0.35533556
120	0xbe65ada7	-0.22429524
121	0xbe0a1724	-0.1348539
122	0xbe92e08c	-0.2868694
123	0x3e5c8659	0.21535625
124	0xbe0ca5ac	-0.13735074
125	0xbc5d730e	-0.013516201
126	0xbad39a2c	-0.0016143969
127	0x3e84aead	0.25914517
128	0x3d4b3826	0.049614094
129	0xbe313fc4	-0.17309481
130	0xbe13be19	-0.14427985
131	0x3e7c0143	0.24609856
132	0x3e06379f	0.13107155
133	0xbe9747f5	-0.29547086
134	0x3df6e9bd	0.12056301
135	0x3ebe4796	0.3716399
136	0xbdf87038	-0.12130779
137	0xbe3bf9ac	-0.18356961
138	0xbded4ec6	-0.115872905
139	0xbcfbaffe	-0.030723568
140	0xbc7f84d8	-0.015595637
141	0x3de5d368	0.11221963
142	0x3e04020d	0.12891407
143	0x3d36e46a	0.044651426
144	0x3e818459	0.25296286
145	0x3ecea63d	0.40361205
146	0xbe679e35	-0.22618945
147	0xbee0b13d	-0.43885222
148	0x3ebc9643	0.3683339
149	0xbcce3162	-0.025170032
150	0xbebb7593	-0.3661314
151	0x3e20d2fa	0.15705481
152	0x3ec66c6f	0.38754603
153	0xbe5d5c40	-0.21617222
154	0xbdc926fb	-0.09821888
155	0x3e0acb3a	0.13554087
156	0xbeaccd8b	-0.33750567
157	0x3de838b6	0.11338942
158	0xbbec0161	-0.007202313
159	0x3ea02875	0.31280866
160	0x3ebe6654	0.37187445
161	0x3d0c2c75	0.034222085
162	0x3d5f7ab5	0.054560382
163	0x3e29c624	0.16579491
164	0xbe16d670	-0.14730239
165	0xbe400b0e	-0.18754217
166	0x3e77d134	0.24200898
167	0xbe6448b1	-0.22293355
168	0x3e606013	0.2191165
169	0x3cc3452e	0.023836698
170	0x3e3771ea	0.17914549
171	0x3cf7fca8	0.030271843
172	0xbcb5f33d	-0.022210712
173	0x3d1c15dd	0.038106788
174	0xbe901e64	-0.28148186
175	0xbd9c640d	-0.07636271
176	0x3ce625a9	0.02809413
177	0xbd7ab1c4	-0.061204687
178	0xbe9fde64	-0.31224358
179	0xbdd74b8d	-0.10512457
180	0x3e5af029	0.21380676
181	0xbde97e2e	-0.1140102
182	0x3ccea05c	0.02522295
183	0x3dc4aff2	0.096038714
184	0xbd27d0c6	-0.040970586
185	0xbda7dd27	-0.08196478
186	0xbe1380f9	-0.14404668
187	0x3f41ee8e	0.7575463
188	0xbe58cae3	-0.21171145
189	0x3dc42a85	0.095784225
190	0x3ef371c9	0.4754775
191	0x3e263af6	0.1623343
192	0xbcd0f084	-0.025505312
193	0xbedd2f4e	-0.43200153
194	0xbf26c2ba	-0.6514088
195	0x3e8bf888	0.27338052
196	0x3e25a198	0.16174924
197	0x3de59323	0.11209705
198	0xbe13e5b0	-0.14443088
199	0xbef63ae0	-0.48091793
200	0x3eca58c5	0.3952085
201	0x3f33fb42	0.70305264
202	0xbe8ee732	-0.27910763
203	0xbec481c1	-0.38380244
204	0xbe86d9bc	-0.26337993
205	0x3ec53dc5	0.3852369
206	0x3edb6671	0.42851594
207	0xbda37ff4	-0.079833895
208	0xbec58a4d	-0.38582078
209	0xbea6849d	-0.3252305
210	0x3e893128	0.26795316
211	0x3e83b9bd	0.25727645
212	0xbeed39a3	-0.46333036
213	0xbe2cd9b8	-0.16879928
214	0x3e2c336c	0.16816491
215	0xbd759590	-0.059957087
216	0xbed317d2	-0.4122911
217	0xbe0f5beb	-0.13999908
218	0xbd616faf	-0.05503815
219	0x3ebd04ee	0.36917824
220	0x3ebb01d4	0.36524832
221	0x3e6dbbdf	0.23216198
222	0xbec038d5	-0.3754336
223	0xbe859ead	-0.26097623
224	0xbdca5b51	-0.098806985
225	0x3e747959	0.23874415
226	0x3e861682	0.26189047
227	0xbeae5560	-0.3404951
228	0xbe6190c2	-0.22027877
229	0x3eec877f	0.46197125
230	0xbda29b48	-0.07939774
231	0xbeaad073	-0.3336216
232	0xbe9c70b2	-0.3055473
233	0x3d35e7db	0.044410568
234	0x3e2f4582	0.17116359
235	0x3d411be4	0.04714574
236	0x3dc96a64	0.098347455
237	0xbe025682	-0.12728313
238	0xbe121c05	-0.14268501
239	0x3d839bd2	0.06426205
240	0x3e309d71	0.17247559
241	0x3e62a0af	0.22131608
242	0xbd588b27	-0.05286708
243	0xbd07c9d0	-0.033151448
244	0x3de85dc3	0.11346009
245	0x3c22137c	0.009892341
246	0x3c94c25b	0.018159082
247	0x3e3d8564	0.18507916
248	0xbd3305af	-0.043706592
249	0xbe006662	-0.12539056
250	0x3dba5076	0.09097378
251	0xbb8ca001	-0.004291535
252	0x3dbd16d5	0.092328705
253	0xbddbc948	-0.10731751
254	0xbe355a09	-0.17710127
255	0x3c8200b4	0.015869476

mlp.0.bias f4 [17]
0	0x3db10a30	0.08644521
1	0x3dc3a8b9	0.09553666
2	0xbda1d361	-0.079016455
3	0x3e4b9306	0.19880304
4	0x3d997e78	0.07494825
5	0x3d2a2adb	0.041544776
6	0xbe145828	-0.14486754
7	0x3ea05c31	0.31320336
8	0x3df472fa	0.119359925
9	0x3e585665	0.21126707
10	0x3e153b55	0.14573415
11	0xbd17c25c	-0.03705059
12	0x3e83eb6c	0.2576555
13	0x3e62d45d	0.22151323
14	0xbe47a660	-0.19497061
15	0x3d9b5452	0.07584442
16	0x3d21776f	0.03942054

mlp.2.weight f4 [4, 17]
0	0xbcd9d0f9	-0.026588904
1	0x3e286f38	0.16448677
2	0xbe4bdbd2	-0.19908074
3	0xbe4ad759	-0.19808711
4	0xbe2a2d43	-0.16618828
5	0x3ea05f1a	0.31322557
6	0x3e844d17	0.25840065
7	0xbd24d527	-0.04024234
8	0xbe40c0f9	-0.18823613
9	0xbe72466c	-0.23659676
10	0xbe382e31	-0.1798637
11	0x3eab1649	0.3341544
12	0xbded93c6	-0.11600451
13	0x3e4f4ac7	0.20243369
14	0x3e0cd0b0	0.13751483
15	0x3d5398b5	0.051659305
16	0xbec85525	-0.3912746
17	0xbe051337	-0.12995611
18	0xbda12712	-0.0786878
19	0x3ec54749	0.3853095
20	0xbec3c08c	-0.3823284
21	0xbed80cb8	-0.42197204
22	0xbe7bdd46	-0.24596128
23	0xbd27b62e	-0.040945224
24	0xbe6802e8	-0.22657359
25	0xbed3182d	-0.41229382
26	0xbd97ccc3	-0.07412102
27	0x3e727bdd	0.23680063
28	0xbf3a8fe4	-0.7287581
29	0x3eb13f9a	0.34618837
30	0x3c6a331e	0.014294414
31	0xbcc66a9f	-0.024220763
32	0xbdd2d24f	-0.102940194
33	0x3e8b819a	0.27247316
34	0x3e7a05a3	0.24416213
35	0xbd4f04ea	-0.050541796
36	0xbe09b51c	-0.13447994
37	0x3e7ffc12	0.24998501
38	0x3dd2290e	0.10261737
39	0x3e49f2ea	0.1972157
40	0xbd9d62dc	-0.076848716
41	0x3ded1d62	0.1157787
42	0x3e125e04	0.14293677
43	0xbe962042	-0.29321486
44	0x3e3cdd41	0.18443777
45	0xbeecf2a5	-0.46278873
46	0xbeb3761e	-0.35051054
47	0x3e20f672	0.15719011
48	0xbb882351	-0.0041546007
49	0x3e13f8e7	0.14450417
50	0xbec02301	-0.37526706
51	0xbef028a5	-0.4690601
52	0x3e4b6324	0.19862038
53	0xbf1018a5	-0.56287605
54	0x3eaa9a00	0.33320618
55	0x3ea8b778	0.32952476
56	0xbea85fc3	-0.3288556
57	0xbe8f9aee	-0.2804789
58	0x3ea9a4ba	0.3313349
59	0xbd8ffd94	-0.07030788
60	0x3e81a2c8	0.25319505
61	0xbe4e47d5	-0.20144589
62	0xbf10bd39	-0.5653873
63	0x3d787ae1	0.06066406
64	0xbefa6ec4	-0.48912632
65	0x3ddbaae6	0.10725956
66	0xbf2a5f08	-0.66551256
67	0x3e25abbf	0.16178797

mlp.2.bias f4 [4]
0	0xbe6e587c	-0.23275942
1	0x3e7b2708	0.24526608
2	0x3dec0309	0.115240164
3	0x3c616283	0.013756397
