experiments/freqshape/models/Scomb_transformer_split=1.pt (torch, 15279 bytes, 16 tensors)

transformer_encoder.layers.0.self_attn.in_proj_weight f4 [51, 17]
00000000: 32f4 afbd 6d2e 4e3e 65bb 8abe 112f 50be
00000010: 3846 5bbc af88 5dbe 28ea dcbc a9d9 4dbe
00000020: 438b a13d d852 0b3e 91e2 cd3d 61f9 a9be
00000030: 64ca 333e 7876 783e 4878 22be 8485 fbbe
00000040: 20d4 0ebf 10b2 14be 95f7 2b3d 70fe 913c
00000050: d209 d23d 9f93 f6bd 1e1a 98be 9364 51be
00000060: 9710 95be ce64 9e3d 2a85 113d b10a febd
00000070: 38f1 8d3e c03e 91be b20c 0ebf 4197 893d
00000080: d94f 703d 1d87 bfbd 2446 95bd c239 71bd
00000090: 4f0e cbbd 623f 853d 2cc5 49be 9ee3 733e
000000a0: 0a6d b23e 0b78 ae3d 1ee1 803e 1eac 25bd
000000b0: 608f 243d bcfa 113d cc0b f73d 485d 3bbe
000000c0: 80ea 343e ebde 073e 7426 94bd cc99 b7bd
000000d0: e52c f4bd 7d4e 123e 987f a2be 25ca 803c
000000e0: 6afa 81be bb5e 66be 1c9e afbc 9f1a afbc
000000f0: b2c0 e73d 8e1b bbbd 54ab 9bbe 6134 d93d
00000100: 345f 0b3f 76b5 8dbe db90 8dbd 141e 04be
00000110: 3181 54be 793b 53be 8889 93bd e5ea 54be
00000120: cbe9 c63d 1f28 38be ea1a a4be 9931 f1bd
00000130: 66bf 52bd 743a 023d 757e 883e ed1a 52be
00000140: d04e ca3b 3fb4 31be f02c 2dbe 4940 99be
00000150: 2d2d a3be 68e7 333e e734 623d 4e38 393e
00000160: d344 96bd c963 25bd 2a39 593e d074 813e
00000170: b5af 523e d033 603d 985d eb3d 2c6c 95bd
00000180: bd61 233c 836e aebd 708e ae3e e732 143e
00000190: 40fa 623c 25bb bdbd b7b1 75bd 7f95 ffbc
000001a0: 0044 013e 7e4f 5e3e 211a e4be 76b6 ab3e
000001b0: 7a68 89bd 0e00 c43e 9a22 a03e d1e6 31be
000001c0: ce39 2cbd edb6 c03d bda5 393e f39b 2dbe
000001d0: 452f 923e 084b 273e 5853 1d3e e868 ba3d
000001e0: 6b4d c0bd 3283 06be 1e7d c7ba 5ccb ae3e
000001f0: ff77 67bc b3ba 53be 6283 b4be 2c58 3f3e
00000200: 9da8 b13e ef8a c03e 749d 66bd 1fb8 a33e
00000210: 0067 7a3e d2c9 ef3c 1100 95bd a666 1f3d
00000220: bd8a cb3d bb3d 893e f17c 863e 6435 c93d
00000230: 9fe6 e5be 4d47 bdbd 9df0 b33e 35e6 b83d
00000240: be71 783b bbff fdbd 903b 5ebe fa80 d73e
00000250: 7c1f f4bc 50e0 19bf 15db 573e b064 b93d
00000260: 4911 f93d 7154 b4bd 37df 913e d2a6 2f3d
00000270: a163 4e3d 1718 ffbc 52e5 083e ab84 28bb
00000280: 4ee3 343e f142 e63b 1314 87bb 3dca 02bf
00000290: 3fef c63d 2bb3 afbd 1051 debe 8867 cd3e
000002a0: 841d d33e 97f9 0e3f a710 c73d 539f 94be
000002b0: 93ea 2dbd 7dc8 8cbe 07c5 40be 877a c8be
000002c0: 5a0f d6bd 0c5b 93bd 374b 3b3e d844 2a3e
000002d0: 7a68 1e3d c17f 1abe ba0c 413e 76b3 a5bc
000002e0: ffc9 9fbd 8265 d3be 6a33 e7be 426a 9ebe
000002f0: 17b8 b73d 211d 873d 7d94 9ebe 3982 f8be
00000300: 8116 e63c cdf3 53be 14ac 9ebe 234d 693c
00000310: 82dc bfbe 798c 79be e5c4 c13e ab6d b23d
00000320: 09c5 a1be 4702 b1be 019a b2be 7c2b dabd
00000330: b4a1 823d 9a40 e93d 2214 2b3d b170 823d
00000340: 67b1 cdbe f5e6 69be f22e 9d3c 9a36 223e
00000350: 6431 92be 345c 8dbe f1a9 57be 4cd2 103f
00000360: 2f1e 24be 2a4b 4fbf b80e 86be 7674 72be
00000370: 52e6 32be ea29 dbbc 124e ddbd 659c 64be
00000380: beea 163d a831 5d3e 2f3d 063e 3a81 81be
00000390: 7965 aebe 89be dd3a 4d49 b53e e84d 4f3e
000003a0: 344d 9bbd 1a3f 673e e270 f93e bf93 333c
000003b0: 0047 81be 5487 163d e009 f3bd 6693 1f3e
000003c0: b11e 42be 0635 8d3e e707 81bc 0ff2 bd3c
000003d0: d271 c7bc 5287 323e cacc 373e 7ca6 aa3d
000003e0: 1d7e 9cbd f958 a43e 8b2b ee3d 46cf ea3d
000003f0: 1c35 2abe 2248 28be dd66 cabe a6fb e43d
-0.085914984 0.20134898 -0.27096096 -0.20330454 -0.013383441 -0.21634172 -0.026967123 -0.20102562
0.0788789 0.13605821 0.1005298 -0.33198074 0.17557675 0.24263942 -0.15866196 -0.49125302
-0.5579243 -0.1452105 0.04198416 0.01782152 0.10255779 -0.12039875 -0.29707426 -0.20448522
-0.2911422 0.07734071 0.035527386 -0.12404383 0.27723098 -0.28368187 -0.5548812 0.067183025
0.0586699 -0.09351943 -0.07288769 -0.058892973 -0.099148385 0.0650623 -0.19704121 0.23817298
0.34848815 0.0851899 0.2517175 -0.040447347 0.040175796 0.03563951 0.12062797 -0.18297303
0.1766758 0.1326863 -0.07233897 -0.08964881 -0.119226255 0.14287753 -0.3173797 0.01572139
-0.25386363 -0.22497074 -0.021437697 -0.021374999 0.113160506 -0.09136115 -0.3040415 0.106056936
0.54442143 -0.27677506 -0.069123946 -0.12902099 -0.20752408 -0.20628156 -0.072039664 -0.2079273
0.09712561 -0.17984055 -0.32051784 -0.11777038 -0.051452063 0.031794026 0.2665898 -0.20518084
0.006173946 -0.17353915 -0.16911674 -0.29931858 -0.31870404 0.17568743 0.055226233 0.18087885
-0.07337346 -0.040378366 0.21213213 0.25284433 0.2057484 0.054736912 0.11492461 -0.07296023
0.009972033 -0.08517172 0.34093046 0.14472543 0.01385361 -0.092642106 -0.059983935 -0.031199215
0.12623596 0.21710011 -0.44551185 0.33537644 -0.067093804 0.38281292 0.312764 -0.17373206
-0.042047314 0.0940989 0.1812963 -0.16954021 0.2855169 0.16337216 0.15363824 0.091020405
-0.09389766 -0.13135985 -0.0015219783 0.34139526 -0.01412773 -0.20676689 -0.35256487 0.18685979
0.34698954 0.37605998 -0.056302503 0.3197641 0.24453354 0.02927104 -0.07275403 0.038916253
0.099385716 0.2680491 0.26267198 0.098246366 -0.44902512 -0.09242115 0.3514451 0.090282835
0.0037909593 -0.12402292 -0.21702409 0.4209059 -0.02980017 -0.601079 0.21079667 0.09052408
0.121615 -0.088051684 0.28490612 0.0428837 0.050387982 -0.031139417 0.13368729 -0.0025713842
0.17664835 0.007027023 -0.004122266 -0.5108984 0.09713601 -0.085790955 -0.4342122 0.4011805
0.41233456 0.55849594 0.09719973 -0.29027805 -0.042460036 -0.2749671 -0.1882516 -0.3915598
-0.10452147 -0.071951 0.18290411 0.16627824 0.038673855 -0.15087797 0.18852511 -0.020227175
-0.078021996 -0.41288382 -0.45156413 -0.30940443 0.08970659 0.06597353 -0.30972663 -0.48536852
0.028086903 -0.20698471 -0.3099066 0.014239582 -0.37472922 -0.24369992 0.3784553 0.08712324
-0.31595638 -0.3457205 -0.3488312 -0.10652825 0.06378499 0.11389275 0.041767247 0.063691504
-0.4017441 -0.2284201 0.019187424 0.15841141 -0.28553307 -0.27609408 -0.21060921 0.5657089
-0.16027139 -0.80974066 -0.26183105 -0.23677239 -0.17470673 -0.026753385 -0.10805906 -0.22325285
0.03684496 0.21600974 0.13109277 -0.25293905 -0.34061792 0.0016917746 0.35407487 0.20244563
-0.07583085 0.22582665 0.48718935 0.010960518 -0.2524948 0.036750153 -0.11867118 0.15583572
-0.1895702 0.27579516 -0.015750838 0.023186712 -0.024346266 0.17434433 0.17949215 0.083325356
-0.07641242 0.3209913 0.11629399 0.114653155 -0.16621822 -0.16433766 -0.39531603 0.11180811

transformer_encoder.layers.0.self_attn.in_proj_bias f4 [51]
00000000: 86c1 84be 69ee e9bd c66f e63d fdf6 10be
00000010: 6cd6 11be 808e f23d 1a13 173e eae3 e2bd
00000020: 1a91 123e 8653 3a3e 5992 5fbe 52f6 20be
00000030: 1060 6ebd f9d6 fdbd 2ec8 773d 042a d2bc
00000040: 5b5d efbd bdc8 6a3b b8c7 a43b 2fa1 56bc
00000050: e84f 56bc 2d02 353d d53a 343c fa39 d2bb
00000060: 6fee 9fbc 8a98 6cbc f61b 52ba c422 4cbc
00000070: 07bd a2bc 79b7 863b cd70 c2bc 0686 fd3b
00000080: 6fc0 0a3a 7919 953c 5abc 643d f1ba 833c
00000090: 8b6e 1fbc 9082 a0bc 1e20 d6bb 71c9 5bbd
000000a0: 1c4e 16bc 904f a23b 0084 773c a091 05bc
000000b0: 20a2 a43b d7dc a3bc fd80 21bd 1454 23bd
000000c0: ad31 0e3d d8a1 a9bc 5c4c 0bbd
-0.25928897 -0.11422426 0.11251788 -0.14156719 -0.14241952 0.11843586 0.1475338 -0.110786274
0.14313164 0.18195924 -0.21833171 -0.15718964 -0.05819708 -0.123945184 0.06049364 -0.0256548
-0.11687728 0.0035825216 0.005028691 -0.013099953 -0.013080575 0.044191528 0.011000355 -0.0064156028
-0.019522874 -0.014440665 -0.0008015031 -0.012459461 -0.019865526 0.004111227 -0.023735428 0.007736924
0.0005292957 0.018200623 0.05584369 0.016080352 -0.009730945 -0.019593507 -0.0065345904 -0.053658906
-0.009173896 0.0049533322 0.015107155 -0.0081523955 0.0050242096 -0.020002766 -0.039429653 -0.039875105
0.034715343 -0.020707056 -0.03400837

transformer_encoder.layers.0.self_attn.out_proj.weight f4 [17, 17]
00000000: 98b0 b23c 46ac 97bb 1445 2dbe d714 c5bd
00000010: 251a 2a3e 774c b8bc 72f1 09be bb0d e53c
00000020: a862 9d3d 83c2 d7bd f765 7c3e b964 32bd
00000030: de39 5a3d 0287 70be 1397 00be 5cef 0cbe
00000040: 0e6d 3ebe 552e cd3d 5a23 be3b 790a 983d
00000050: f0b7 72be 8d64 3ebe 4a88 15be 3a39 c5bc
00000060: 52fa 863d 036b b63d c9d0 6cbe 1506 803d
00000070: daaf 0cbe d483 01be d77e 96bd c732 3fba
00000080: b725 cbbd 250e 473b 02bc 0b3d 0c32 9c3d
00000090: c593 6c3e cfb7 42be fa34 abbd bf56 febd
000000a0: 8b56 d6bd 68d2 b5bc 1faf cb3c 9c03 513d
000000b0: 376e 6c3e f873 003e 8163 23bd e3c8 9abd
000000c0: 0f8c b33d 8ef4 7cbe a13e 29be 5ac2 61be
000000d0: 7452 8dbd 60a3 abbd 96a4 363e d7c5 e4bb
000000e0: c2bf f23d b1a3 943d 603c ecbc 1473 b73d
000000f0: 594f 6f3e 3987 6cbe e72d e73c 4a95 7c3d
00000100: fb7a 403e 63b9 0abe 8515 333e edf7 f83c
00000110: a7d1 ecbc b171 96bc 4104 2fbe 1226 933d
00000120: 0a2c 5ebc f531 5fbc 9019 e43d 25af 003e
00000130: 499e 16bd 2ca9 68bc 6a97 dd3d 970f 5e3d
00000140: 64d8 46be 38b0 62bd 6102 a4bd 4091 5bbd
00000150: 2562 8fbc 1e39 de3d c113 ee3d dcd5 0b3e
00000160: a899 283d 9016 c93d 9e0e eb3d c0f9 2fbe
00000170: 1993 4dbd b1de 62be 974d 523e 9ded 883c
00000180: f9dd 41be c1e6 533d 5fea bbbd ad38 743d
00000190: 2ef2 893c e3ec 013e d33c 17bc ad06 b23d
000001a0: 3bc7 573e bbba 14be 5bf6 643d a646 c9bd
000001b0: 6d17 08be 95c0 053c be7d 4cbc e924 20be
000001c0: 32f2 1f3e 21b9 ad3c 7fb7 ac3d ec57 873d
000001d0: 7e01 c6bb 6fc5 ddbd 7ebb 023e 2ed7 cabc
000001e0: 807b 47bd dd78 33bd 5b16 24be 1bfc c0bd
000001f0: c2ca 8f3d 43d3 65bd bda2 ce3d eff0 0fbe
00000200: 195c 253d 969b a13d 180b cdbb afa9 533d
00000210: cf78 b93c fe48 ce3c 42ea a1bd 87ee 72bd
00000220: 35e4 9abd 66aa 953d 641f 1cbd 5791 bd3d
00000230: 58d7 61bd ece7 bd3d 91db 92bb 0934 06bc
00000240: 0400 3d3e dc16 35be 76c0 00bd e6a1 05be
00000250: 5118 b2bd b7b8 313e 679f 2bbe cd8f 303e
00000260: 89d4 09be 5285 543b 1bef 55bb ae65 2bbe
00000270: 71e0 3bbd 3f63 3ebe 33af f4bc 4658 753e
00000280: a24d c1ba 29aa bcbd d721 893e 182f 88be
00000290: fd42 f03c 121b 43bc fb6f 9fbb 50bd f33d
000002a0: f292 90bd 6f4f 073d 986b 11be ba95 f23c
000002b0: e28c 883d 60d1 a7bd 6c08 bd3d 60e8 8d3c
000002c0: d133 c4bc 5214 ccbc fc49 67be 5ef0 7a3e
000002d0: 23a7 c0bd 7c4b bc3c 20f5 79bc 19d4 70bd
000002e0: a321 843d 2ac6 2c3e 409c c6bc f14f 69be
000002f0: 5ec6 813e b4f5 72bd 27a3 df3d 34ee 8b3d
00000300: c9e7 10be ee14 4c3e 2fd9 6c3d a3fb 363d
00000310: 58ec 303e 9ece 2cbd 4835 fcbd da94 2cbe
00000320: eacd 95bd adcd 7d3b 8021 0abc b299 9d3c
00000330: a2bb 1f3e 636a 56be 70fd 63bd cb74 b03b
00000340: 058d b13c 3667 233e dec9 0abe 0a93 853c
00000350: 77fb 483e d438 b43d 524f 3d3e 4701 91bc
00000360: 4bc1 d63d a232 69be 5561 563d 7e2d 29be
00000370: be5d 44be 195c 923d ee3c b13d 13c7 7bbd
00000380: 0aa4 c7bb f083 a5bd 4adc ff3a 4b6a 6ebe
00000390: 6335 d0bd fab1 813d 954f 82be 568b a03c
000003a0: 15fc 99bc c85f e0bd 8538 82be 8634 e43c
000003b0: aa21 c03b 8360 743d 89b6 0abe f271 9a3d
000003c0: bb1a 503c 6d5a fabd 6d51 c03d d80e cfbc
000003d0: e242 f73d 3788 d1bd 8613 0bbe cbbe 573e
000003e0: 2f7a 17be 7a2a ae3d a926 68bd 643b 8abb
000003f0: 52bd 653d 03da d63d ce67 f5bc e0ea ce3c
0.021812722 -0.004628691 -0.16920882 -0.096231155 0.16611536 -0.022497399 -0.1347101 0.027960649
0.07684833 -0.10535147 0.24648272 -0.043553088 0.053277843 -0.23489001 -0.1255763 -0.13763183
-0.18596289 0.10018603 0.005802554 0.074238725 -0.23702979 -0.18593045 -0.14602771 -0.02407514
0.065907136 0.089071296 -0.2312652 0.0625116 -0.13738957 -0.12647945 -0.073484115 -0.0007293638
-0.09919303 0.003037342 0.034114845 0.07626733 0.23103245 -0.1901543 -0.08359714 -0.12418889
-0.104657255 -0.022195056 0.024863778 0.051028833 0.23088919 0.12544239 -0.039889816 -0.07557847
0.087669484 -0.24702665 -0.16527797 -0.22046795 -0.06900492 -0.08380771 0.17836222 -0.006981592
0.11852981 0.07257784 -0.028837383 0.08957496 0.23370112 -0.23098458 0.02822013 0.06166581
0.18796913 -0.13547282 0.17488678 0.030391658 -0.028908564 -0.01836476 -0.17091466 0.07184996
-0.013560304 -0.0136227505 0.11137688 0.12566812 -0.036772046 -0.01420049 0.108198956 0.054214086
-0.19418484 -0.055343837 -0.08008266 -0.053605318 -0.017502854 0.10850738 0.116248615 0.136558
0.041162163 0.098187566 0.114773974 -0.17185116 -0.05018911 -0.22155263 0.2053741 0.016714865
-0.18932332 0.051733736 -0.09175562 0.059624363 0.016839113 0.12688021 -0.00923081 0.086926796
0.21072094 -0.14524357 0.055899005 -0.09827928 -0.13290186 0.008163591 -0.012481151 -0.1563908
0.15619734 0.02120644 0.084334366 0.06608567 -0.0060426584 -0.10828673 0.12766835 -0.024760809
-0.048701763 -0.043816436 -0.16024153 -0.09423085 0.07021095 -0.056109678 0.100896336 -0.14056753
0.040371034 0.07891004 -0.006257426 0.051675495 0.022640614 0.02518129 -0.07906009 -0.05930951
-0.07563058 0.073078915 -0.038115874 0.09256237 -0.05513701 0.09272751 -0.0044817408 -0.008191117
0.18457037 -0.17684501 -0.031433545 -0.1305004 -0.08696044 0.1735562 -0.16760026 0.17242356
-0.13459982 0.0032428098 -0.0032643739 -0.16738006 -0.04586834 -0.18592547 -0.029868698 0.23959455
-0.0014747868 -0.09212143 0.2678363 -0.2659843 0.029328818 -0.0119083095 -0.004865644 0.11901343
-0.070592776 0.03303474 -0.142012 0.02961241 0.06667496 -0.08194232 0.09230122 0.01732272
-0.02395049 -0.024912033 -0.22586817 0.24505755 -0.09406879 0.022985213 -0.015256196 -0.058796022
0.06451728 0.16872469 -0.024244428 -0.22784401 0.25346655 -0.059316352 0.10919791 0.06832543
-0.14150919 0.19929859 0.05782431 0.044673573 0.17277658 -0.042189233 -0.1231485 -0.16853657
-0.073146656 0.0038727329 -0.008430839 0.019238327 0.1559892 -0.20939021 -0.05566162 0.0053850166
0.021673689 0.1595734 -0.13553569 0.016305465 0.19627176 0.087999016 0.1848729 -0.017700804
0.104860865 -0.22773221 0.052338917 -0.1652126 -0.19176385 0.071464725 0.086541995 -0.06146915
-0.006092553 -0.08081806 0.0019520607 -0.23282735 -0.10166433 0.063327745 -0.2545134 0.01959769
-0.01879696 -0.10955769 -0.25433746 0.027857076 0.005863388 0.059662353 -0.13546194 0.075412646
0.012701686 -0.122242786 0.09390531 -0.025275633 0.12073304 -0.10231059 -0.13581666 0.21068875
-0.14792703 0.085041955 -0.056677494 -0.0042185057 0.056088753 0.10490801 -0.029956724 0.025258482

transformer_encoder.layers.0.self_attn.out_proj.bias f4 [17]
00000000: 88c9 493d c975 8b3d 22ef 993b 997c b7bb
00000010: c513 4dbd 35b4 c03c c7e8 a1bc 4175 393c
00000020: fd1e a5bc 6481 1bbd aae6 2fbd d076 0abd
00000030: c5bf c2bc 2a24 da3c 7b35 1b3d 28a9 8fbc
00000040: 9bc5 7c3c
0.04926446 0.06809575 0.0046976963 -0.00559957 -0.05006768 0.02352343 -0.019764317 0.011319459
-0.020156378 -0.037965193 -0.042944588 -0.033804715 -0.023773083 0.026628572 0.0378928 -0.017536715
0.015427972

transformer_encoder.layers.0.linear1.weight f4 [16, 17]
00000000: 5993 093e 9de4 4a3e 5250 413d 131e 83be
00000010: c925 7f3d f46b 20be 29a9 353e 3d94 5d3e
00000020: f14c d3bd 3505 cabe 6f1c e2bd 5251 9bbe
00000030: d2a4 94bc c055 25be fbfb 89be 3210 6b3e
00000040: 7f92 a9bd ccd0 54be f893 b5be af92 45be
00000050: 6aa4 113e 70d2 b93d 40ef 14bd bf5e 82be
00000060: 1c27 12be f740 c33c d606 073f 78a6 6e3e
00000070: 53af d03e 16d7 9b3c ddc8 0dbb a453 2f3d
00000080: 8b05 e0be 513a a83d 24b6 3b3e dbdc 7d3d
00000090: 6d86 393e 55b6 25bf ac37 8aba 1488 2fbe
000000a0: e242 a33d 49e4 89bc d04b d0bd 4bea e0bd
000000b0: 4a9a 29be e91f 9abd 2fce af3e 42b9 943d
000000c0: ea65 9abe fb66 643c cddf 43bd de94 7cbe
000000d0: 34c0 82be a5e2 18bd cd14 5b3e 3d92 2cbe
000000e0: 86cc 4c3b 2630 283d dfc7 e0bc 6e1c 02be
000000f0: 929e be3c b5e2 723e 2a63 393e 039b 6a3c
00000100: 5b65 79be ab79 033e 58b7 59be f971 0a3d
00000110: b687 bcbc c4c0 b33d ab28 853c 8c7d fbbd
00000120: d584 28be 9f34 e23d 1143 2e3e ad56 12be
00000130: e34b 413e f25b 723d beef 563e 8964 61be
00000140: 2d25 13be 91a7 d4bd 46c5 d0bc b373 573e
00000150: 563b 20be 6ed7 0ebe 8acd 87be b1de 3c3d
00000160: 0320 a2bd a0e3 aebc 785f 8f3d 4425 d4bd
00000170: 03e9 ba3c 68be 193e b2bc e43d e29f 133e
00000180: ec08 cf3e f1a0 9e3d e09e d53d a601 5b3e
00000190: 5216 b9be 14c4 3f3e 5e76 8d3d 4b3a 1c3e
000001a0: 7288 d33e b166 dabe 1f69 df3c db14 da3c
000001b0: f355 193d e0e6 3abe dd4d a63d aa54 033c
000001c0: 0be2 a3bc 771d 27be 5568 d03e 7f09 a1bb
000001d0: f138 6bbe e710 1d3e a234 703b bdf5 063e
000001e0: 4f5c 68bd fe12 bb3e 5854 ffbe c675 0dbe
000001f0: 6da5 e73d 8b70 98bd 1411 9b3d 149e bf39
00000200: a134 0c3e dffa 93be 3c72 9bbd 9415 be3e
00000210: c2bd edbc bacc 4cbe ccba 963d adc9 ebbd
00000220: b6e3 82be 5d57 b9be c975 8c3d cae3 6d3e
00000230: 7ed3 b63d cb78 bfbd a53a bfbd a113 12bd
00000240: f541 56bd 82fb 773e 25e3 513e efc8 bb3e
00000250: f114 c1bd 014a 6d3d 08f3 83bd 723c 8dbe
00000260: 9e9f bd3d 9f1b 4f3e 9386 5d3e a61e 8c3e
00000270: 120b 29bf b0a5 b0bd d96b 93be f201 de3d
00000280: 69dd c9bd c367 a3bd bef1 1b39 bc2f 9abe
00000290: 6c85 12bd 86ac bd3e 4bf8 443e 6953 8bbd
000002a0: 7f02 333e 9fb9 37be d851 88bc 1f3d f03d
000002b0: d291 7f3c 91fd 84be 98b7 e23c c3e3 033e
000002c0: 56e1 aabd f382 2ebe bfe1 2cbe 0150 18be
000002d0: c6db 03be da27 233e 701d 54bd 9998 90bd
000002e0: 851f ae3d 0be6 833c 7da1 243e 233e 0cbc
000002f0: d37d e1bd 45e7 4bbe 20c3 16be aba3 d83d
00000300: a3c3 213e c53a f4bd 9757 c23d 54ee 9dbd
00000310: 8337 073d 4554 c3bd 7bc6 373c 68a3 5dbe
00000320: 07c2 863c 2248 b03d 0a67 e8bd 8dba 16be
00000330: 53be 06bd 67d1 13bd 7afd 14be fd09 0dbe
00000340: 1cf0 fa3d 2455 03be 5b4e 37be 5762 4bbe
00000350: 8a34 153e 3bcb fb3d 837c 2cbe 79b4 b639
00000360: e676 073e 1d3d 0bbe a900 e9bd 1962 01be
00000370: 63ea 6cbd 4abb c8bd 84f7 18be 0374 493e
00000380: e74e cabd 630a a53d bd36 48be 7ab8 29be
00000390: 9a91 e33d 9ee4 4cbe 2f30 9a3d c095 cdbc
000003a0: dfeb b5bd b383 47bd c36c 12be 2abc 34be
000003b0: 8387 38be f49e 9fbd 8243 abbd 255e 49bd
000003c0: 0113 4ebd 261f 9fbd f38d af3d ec40 9abc
000003d0: a66e 08be 4ba2 a43d ad07 d5bc dbb7 31be
000003e0: 271f 693c 6b25 3b3e 46dc cd3d 9d0d a23c
000003f0: 6f4f 1cbd a6d7 1b3e 603f 6f3d 1f1b 73bd
0.13435115 0.19813772 0.04719574 -0.25608882 0.062291894 -0.15666181 0.1774031 0.2163858
-0.1031741 -0.39457098 -0.110405795 -0.3033548 -0.018144999 -0.16145992 -0.26950058 0.22955397
-0.08279895 -0.20782775 -0.35464454 -0.19294237 0.14222875 0.09073341 -0.03636098 -0.2546291
-0.14272732 0.023834689 0.52744806 0.2330569 0.40758762 0.01902346 -0.0021634616 0.042804375
-0.4375423 0.08214248 0.183312 0.061978202 0.18117686 -0.6473134 -0.0010545156 -0.17141753
0.07971741 -0.016832488 -0.1017071 -0.10982188 -0.16562763 -0.07525618 0.34336993 0.072618976
-0.3015588 0.013940568 -0.047820855 -0.24666163 -0.25537264 -0.03732552 0.21394654 -0.1685266
0.0031249835 0.041061543 -0.027439056 -0.12706158 0.023268972 0.23719294 0.18104234 0.014319184
-0.2435507 0.12839381 -0.21261346 0.0338001 -0.02301393 0.087770015 0.016254744 -0.122798055
-0.16456921 0.11045193 0.17017771 -0.14290877 0.18876605 0.059169717 0.20989892 -0.22011007
-0.1436965 -0.10383523 -0.025484692 0.2104023 -0.15647635 -0.13949367 -0.26524 0.046110813
-0.07916262 -0.021348774 0.07000631 -0.1035867 0.022816187 0.1501404 0.11168803 0.14416459
0.40436494 0.07745541 0.104306936 0.21387348 -0.36149842 0.18727142 0.069073424 0.15256612
0.41315037 -0.42656472 0.027271805 0.026621273 0.037435483 -0.18252134 0.0812032 0.008015791
-0.020005247 -0.16319834 0.407046 -0.004914462 -0.2297094 0.15338479 0.0036652465 0.13179679
-0.056728657 0.36537927 -0.49869037 -0.13814458 0.11310849 -0.07443341 0.07571617 0.00036548136
0.13691951 -0.28902337 -0.07590148 0.37125838 -0.029021148 -0.19999972 0.073598474 -0.11513076
-0.25564355 -0.36199465 0.06858403 0.23231426 0.08927058 -0.09349211 -0.093373574 -0.03566325
-0.052308995 0.24217036 0.20496805 0.36676738 -0.094278224 0.057931904 -0.06442839 -0.2758518
0.0925896 0.2022538 0.21633367 0.27367133 -0.66032517 -0.086253524 -0.2879322 0.10840215
-0.09856684 -0.07978775 0.00014872008 -0.30114543 -0.035771772 0.37045687 0.19235341 -0.068030186
0.17481421 -0.17941903 -0.016640589 0.11730408 0.015598731 -0.25974706 0.027675435 0.12879853
-0.08343761 -0.1704214 -0.1688299 -0.14874269 -0.12876806 0.15933171 -0.051785886 -0.07060356
0.085021056 0.016100904 0.16077228 -0.008559736 -0.11010327 -0.19912441 -0.14722872 0.10578092
0.15797286 -0.11925272 0.09489363 -0.07711473 0.033011924 -0.095375575 0.011216755 -0.21644366
0.016449941 0.08607508 -0.11347778 -0.14719601 -0.03289635 -0.036088374 -0.14549819 -0.13773341
0.122528285 -0.12825447 -0.17900984 -0.19861732 0.14570823 0.122946225 -0.16844372 0.00034848208
0.1322895 -0.13597532 -0.11377079 -0.12635078 -0.057840716 -0.098013476 -0.1493817 0.19673161
-0.09878331 0.08058622 -0.19552131 -0.16574278 0.11111756 -0.20009086 0.075287215 -0.02509582
-0.088828795 -0.048709583 -0.14299302 -0.17649904 -0.18020444 -0.0779399 -0.083624855 -0.04916205
-0.050311092 -0.07769613 0.085719965 -0.018829785 -0.13323459 0.080387674 -0.026004637 -0.17355292
0.014228619 0.18275993 0.100517794 0.019781882 -0.03816169 0.15218982 0.05841005 -0.059352037

transformer_encoder.layers.0.linear1.bias f4 [16]
00000000: d7da 803c 5c77 8cbd 6651 b4bd 5782 f03c
00000010: 45d6 42be 77e6 ff3d afb7 d23d 0802 1c3e
00000020: 8424 9fbd 7719 fdbd eef9 59bb f47e 823d
00000030: 320f 063d ae8d 33be 14c2 f9bd 5862 a2bc
0.015729351 -0.068587035 -0.08804588 0.029359026 -0.1902705 0.124951296 0.10288941 0.1523515
-0.07770637 -0.12358373 -0.0033260542 0.06371871 0.032729335 -0.17534515 -0.121952206 -0.019822285

transformer_encoder.layers.0.linear2.weight f4 [17, 16]
00000000: fd56 a4be cfae e8be 92e7 643d 592c 883d
00000010: 16a4 303e 05a2 1bbe bc7f 98be f4af 853b
00000020: e972 9cbe 1191 c9bd 6382 afbc dec6 893d
00000030: c44b 473c c868 7e3e c555 223e c3c0 f83d
00000040: 332b 9dbe 5ce6 97be 2743 ba3d b3e7 58bd
00000050: 4f46 3fbd f25f b6bd 021b 7fbd c51a 0ebe
00000060: a253 5bbe 3de5 503d 42a8 69be 146b ad3c
00000070: 3318 e8bd 87c7 073e edea 1b3e 5dc9 fe3d
00000080: 5ad9 583e eaa2 d23e 1e01 933e 62b6 663e
00000090: 0834 11be c83a c13e 4de2 173e 2887 083a
000000a0: c20e cb3d a780 973e 6be0 423e 8034 f1bc
000000b0: e9e3 cbbc f633 8abd 6f84 f2bd 92c4 733d
000000c0: 0c97 c73d b3df c6be 46d0 3dbe 2adc acbe
000000d0: 71e2 603e 5ece 843d 2b00 493d 604f 9dbe
000000e0: 5aef 1ebe f481 b6be ba7e ac3d 8763 c33c
000000f0: 33e0 253e f762 2bbe eb75 823d 113d da3d
00000100: cc70 f6bd 9903 ec3e 0338 a03e bafe 32bd
00000110: 51c5 203a cca5 923e 5dd0 873d d177 873d
00000120: 0b7d 663c 7f09 a93e ce83 0b3c 63c0 84bc
00000130: 27bc 023e f69c 513c b6d0 313e f9b5 0fbe
00000140: 49d2 41bd e911 acbe a72d 61be a305 53be
00000150: 612e 9f3d 91f3 fabd dd9f 6fbe d030 7dbe
00000160: 8dc5 9ebe 82f1 03be 3c73 7cbe 5127 79be
00000170: b345 4bbe 8dc2 01be 9c23 ac3d e966 023e
00000180: 9533 893c 8f77 0fbf bcbc bfbe e045 0cbd
00000190: 8be2 863d 9ef2 89be 9a52 1bbe 6381 8abe
000001a0: 990b 2dbe 7ead b9be bf8f febc 6136 5ebb
000001b0: 04e5 c63c dbb6 d63d a80d f03d f596 8bbd
000001c0: e367 1cbd e80d a2be c2eb 98be cc97 61be
000001d0: 8988 6e3d 964f 59be 39c2 55bd 0f73 79be
000001e0: c13c 5ebe 3db0 9fbd 1b07 77bd 5884 b63d
000001f0: 9a09 31bd 933e cb3d 57c5 2dbc ed5d 42bd
00000200: 97d9 b0bd 46f8 1bbe 699d 813d ceed f53a
00000210: 19d4 a8bd b9a4 8fbe 1d59 adbb 58d7 2a3d
00000220: 8e7d 5fbe 6b9d 85be 1aa4 abbd adae 32be
00000230: 3363 02bd e4f9 993c 43f7 1b3e 4e51 09be
00000240: 8672 ae3e 7278 293e c010 4c3e 542b 3d3e
00000250: 02ae 6ebe e37a 393e 72d6 b23d 3163 6c3e
00000260: ff6d bd3e 3f6b 513e 5210 51bc 7a92 18be
00000270: 01bc 3dbe 0f2f 80bd bc6a 2f3e bb26 cabd
00000280: a333 65bd d50d 50be 979a bdbe ab2c b8be
00000290: bc79 edbd 04d6 dcbe 3a03 20be c318 2cbc
000002a0: 4d78 a8be 1313 62be e679 81bd 3175 9bb7
000002b0: a641 f53d b929 c23d 2976 d73d cedf 19bc
000002c0: 60d8 083d f3d9 c93e 2369 6a3e 6519 0bbe
000002d0: 25cb 163e d13f 8c3e 9069 9a3e 553d 7e3e
000002e0: 919c 183e 8aa1 933e 9418 04be 3410 6bbe
000002f0: a5dd 9d3d 122b 5cbe 2dc5 00be 36c0 bf3d
00000300: bb72 04be 5f80 113e 9a4f 1e3e 7a7f 6d3e
00000310: 14b3 a8bc 5d14 193d a4dd e53c 4f9a 0b3d
00000320: 26bf 593e ea97 2abc 95e5 24bd c9e3 6a3e
00000330: 53da 073e 1328 c83c 6247 60bd 5f0d ec3d
00000340: f388 1c3c 6b43 0bbf 2de7 b63e 6d78 9c3d
00000350: 9840 cbbd 65ba 5bbd 47f2 603e 482e 5e3e
00000360: 5625 acbe 2a8a 943e 30d5 57bd 3f05 debd
00000370: b0e6 c13d 47f1 faba 4054 0f3e cfe2 d6bc
00000380: 9da8 b3bd b680 8ebe 1786 86be b434 aabe
00000390: 2cd2 8f3d 13cb ecbe 76e0 7dbc 4ff7 a03c
000003a0: dd68 13bd db5b 45be a785 c4bd 75ee 88bd
000003b0: 86d0 1dbe d266 11be 2bef 363e d7e1 3c3d
000003c0: 9e4e 393d ed3e 6e3d b1f9 4cbe e664 d3ba
000003d0: 3362 0bbe b2f7 44be 2dbb 26bd 0877 153d
000003e0: 2497 91be 979b b6be 3d7d 01bd 5704 0cbe
000003f0: 6cdb b13d f842 5ebd 46b2 423d 54a9 083e
-0.32097617 -0.45445868 0.055884905 0.06649084 0.17250094 -0.15198524 -0.29784954 0.004079813
-0.3055642 -0.09842122 -0.021424478 0.06727384 0.01216406 0.24844658 0.15853031 0.121461414
-0.3069702 -0.29667938 0.090948395 -0.05295534 -0.04669791 -0.08905019 -0.062281616 -0.138774
-0.21418622 0.05099987 -0.22818092 0.021169223 -0.11332741 0.13259707 0.15226336 0.12440751
0.21176663 0.4113992 0.2871179 0.22530511 -0.14180005 0.3774016 0.1483242 0.0005208128
0.09914924 0.2959034 0.19030921 -0.02944398 -0.02488895 -0.06748192 -0.11841666 0.059513636
0.09745607 -0.38842544 -0.18536481 -0.33761722 0.2196138 0.06484674 0.049072426 -0.3072462
-0.15520993 -0.3564602 0.08422609 0.02385117 0.16198806 -0.16736971 0.06370147 0.10656179
-0.12033233 0.46096495 0.31292734 -0.043699957 0.0006132918 0.28642118 0.06631539 0.0661465
0.0140678985 0.33015057 0.008515311 -0.016205018 0.12767087 0.01279377 0.17364773 -0.14034261
-0.047319684 -0.33607414 -0.21990071 -0.20607619 0.07772518 -0.12253488 -0.23400827 -0.24725652
-0.31010094 -0.12885097 -0.24653333 -0.24331404 -0.19850807 -0.12671871 0.084052294 0.1273457
0.016748229 -0.56041807 -0.3744868 -0.034246325 0.065861784 -0.26942915 -0.15168229 -0.2705184
-0.16898955 -0.36265177 -0.031074403 -0.0033906924 0.024279125 0.10484096 0.11721355 -0.06815902
-0.03818501 -0.31651235 -0.2986737 -0.22030562 0.05823568 -0.21221766 -0.05218718 -0.24360298
-0.21702863 -0.07797287 -0.06030951 0.08911961 -0.043222047 0.099240445 -0.0106061315 -0.047452856
-0.08635252 -0.15231428 0.06328852 0.0018762888 -0.082435794 -0.2805536 -0.005290164 0.041709274
-0.21825239 -0.26096663 -0.08380909 -0.17449446 -0.031832885 0.018795915 0.15231042 -0.13409922
0.3407175 0.16549852 0.19928265 0.1847356 -0.23308566 0.18113284 0.087323084 0.23084714
0.36997983 0.20451067 -0.012760239 -0.14899626 -0.18528749 -0.06258976 0.1713056 -0.098706685
-0.055957448 -0.20317777 -0.37032005 -0.3597158 -0.115954846 -0.4313203 -0.15626231 -0.0105039505
-0.32904282 -0.22077589 -0.063220784 -1.8532011e-05 0.11975412 0.09480614 0.10520584 -0.009391738
0.033409476 0.39424095 0.22891669 -0.13583906 0.14725931 0.27392438 0.30158663 0.24828084
0.14903475 0.28834182 -0.12900001 -0.229554 0.07708291 -0.21500805 -0.12575217 0.09362833
-0.12934391 0.14209126 0.15460053 0.2319316 -0.020593204 0.037372936 0.028059788 0.034082707
0.21264324 -0.010412196 -0.04025801 0.22938456 0.13266878 0.024433171 -0.054755576 0.11525988
0.009554136 -0.54399747 0.35723248 0.07640157 -0.0992443 -0.053644557 0.21967421 0.21697342
-0.33622235 0.2901166 -0.052693546 -0.10840844 0.09467828 -0.0019145393 0.13996983 -0.026231198
-0.08772395 -0.27832574 -0.26274177 -0.33243334 0.07022509 -0.46248683 -0.01549541 0.019649176
-0.035988677 -0.19273321 -0.09595805 -0.06686107 -0.15411577 -0.14199379 0.17864673 0.046113815
0.04524099 0.05816548 -0.20017125 -0.0016128093 -0.13611679 -0.19235113 -0.04070585 0.03649047
-0.28435624 -0.3566558 -0.031613577 -0.1367353 0.086844295 -0.054263085 0.047533296 0.13345844

transformer_encoder.layers.0.linear2.bias f4 [17]
00000000: 22d0 293e aeeb f4bc a3f5 533e be71 2ebe
00000010: 5fb8 453c 2a9a db3c cc91 6fbe ee24 c63d
00000020: b98c 11be 7dc4 cdbd 83af 0e3e 107c 2b3e
00000030: ecf2 773e 4d7c c1bd 9f04 31be a473 083e
00000040: 1f8c eabd
0.16583303 -0.029897537 0.20699172 -0.17035577 0.012067883 0.02680691 -0.23395461 0.096750125
-0.14213838 -0.10047243 0.1393414 0.16746545 0.24213761 -0.094475366 -0.17286919 0.13325363
-0.11452507

transformer_encoder.layers.0.norm1.weight f4 [17]
00000000: fa0c 643f aa67 573f 8557 523f e0f7 563f
00000010: 6bf0 423f cb34 543f 7317 3d3f 0602 463f
00000020: bb5b 403f efe0 643f 1f6d 593f dbee 723f
00000030: 684f 4f3f fe3d 363f ab98 433f dbff 463f
00000040: 3f3c 4b3f
0.890823 0.84142554 0.82164794 0.8397198 0.761481 0.82893056 0.73863906 0.7734684
0.7513997 0.8940572 0.8493213 0.94895715 0.8098054 0.7118834 0.7640483 0.77734154
0.79388803

transformer_encoder.layers.0.norm1.bias f4 [17]
00000000: 6d24 8bbc 4b98 693c 7b46 273d b362 66bc
00000010: 8a9c 8d3d 6848 67bd f6d5 dabd 0cdf 46bd
00000020: 97c9 64bd 30bc b33d fc77 d6bc be64 153d
00000030: 574e 593d 951d e83c 9d6e 37bc b69f 61bd
00000040: abb0 a53c
-0.016985143 0.014257501 0.0408387 -0.014061618 0.06914623 -0.056465536 -0.10685341 -0.048552558
-0.055856314 0.08776128 -0.02618026 0.03647303 0.053053226 0.028334418 -0.011195806 -0.055083953
0.020225843

transformer_encoder.layers.0.norm2.weight f4 [17]
00000000: ec8a 8f3f 9036 8a3f ddb3 963f ccaa a73f
00000010: 3de4 9c3f 12f7 a83f 02d1 913f 6a63 9d3f
00000020: d36d 653f cc81 aa3f 0449 893f 8b5f a73f
00000030: cade 9d3f 245e 923f 6621 823f bdc6 8c3f
00000040: 3fd9 853f
1.121427 1.0797901 1.177364 1.3098998 1.2257153 1.32004 1.1391909 1.2295964
0.89620703 1.3320861 1.0725408 1.3076032 1.2333615 1.143498 1.0166442 1.099815
1.0456923

transformer_encoder.layers.0.norm2.bias f4 [17]
00000000: 07a6 363d 7a36 ce3d 927d 36bd ad81 4f3e
00000010: ac4a 0abe e233 253e 9698 1cbe 226a 8a3e
00000020: e0fa 603d ed49 40be d316 323d 4f8f 2dbe
00000030: fb08 30be b947 bbbd 0e17 9dbd ba11 903e
00000040: 7047 02bc
0.04459193 0.10068984 -0.044553347 0.20264311 -0.13505048 0.16133073 -0.15292582 0.27034098
0.054926753 -0.187782 0.043478798 -0.16949199 -0.17190926 -0.091445394 -0.07670413 0.28138524
-0.007951602

mlp.0.weight f4 [17, 17]
00000000: b19c b5be 057e b4bd 4682 773e 33a5 3a3d
00000010: 68f0 9b3e 33eb 843d 4168 3e3c 37b2 95be
00000020: 51c8 25be eaeb 4e3f d8f9 9a3d c189 473f
00000030: 955f a33c b03f 0bbe 7c0f fc3c 35a0 70be
00000040: 5d43 933d 4e4b a8be 4cb5 84be e289 533d
00000050: 9661 a13d 2ff6 213e 807d 82bc 8df3 79be
00000060: ad26 5d3c 8df0 883d 07cd 153f 58bc 9b3d
00000070: 4e13 aa3e d024 42bc 4860 5cbe bc64 ee3d
00000080: cf18 d93d fc5b b43e d57d c43e d261 563e
00000090: bd68 493e a613 303e b4a8 a8be 0165 64bd
000000a0: 68b9 11bd f539 613e 86bf a83d f8f8 91be
000000b0: 168f 00be a2e9 c4be 55b1 893c 92b0 f83d
000000c0: bbc3 74be f1e3 803e ada6 a5bd 860f c4be
000000d0: 6452 a0be e52a 2e3e 4acd 32bd fb58 8b3e
000000e0: 8683 e2bd 7f47 f6bc 7962 90be a31f 17be
000000f0: b5ca 163f d3c1 2b3d 5891 a63e 184d 063e
00000100: 5497 83be c628 8dbc d8b4 40be 24a8 123e
00000110: ea26 b13d 834a 1d3e 4ad9 5c3e b400 883d
00000120: f9dc bbbe 122d babc a86f bd3d 5533 293e
00000130: 6e0c 54bd a67f cfbd fc83 d0bd db31 dcbe
00000140: a49c 6e3c 1a38 923e e1f7 aebe e91e c73e
00000150: 3009 a9bd 1031 afbe 81a0 9ebe 1d9a f9be
00000160: e8cd b63e b884 03be 0b69 ea3e 0094 9cbe
00000170: 58eb 443e c915 383e 8495 89bd 0569 7a3e
00000180: 165c 7a3e f813 afbe 5def 08bf 8512 c73d
00000190: fd3c a43d a0b6 493e 631b 32be 5243 93be
000001a0: ee0b 0dbf 54c4 da3e e005 82be 4196 593e
000001b0: f04f 8dbe 63db 8f3e 3967 183d ccd2 9cbd
000001c0: b9eb c13e 0e96 0a3d 11af c3be 8d92 3ebe
000001d0: 03b9 163e f1fa ee3c 19cd 9a3e 405d 1a3c
000001e0: 59d2 303e 11f9 943e 6e23 0bbf a174 9e3e
000001f0: b5f5 88be 9ed8 92be f2e7 56be 1b20 5c3d
00000200: bf72 4a3e 4bca 9cbe b070 723e 9c63 d63e
00000210: e20b b43e ed9c 6dbe e2a9 9abd 0dcd 8abe
00000220: 435f 223e 3eee 8b3e 4101 893d b286 813e
00000230: cd50 6bbe 0248 8a3e 0127 59be 1ee0 c03e
00000240: e10e aebd 5499 00bf 4645 06be 6f07 c9be
00000250: 3985 4fbd aebc 3dbe 0f6c 50bd 82f7 973e
00000260: 918b 28be 96c5 5e3e 6b8f d63d bd8c 95be
00000270: d0ef 6c3e 0b02 debe 91a1 dd3e c654 49bd
00000280: 984b 9d3e 2b78 eebc ea95 24be 603a 213e
00000290: 28e7 0fbe cbc0 c2be 8b25 dabd 91e1 1fbd
000002a0: ba37 353e 59b6 ac3d 8da2 d8bb 7fb2 c83d
000002b0: 8447 4abe 925b 333c 2455 6b3d a55f cdbd
000002c0: b882 243c 3967 cfbc 6772 303e 2a1a 103e
000002d0: 5428 16be 1df6 cb3d aca1 2f3a 818e e83d
000002e0: 3c87 063e 7f59 ed3c 706c 3ebd a125 353e
000002f0: 9c74 6c3e 1676 a03e 1f92 1fbf 33e8 aa3e
00000300: fb93 0cbf 0d43 6bbe 4b7f a7bd f230 a9bd
00000310: 13c7 043e 7a61 95be 574c 673e 9199 183f
00000320: da12 123e 9a7d 83be 09aa a03d cfac 413c
00000330: cdc2 cbbd 1554 bf3c 2f2e 7d3d 1d10 083d
00000340: 090d ff3d 98c1 14be e313 243d fe1c 14be
00000350: 37dd 6dbe 76ad ce3e 7a52 08be 6dfb 473d
00000360: 2d59 863c 7dc5 60be a5c3 16be abeb 41be
00000370: 9202 463e b4e2 df3e 6691 373e 1ff6 ac3e
00000380: 6535 c9be c336 9dbe 405e a53d 26b1 86be
00000390: 3036 d93e 5810 abbd d90c 9fbe 7d7b 02bf
000003a0: eda1 e0be dbf4 acbc d543 0e3f 8a37 43be
000003b0: 805c 163e 419f e9be 3285 213e 8943 a03e
000003c0: 1538 0a3d ec3b a03e 4342 07bf 6d6c c93e
000003d0: bcc1 413e 1ede bd3e cb34 2fbc 6361 04be
000003e0: dd5e 91bd 3f3e 58be 6275 a7be e686 ccbc
000003f0: 828c 323e 5066 2b3e eb2e 06be a198 efbd
-0.3547111 -0.08813099 0.24170789 0.045567703 0.30456853 0.06490173 0.011621536 -0.2923753
-0.16189696 0.80828726 0.07567185 0.7794457 0.019943038 -0.13598514 0.030769102 -0.23498614
0.07190583 -0.32869953 -0.2591957 0.051645167 0.07879941 0.15816568 -0.015928984 -0.24409313
0.013497991 0.066865064 0.5851597 0.07604283 0.33217853 -0.011849597 -0.21521103 0.11640307
0.10600435 0.35226429 0.38377252 0.20935753 0.1966886 0.17194995 -0.3294121 -0.055760387
-0.035577208 0.21994765 0.08239655 -0.2851026 -0.12554583 -0.38459498 0.016808191 0.12143053
-0.2390279 0.25173905 -0.080884315 -0.38293093 -0.3131286 0.1700855 -0.04365281 0.27216324
-0.11060242 -0.030063389 -0.2820013 -0.14758162 0.58903056 0.041932892 0.32532763 0.13115346
-0.25701392 -0.017231356 -0.18818986 0.14321953 0.086500004 0.15360455 0.21567264 0.06640759
-0.36692026 -0.02272657 0.09249812 0.16523488 -0.051769666 -0.10131769 -0.10181424 -0.43006787
0.014563713 0.28558427 -0.34173492 0.3889077 -0.082537055 -0.3421712 -0.3098183 -0.48750392
0.3570397 -0.12843597 0.45783266 -0.30581665 0.19230402 0.1797706 -0.06717971 0.24454124
0.2444919 -0.34194922 -0.5349024 0.09720329 0.08019445 0.19698572 -0.1739326 -0.287623
-0.5509633 0.4272791 -0.25395107 0.21248724 -0.2760005 0.28097066 0.037207816 -0.07657394
0.37875155 0.03383451 -0.38219503 -0.18610592 0.14719014 0.029172393 0.30234602 0.009421647
0.17267741 0.29096273 -0.54350936 0.30948356 -0.2674996 -0.2868089 -0.20986918 0.053741556
0.19770335 -0.30623087 0.236758 0.4187287 0.35165316 -0.23204394 -0.07551934 -0.27109566
0.15856652 0.27330202 0.06689692 0.25298077 -0.22980042 0.27008063 -0.21206285 0.37670988
-0.08498932 -0.5023396 -0.13112363 -0.39263484 -0.05066416 -0.18529007 -0.050884303 0.2968102
-0.1645949 0.2175506 0.104765736 -0.29208937 0.23138356 -0.43360934 0.43287328 -0.049153112
0.30721736 -0.029110035 -0.16072813 0.15744925 -0.14053023 -0.38037714 -0.10651692 -0.039033476
0.17697039 0.084332176 -0.0066111744 0.097996704 -0.19753844 0.010947125 0.057454243 -0.10028008
0.010040931 -0.025317775 0.17231141 0.14072481 -0.14663821 0.09959052 0.0006699811 0.113553055
0.13137525 0.02897334 -0.046490133 0.17690136 0.23091358 0.31340092 -0.6233234 0.3338028
-0.549133 -0.22974797 -0.08178576 -0.08261289 0.12966566 -0.2917593 0.22587715 0.59609324
0.14265004 -0.25681764 0.07844932 0.011820986 -0.09949265 0.023355523 0.061811622 0.03321849
0.12453658 -0.14526975 0.040058028 -0.14464185 -0.23228918 0.40366715 -0.13312712 0.048823763
0.016399944 -0.21950336 -0.1472307 -0.18937556 0.19336918 0.43727648 0.17926559 0.33781525
-0.3929855 -0.30705842 0.080746174 -0.2630703 0.42424154 -0.08352727 -0.3106449 -0.5096968
-0.4387354 -0.02111285 0.55572253 -0.19064155 0.14683723 -0.45629314 0.15773466 0.31301525
0.03374489 0.31295717 -0.5283548 0.39340535 0.1892156 0.37083524 -0.010693739 -0.12927775
-0.07098172 -0.21117495 -0.32706743 -0.024966668 0.17436412 0.16738248 -0.13103835 -0.116990335

mlp.0.bias f4 [17]
00000000: ba11 18bd e830 bfbd 543a 95bd f6c4 fe3c
00000010: 975c 333d 4ac6 153e d9db dd3e f304 073e
00000020: 8ece c23e 96fc 613e bbdb 383d cda5 72bd
00000030: 0388 bbbd 8ea2 7a3e 9fdd 93bd 4b08 733e
00000040: c4d6 273e
-0.03712628 -0.093355 -0.07286516 0.031099778 0.043789472 0.14626423 0.43331793 0.13185482
0.38048214 0.2206901 0.045131426 -0.05924015 -0.091568016 0.24476072 -0.07220005 0.23733632
0.1639052

mlp.2.weight f4 [4, 17]
00000000: 12d9 073f 7946 5e3e e3b0 2cbe d46d 023f
00000010: 0790 f6bd 1cb4 573e 0fa9 393e 43b4 88be
00000020: 1398 c2be 1ca9 e3bd 802b cdbd f4ba f5be
00000030: 57e3 ca3e f320 fcbd 78c9 dbbe 2947 2e3e
00000040: 328f 04be e3c7 14bf 3d36 85bd 020c ad3c
00000050: ab32 a3bc b914 c23d 7fbc 60be 624d 1fbe
00000060: 9acb e93e 6a8e 423e c631 0dbf 2179 d2bd
00000070: 4222 c23e 837f bbbd dd10 113e acb3 09be
00000080: e3dd f2be fa78 973e 5389 ddbe 20a2 6fbe
00000090: 6643 d8be 6034 cebe 96c7 dfbe b58c 453e
000000a0: 7854 9b3e 7c16 80be 7923 863e e67f a93e
000000b0: dbcf 1e3d 2656 07be 2675 42be db84 51bf
000000c0: 1969 783e a5b1 453e 5a35 b0be e89b 34be
000000d0: 3b08 ecbe 20f8 783e 6aa4 b3be 1733 8b3e
000000e0: 5510 15bf a6b5 23bf c361 21bf 32aa ab3e
000000f0: 21d9 0e3e bec7 bc3d 091a c4be 5259 e1bd
00000100: 23f6 973d a94c 883e 7803 933e 80c0 f7bd
0.530656 0.2170657 -0.16864352 0.50948834 -0.1203919 0.210648 0.18130897 -0.2670003
-0.38006648 -0.111162394 -0.100180626 -0.47994196 0.39626572 -0.12310972 -0.42927146 0.17019333
-0.1294525 -0.581175 -0.06504486 0.02112389 -0.019921621 0.09476609 -0.21946906 -0.15556863
0.45663148 0.18999639 -0.55154073 -0.1027701 0.37916762 -0.0915518 0.14166589 -0.13447446
-0.4743491 0.29584485 -0.43268833 -0.2340169 -0.4223892 -0.40274334 -0.4370696 0.19291957
0.30337882 -0.25017154 0.26198938 0.3310539 0.038772445 -0.13216457 -0.18990001 -0.81843346
0.24258842 0.19306047 -0.34415704 -0.17637599 -0.4610003 0.24313402 -0.35086375 0.27187416
-0.58228046 -0.6394905 -0.630398 0.33528286 0.13950016 0.09217785 -0.38301113 -0.110033646
0.07419994 0.26620987 0.28713584 -0.12097263

mlp.2.bias f4 [4]
00000000: 6b17 26be 5d6d 24be a762 223e 9a43 5c3e
-0.16219871 -0.16057344 0.15857945 0.21510163
