experiments/freqshape/models/Scomb_transformer_split=3.pt (torch, 15279 bytes, 16 tensors)

transformer_encoder.layers.0.self_attn.in_proj_weight f4 [51, 17]
0	0x3ca5fd9b	0.02026253
1	0xbe6e8a76	-0.23295006
2	0x3cb63e33	0.022246456
3	0x3d6eee52	0.05833275
4	0x3e21232d	0.15736075
5	0x3e0719df	0.13193463
6	0x3e3d0afe	0.18461224
7	0xbbd72573	-0.0065657436
8	0x3d572cd8	0.052533
9	0x3e046486	0.12928972
10	0xbe11a626	-0.14223537
11	0x3e498b96	0.19682154
12	0xbe7c4ed0	-0.2463944
13	0xbe2e434e	-0.17017862
14	0xbd7ee58c	-0.06223063
15	0x3ea00725	0.3125545
16	0x3dc044b0	0.09388101
17	0x3d85b18a	0.065280035
18	0xbe16b234	-0.14716417
19	0xbe3f4451	-0.18678404
20	0xbdc14832	-0.09437598
21	0xbe59fc18	-0.21287572
22	0xbbbb9b36	-0.0057252897
23	0x3d9042b1	0.070439704
24	0xbe9232a7	-0.2855427
25	0x3e811fe8	0.25219655
26	0x3d8414ed	0.06449304
27	0xbde9ab47	-0.11409622
28	0xbdcf35bf	-0.10117673
29	0x3ec4a734	0.38408816
30	0xbee15bf9	-0.44015482
31	0xbded5f22	-0.11590411
32	0xbe426742	-0.18984702
33	0xbe48a3aa	-0.19593683
34	0x3d9ddcbc	0.07708117
35	0x3cf154c3	0.029459363
36	0x3d9c32ea	0.076268986
37	0x3e8d2cc8	0.27573228
38	0xbe6c928e	-0.23102781
39	0x3e1b1226	0.15143642
40	0x3eb05cab	0.344457
41	0x3e167edf	0.14696835
42	0x3e34d422	0.17659047
43	0xbe06fcde	-0.13182399
44	0x3e484a0c	0.19559497
45	0xbe3700ca	-0.17871395
46	0x3d9e306d	0.0772408
47	0xbecf5683	-0.4049569
48	0x3e64474c	0.22292823
49	0x3e14a51c	0.14516109
50	0x3dd58d2d	0.10427318
51	0x3ebd2cc6	0.36948222
52	0x3d41b241	0.047289137
53	0xbd84f81f	-0.06492638
54	0x3e82f815	0.25579897
55	0xbe6517ad	-0.22372313
56	0xbdf89454	-0.12137666
57	0x3e800bd9	0.2500904
58	0x3e965835	0.29364172
59	0x3f05b753	0.52232856
60	0x3e521ab6	0.20518002
61	0x3d653db6	0.055967055
62	0xbe3e89a1	-0.18607189
63	0x3e76d8e4	0.24106175
64	0xbedb550b	-0.4283832
65	0x3e61bd04	0.2204476
66	0xbca3d5f5	-0.019999484
67	0xbddefdef	-0.10888278
68	0xbeced021	-0.40393165
69	0xbec101c1	-0.3769665
70	0x3e6ada6c	0.22934884
71	0xbd0a13c7	-0.033710267
72	0x3f2fca20	0.68667793
73	0xbe52dc31	-0.20591809
74	0xbea6ae85	-0.32555023
75	0xbe9098e0	-0.28241634
76	0xbe9313a6	-0.28725928
77	0xbd2dc85b	-0.042427402
78	0x3e2a34b8	0.16621673
79	0x3d8bf6ff	0.0683422
80	0xbe6fd3e4	-0.23420674
81	0x3f2e65b7	0.68123955
82	0xbe6d8fc9	-0.23199381
83	0x3cacd444	0.02109731
84	0x3dd355d3	0.10319104
85	0x3e02beb2	0.12768057
86	0xbf0a6cd4	-0.5407231
87	0x3dc9575b	0.09831115
88	0x3ec4c670	0.38432646
89	0xbf2205c1	-0.6329003
90	0x3de9a09b	0.11407586
91	0x3da63965	0.08116416
92	0x3d8218da	0.06352396
93	0xbe2b6d75	-0.16740973
94	0x3d11b119	0.035569284
95	0xbcedfeba	-0.029052127
96	0xbdaef62e	-0.08543049
97	0x3da1fead	0.07909904
98	0xbf67ddc3	-0.90572757
99	0xbc848a0f	-0.016179113
100	0xbdf9e910	-0.12202656
101	0xbd65a72c	-0.05606763
102	0x3ee94c30	0.4556594
103	0xbe8abc26	-0.2709667
104	0xbe3b7356	-0.18305716
105	0x3d0100a4	0.03149475
106	0xbf04aa48	-0.5182233
107	0xbed25293	-0.41078624
108	0x3d49288a	0.049110927
109	0xbd6e3bb7	-0.058162417
110	0x3e96b4d2	0.2943483
111	0x3eba92df	0.3644018
112	0xbdbfe652	-0.09370102
113	0x3e9b2810	0.30304003
114	0x3bfb2999	0.007664871
115	0xbf1427c7	-0.57873195
116	0xbf00470d	-0.50108415
117	0xbed626c2	-0.41826445
118	0x3e754da1	0.23955394
119	0x3e96d70b	0.2946094
120	0x3d01877a	0.03162334
121	0xbecda703	-0.40166482
122	0xbe5e053e	-0.21681687
123	0xbe8b68e5	-0.27228466
124	0xbeca4837	-0.3950822
125	0xbe467ec1	-0.1938429
126	0xbe9286fe	-0.28618616
127	0x3e69286d	0.22769327
128	0x3ebd70ce	0.37000126
129	0x3c4694ad	0.012120408
130	0x3cef59c4	0.029217608
131	0x3ea5d243	0.3238698
132	0xbee1619d	-0.44019786
133	0xbecadc96	-0.3962142
134	0xbec0789a	-0.37592012
135	0x375872d3	1.2901338e-05
136	0x3f07ef44	0.53099465
137	0x3e7505a0	0.23927927
138	0xbcb9f633	-0.022700405
139	0x3e8f5536	0.27994698
140	0xbe9cba03	-0.30610666
141	0x3ed03f7b	0.40673432
142	0x3dbf782a	0.09349091
143	0x3e1b2719	0.15151633
144	0x3f00dcbd	0.5033682
145	0xbe265509	-0.16243376
146	0xbee52ee0	-0.44762325
147	0xbc93e02c	-0.01805123
148	0xbe431f1f	-0.1905484
149	0xbe94383d	-0.28949156
150	0x3e8ef477	0.27920887
151	0x3c77ad83	0.015117052
152	0xbdd7eccc	-0.10543212
153	0x3eea4e84	0.45763028
154	0x3d5c02a3	0.053713452
155	0xbeac315e	-0.33631414
156	0xbe52e787	-0.20596133
157	0xbf227316	-0.6345686
158	0xbe88769f	-0.26653
159	0xbe6d82dc	-0.2319445
160	0xbd88881d	-0.066665865
161	0x3e909f4e	0.2824654
162	0x3e5f5a80	0.21811867
163	0x3bc0a9b2	0.0058796043
164	0x3e28110d	0.16412754
165	0x3e22c66a	0.15896001
166	0xbf415694	-0.7552273
167	0xbeaadea2	-0.3337298
168	0x3d897f36	0.06713717
169	0x3eb4eac5	0.35335365
170	0xbd75710b	-0.05992226
171	0x3e184325	0.14869364
172	0xbd77c149	-0.060487065
173	0x3dd94dfb	0.10610577
174	0x3e137403	0.14399724
175	0xbd0db1ad	-0.034593273
176	0x3e95c19b	0.29249272
177	0x3e7d2e69	0.24724735
178	0x3d09ed9c	0.033673868
179	0x3e7eaa9e	0.24869773
180	0x3c57ae00	0.013164043
181	0x3ceaea2a	0.028676111
182	0x3e07aebf	0.13250254
183	0xbdf993a6	-0.12186365
184	0x3e867c97	0.2626693
185	0x3e8cc263	0.27492055
186	0x3e2d3b07	0.16917048
187	0xbe142840	-0.14468479
188	0xbd85125f	-0.06497645
189	0x3e3fbb0d	0.18723698
190	0xbe925e4d	-0.2858757
191	0x3e9f47ea	0.31109554
192	0x3e3f7cce	0.18699953
193	0x3df9617e	0.12176798
194	0x3db2fb0b	0.08739289
195	0xbdc4821c	-0.09595129
196	0xbe9d215e	-0.3068952
197	0xbe001df9	-0.12511434
198	0xbd2c1aad	-0.042017628
199	0xbdcc5035	-0.09976236
200	0x3f08c7d6	0.53429925
201	0x3d5f408c	0.054504916
202	0x3e82386c	0.2543367
203	0x3e301a02	0.17197421
204	0x3c450399	0.0120247835
205	0xbd50d0d6	-0.05098041
206	0xbe3eb7b7	-0.18624769
207	0xbdd90a65	-0.10597686
208	0x3e6398ec	0.22226304
209	0xbe0ef528	-0.13960707
210	0xbe723715	-0.23653825
211	0xbe31e82c	-0.17373723
212	0x3e6ee68c	0.23330134
213	0x3e0347f9	0.12820424
214	0xbdfe7120	-0.12423921
215	0xbec8327b	-0.39101014
216	0x3e8fa057	0.28052017
217	0x3e3a15ac	0.1817233
218	0x3d97f82d	0.07420383
219	0xbe9c63e2	-0.30544955
220	0x3e272829	0.16323914
221	0x3e508a54	0.20365268
222	0xbdf0e88f	-0.11763107
223	0xbf04ce42	-0.51877224
224	0x3ce0e757	0.027454061
225	0xbf2717cf	-0.65270704
226	0xbec94d9f	-0.39317033
227	0x3d3af28f	0.04564148
228	0xbe5dc470	-0.21656966
229	0x3e98faf3	0.2987896
230	0x3d78dd8d	0.060758162
231	0x3e0bed36	0.13664708
232	0x3e47c5aa	0.19508997
233	0x3e1a7504	0.150837
234	0xbf063721	-0.5242787
235	0xbeb616bd	-0.35564223
236	0xbec8d7de	-0.39227194
237	0xbda9d92a	-0.08293374
238	0x3e561b8d	0.20908947
239	0xbde9ffcc	-0.114257425
240	0x3cf63039	0.030052291
241	0x3d3ba0e7	0.045807745
242	0xbdd1447d	-0.10218141
243	0x3e4cb041	0.1998911
244	0x3e5bde91	0.21471621
245	0x3da4ac99	0.08040733
246	0x3eb051fd	0.34437552
247	0x3e9b1bcc	0.30294645
248	0xbece3d70	-0.40281248
249	0x3dff42f6	0.12463944
250	0x3dbb4593	0.091441296
251	0xbed13960	-0.40864086
252	0x3e4c2aee	0.19938251
253	0x3e1812db	0.14850943
254	0xbe1e5205	-0.15460975
255	0x3e8984da	0.2685917

transformer_encoder.layers.0.self_attn.in_proj_bias f4 [51]
0	0x3e4db0f0	0.20087028
1	0xbe2308fc	-0.15921396
2	0x3de5ea08	0.112262785
3	0x3ddbdd73	0.107355975
4	0xbdae81a5	-0.085208215
5	0x3c463fd1	0.012100176
6	0xbe5aa380	-0.21351433
7	0xbe1a75d0	-0.15084004
8	0x3e68b34a	0.22724643
9	0xbe27d9e0	-0.16391706
10	0x3e1c74f5	0.1527899
11	0x3ddf5c70	0.10906303
12	0xbe25da17	-0.16196476
13	0xbe2162fe	-0.15760419
14	0x3db7080a	0.0893708
15	0x3dd0a06d	0.10186849
16	0xbc3c6e4b	-0.011500905
17	0x3b91b2a7	0.004446346
18	0xbae40947	-0.0017397784
19	0x3c4e1f2a	0.012580672
20	0xbc492796	-0.012277504
21	0xbba3bd4c	-0.004996931
22	0x3bbc2a0b	0.0057423166
23	0xbc6d8704	-0.014497522
24	0xbc1112cb	-0.008854578
25	0x3c21cdb2	0.009875702
26	0xbcaaa7f4	-0.02083204
27	0x3b0504e9	0.0020297116
28	0xbaca050f	-0.0015412885
29	0x3ba466f3	0.0050171553
30	0xbb6186cc	-0.003441262
31	0xbc091003	-0.008365634
32	0xbab50cfc	-0.0013813074
33	0xbbaeb56e	-0.0053316867
34	0xbcd1d070	-0.025612086
35	0x3d008d84	0.03138496
36	0x3cbc440d	0.022981668
37	0x3c4b6191	0.012413398
38	0xbbcf2f86	-0.006322804
39	0x3c7047f9	0.014665597
40	0x3cabba24	0.020962782
41	0xbb6a070c	-0.0035709767
42	0xbd107e1b	-0.035276514
43	0x3c699348	0.014256306
44	0xbc8648a7	-0.016392065
45	0x3d21d41a	0.039508916
46	0x3c1836d3	0.009290415
47	0x3af68b3c	0.0018809806
48	0xbd3bd43f	-0.04585671
49	0x3cde762f	0.027155964
50	0x3c3c775a	0.011503065

transformer_encoder.layers.0.self_attn.out_proj.weight f4 [17, 17]
0	0xbc0fe3b7	-0.008782319
1	0xbd0d11ce	-0.034440808
2	0x3d1f3da4	0.038877144
3	0x3d57fa84	0.052729145
4	0xbc299a37	-0.010351709
5	0xbdb01c36	-0.08599131
6	0xbdf0e722	-0.11762835
7	0x3da7e0c0	0.081971645
8	0xbdddf550	-0.10837805
9	0xbd9ebca4	-0.07750824
10	0xbd1a7430	-0.03770846
11	0xbe83849a	-0.25687104
12	0xbe69d2b1	-0.22834279
13	0x3d300dd0	0.042981923
14	0x3ddd2f56	0.10800044
15	0xbe006f47	-0.12542449
16	0xbe7b92ee	-0.24567768
17	0xbcd08810	-0.025455505
18	0xbd7d29db	-0.061807495
19	0x3cdcaa52	0.026936684
20	0xbe4370a2	-0.19085935
21	0x3d11d964	0.03560771
22	0xbe344b3f	-0.17606829
23	0xbcea8343	-0.028627044
24	0x3c9dfa19	0.019284295
25	0x3e57867a	0.21047392
26	0x3e306f5a	0.17229977
27	0xbded410f	-0.115846746
28	0x3e4cd3ca	0.20002666
29	0x3e081c22	0.13291982
30	0xbde5305b	-0.11190864
31	0xbd03b230	-0.032152355
32	0x3c430c49	0.0119047845
33	0xbdb5092d	-0.08839641
34	0xbd109d3b	-0.035306197
35	0xbdb35295	-0.08755986
36	0x3e0632f7	0.13105379
37	0xbd912d19	-0.0708868
38	0x3e654dac	0.2239291
39	0x3d8200a4	0.063477784
40	0xbd04c3b3	-0.032413196
41	0x3e4fe0b0	0.20300555
42	0x3c35a4ef	0.0110866865
43	0xbe051616	-0.12996706
44	0x3e430940	0.19046497
45	0x3b9f5f88	0.004863683
46	0xbd50e702	-0.051001556
47	0xbd3bcbea	-0.045848764
48	0xbe26a83a	-0.16275111
49	0x3dd550f2	0.1041583
50	0xbd3249f3	-0.043527555
51	0x3d0ab2d3	0.033861946
52	0xbe48fe45	-0.19628246
53	0x3be95911	0.0071212132
54	0x3d56057d	0.052251328
55	0xbd2711f9	-0.040788624
56	0xbd80ab25	-0.06282643
57	0x3e6f5bde	0.23374888
58	0xbe6991e3	-0.22809558
59	0xbe03e787	-0.1288129
60	0xbd94f6e4	-0.07273653
61	0xbd9aaeb7	-0.075528555
62	0xbd122f71	-0.035689775
63	0xbe073c9b	-0.13206713
64	0xbe103155	-0.14081319
65	0x3dd27637	0.10276454
66	0xbe56bc71	-0.20970322
67	0xbe4f970a	-0.2027246
68	0x3d29f166	0.04148998
69	0x3db63025	0.088959016
70	0x3d92ce1d	0.07168219
71	0xbe3c753f	-0.18404101
72	0xbd9a4333	-0.075323485
73	0x3e4a519a	0.19757691
74	0x3cbafd7a	0.022825945
75	0x3e7a5587	0.24446689
76	0xbcb04b9b	-0.021520426
77	0x3e048d43	0.12944512
78	0x3b0586d2	0.0020374549
79	0x3e7ca873	0.24673633
80	0x3e525385	0.20539673
81	0x3dd43a82	0.10362722
82	0x3d5d4666	0.054022215
83	0x3db53c0b	0.08849343
84	0x3daf62ef	0.08563792
85	0x3d8bf950	0.06834662
86	0x3e0e1401	0.13874818
87	0x3e619f6a	0.22033468
88	0xbe0f7aaf	-0.14011644
89	0x3e7a7ede	0.24462458
90	0xbd92d474	-0.071694285
91	0xbda9cb17	-0.082906894
92	0xbdc1c134	-0.09460679
93	0xbe003bd9	-0.1252283
94	0xbe1659c0	-0.14682674
95	0x3e6bf6d6	0.23043379
96	0xbe0174c7	-0.12642203
97	0x3dab745a	0.08371802
98	0x3e45096f	0.1924188
99	0x3d1c0214	0.03808792
100	0x3e0c088a	0.13675132
101	0xbd91fb41	-0.07128001
102	0xbd21acd4	-0.039471462
103	0xbd3a45d8	-0.045476764
104	0x3da5c31e	0.08093856
105	0x3e51bd9a	0.20482484
106	0xbe4b2e54	-0.19841892
107	0xbd904956	-0.07045238
108	0x3e829942	0.2550755
109	0xbd916fd2	-0.07101406
110	0x3e222f99	0.1583847
111	0xbe492e4b	-0.19646566
112	0xbe3bc8c4	-0.18338305
113	0x3d287744	0.041129366
114	0xbd2f9622	-0.042867787
115	0xbdf5206e	-0.11969076
116	0xbdf88265	-0.12134246
117	0x3e1b155c	0.15144867
118	0x3cdc410c	0.026886486
119	0xbe2daaeb	-0.16959731
120	0xbe13d7fe	-0.14437863
121	0xbe765352	-0.24055222
122	0x3d5f36b7	0.05449554
123	0xbdbfe545	-0.093699016
124	0x3cce59d4	0.025189318
125	0x3e6b3d74	0.22972661
126	0x3c8af73d	0.016963596
127	0xbdb83ba4	-0.089957505
128	0x3dfc91f1	0.123325236
129	0xbe25a5bf	-0.16176508
130	0x3ba42548	0.005009327
131	0x3ddeaf2f	0.10873257
132	0x3d848908	0.06471449
133	0xbe265c65	-0.16246183
134	0xbc5baf21	-0.013408453
135	0x3dd89fdd	0.105773665
136	0xbcccc45a	-0.024995971
137	0x3e5e8b67	0.21732865
138	0xbe39bdc8	-0.18138802
139	0x3e51c0e4	0.20483738
140	0xbe66f6ec	-0.2255513
141	0x3dd2ac4f	0.102867715
142	0xbd8ded51	-0.0693003
143	0xbe4bee6f	-0.19915174
144	0x3df63ed6	0.12023704
145	0xbdf4e8b6	-0.119584486
146	0xbd58d1f3	-0.0529346
147	0xbe41c5e3	-0.18923144
148	0x3d5b6e7e	0.05357217
149	0xbe69af88	-0.22820866
150	0xbb9f96e3	-0.004870282
151	0x3e20e826	0.15713558
152	0xbe494ffd	-0.1965942
153	0xbe0d77df	-0.13815258
154	0xbe3a27b3	-0.18179207
155	0x3dd0a69e	0.1018803
156	0xbd86509e	-0.06558345
157	0x3e5983f1	0.21241738
158	0x3e25e24e	0.1619961
159	0xbe1bcba4	-0.15214401
160	0x3e884a0f	0.26619002
161	0x3cdca780	0.026935339
162	0x3d8bb80b	0.06822213
163	0x3e1d2fbd	0.15350242
164	0xbe28a80f	-0.1647036
165	0x3e41af1f	0.1891446
166	0x3e329136	0.17438206
167	0x3e2f08aa	0.17093149
168	0x3e0f60f8	0.14001834
169	0x3db875c6	0.090068385
170	0x3e3743e1	0.17896987
171	0xbcba0b4e	-0.022710469
172	0x3dbecf47	0.09316879
173	0x3b240d19	0.002503222
174	0xbe2a2745	-0.16616543
175	0xbe15c8a7	-0.14627324
176	0xbda5a8de	-0.080888495
177	0xbdd2b239	-0.102878995
178	0xbdc00664	-0.09376219
179	0x3daa3039	0.08309979
180	0xbcf1e044	-0.029525883
181	0x3d472db1	0.04862756
182	0xbe14185e	-0.1446242
183	0x3dcd5c65	0.100273885
184	0x3ce838f3	0.028347468
185	0xbe101b0c	-0.14072818
186	0x3deb9aa0	0.11504102
187	0x3d6e2581	0.058141235
188	0x3dea52b2	0.11441554
189	0x3d8e4221	0.06946207
190	0xbe8711a6	-0.26380652
191	0xbd995f85	-0.07488922
192	0x3e032d60	0.12810278
193	0x3c125be7	0.008933044
194	0x3ca200d2	0.019775782
195	0xbe10e33f	-0.14149188
196	0xbe093d3c	-0.13402265
197	0x3e6295fe	0.2212753
198	0xbd554af0	-0.05207342
199	0x3e6dcbf7	0.23222338
200	0x3e261b39	0.16221322
201	0xbcf2c9a6	-0.02963717
202	0x3e05690f	0.13028358
203	0x3e80603f	0.2507343
204	0x3e4bcb9d	0.19901891
205	0xbe3c362a	-0.18380037
206	0x3e1ad6c0	0.15120983
207	0x3d26bf0b	0.040709537
208	0xbd8e2855	-0.069412865
209	0xbe53b43a	-0.2067422
210	0xbe0da8db	-0.13833944
211	0xbdb9589f	-0.09050106
212	0xbe3d1371	-0.18464448
213	0x3dc8d3e0	0.09806037
214	0xbe22789e	-0.15866324
215	0xbdaa9dbd	-0.083308674
216	0xbe22f14f	-0.15912364
217	0xbdac5ce2	-0.084161535
218	0x3e15eb6e	0.1464059
219	0x3e0e427f	0.13892554
220	0xbdc25e37	-0.09490626
221	0x3afa8d47	0.001911559
222	0xbd41bd87	-0.047299888
223	0xbcb52008	-0.02211
224	0xbde7b9be	-0.113147244
225	0x3d58e828	0.052955776
226	0x3e58252c	0.2110793
227	0xbdf08977	-0.11744969
228	0x3e561eb8	0.20910156
229	0x3d6ba9a9	0.057534847
230	0xbdd86995	-0.10567013
231	0xbe0ca331	-0.13734128
232	0x3e17aa95	0.14811166
233	0x3df76bc7	0.12081104
234	0x3d83a118	0.064272106
235	0x3d2c43ae	0.042056732
236	0x3e3c290b	0.18375032
237	0xbd948096	-0.07251088
238	0x3d3ba2d2	0.045809574
239	0x3de65285	0.11246208
240	0xbd972130	-0.07379377
241	0x3e5719be	0.21005914
242	0xbdbb75e7	-0.091533475
243	0xbe3c610c	-0.18396395
244	0x3e1c2b04	0.15250784
245	0xbe3d2358	-0.18470514
246	0xbc6d8de5	-0.014499162
247	0xbd6fe449	-0.05856732
248	0xbe34c4b9	-0.17653169
249	0x3e03200b	0.12805192
250	0xbd023500	-0.031788826
251	0xbc69e6af	-0.014276191
252	0xbdc50cd9	-0.09621591
253	0x3e1e7494	0.15474159
254	0x3dc1c3ee	0.09461199
255	0xbcb23671	-0.021754475

transformer_encoder.layers.0.self_attn.out_proj.bias f4 [17]
0	0x3c32fbbb	0.010924275
1	0x3ab34bb0	0.0013679173
2	0xbc5b9895	-0.013403078
3	0x3cdced14	0.026968516
4	0x3cbfdf13	0.0234218
5	0x3cfc449f	0.03079444
6	0x3d274908	0.040841132
7	0x3ceda4bc	0.029009216
8	0xbcab45d7	-0.020907326
9	0xbb80499a	-0.003915024
10	0x3cbe1050	0.023201138
11	0x3c79e1ba	0.015251571
12	0xbc194561	-0.00935492
13	0xbc573ac7	-0.013136572
14	0x3c2a8024	0.010406528
15	0xbc20ebe9	-0.00982187
16	0xbc5cb802	-0.013471605

transformer_encoder.layers.0.linear1.weight f4 [16, 17]
0	0xbe56c61e	-0.20974013
1	0x3e67c0c9	0.22632135
2	0x3f13944d	0.57648164
3	0xbe901054	-0.28137457
4	0x3e50c6d9	0.20388354
5	0x3c5dd1a9	0.013538756
6	0xbec8b3bb	-0.39199623
7	0xbe8f553b	-0.27994713
8	0xbe471b54	-0.19444019
9	0x3e71312e	0.23553917
10	0xbd6c082d	-0.057624985
11	0x3cb9d58b	0.022684833
12	0xbddc51ed	-0.107578136
13	0x3e933405	0.28750625
14	0xbeac8311	-0.33693746
15	0x3c9f9932	0.019482229
16	0xbdc84e92	-0.09780611
17	0xbdb4967f	-0.08817767
18	0x3e0d2836	0.1378487
19	0xbd881f42	-0.06646587
20	0xbe01a96e	-0.12662289
21	0x3c2b1fc5	0.010444586
22	0x3e01ccfe	0.12675855
23	0x3be55026	0.00699808
24	0x3e0724b1	0.1319759
25	0xbe215b11	-0.15757395
26	0x3e05db48	0.1307193
27	0x3e0bf6fc	0.13668436
28	0x3e32799e	0.17429206
29	0xbc37d1b1	-0.011219428
30	0x3e865899	0.2623947
31	0xbe82edeb	-0.25572142
32	0xbc64c1a9	-0.013962188
33	0xbc1255bc	-0.0089315735
34	0x3d3c5a6c	0.04598467
35	0x3ca274ba	0.01983105
36	0x3e22e8ec	0.15909165
37	0xbda3b5b5	-0.07993642
38	0x3e5cd7f4	0.21566755
39	0x3e1e0c2a	0.15434328
40	0x3d37d263	0.044878375
41	0xbd331347	-0.043719556
42	0xbde257a1	-0.1105187
43	0x3db7efd7	0.08981293
44	0x3e11f52b	0.1425368
45	0x3e50e62e	0.20400307
46	0xbc0871f0	-0.008327946
47	0xbd074844	-0.033027902
48	0x3dacfd9a	0.08446808
49	0x3e173ba3	0.14768843
50	0xbdef5c90	-0.11687577
51	0x3d9329af	0.07185685
52	0x3d03a2dc	0.032137737
53	0x3f007243	0.5017435
54	0xbe18ac20	-0.1490941
55	0xbda7bc0f	-0.08190166
56	0x3e7e6b0c	0.24845523
57	0xbec955ac	-0.39323175
58	0xbe9e3735	-0.30901495
59	0xbe4ca262	-0.19983819
60	0x3d3e28be	0.046425574
61	0xbdc72756	-0.097242996
62	0x3e202e28	0.15642607
63	0x3d446a3d	0.04795288
64	0x3e269fee	0.16271946
65	0xbe835a81	-0.25654987
66	0x3d2cb52e	0.042164974
67	0xbe2302e0	-0.15919065
68	0xbdf05f8c	-0.11736974
69	0xbdb20d0e	-0.08693896
70	0xbe334786	-0.17507753
71	0x3d7c313d	0.061570395
72	0xbd1e7bc0	-0.038692236
73	0xbd20ab8b	-0.039226096
74	0xbdc2cf1f	-0.095121615
75	0xbcc1cef5	-0.023658255
76	0x3deedaf9	0.116628595
77	0x3cd24acf	0.025670437
78	0x3d9ce4f6	0.07660858
79	0x3e334ded	0.17510195
80	0x3ccd038d	0.025026107
81	0x3ca928e6	0.020649385
82	0xbd51fb5d	-0.05126511
83	0x3c1233fc	0.008923527
84	0x3dce12d7	0.10062187
85	0x3e8cb8c2	0.2748471
86	0x3e0967d5	0.13418515
87	0xbbb12277	-0.00540572
88	0x3de614e2	0.11234452
89	0xbe87e2f1	-0.2654033
90	0x3d65437d	0.055972565
91	0xbe40217a	-0.1876277
92	0x3db5f7db	0.08885165
93	0x3f043c42	0.51654446
94	0xb8ef70aa	-0.000114173934
95	0xbd8ba9f4	-0.06819525
96	0xbe1dbf68	-0.15405047
97	0x3e2bae12	0.16765621
98	0xbe02babd	-0.12766548
99	0x3e66310e	0.2247965
100	0xbd52e434	-0.051487163
101	0x3ea040dc	0.31299484
102	0x3e33ee9c	0.17571491
103	0xbe111615	-0.1416858
104	0x3e8877b4	0.26653826
105	0xbbbc1cd5	-0.0057407417
106	0x3e0162e8	0.12635386
107	0x3dbc4b0a	0.09194
108	0xbdafb6f9	-0.08579821
109	0xbea0bf3a	-0.31395894
110	0xbe493962	-0.19650796
111	0x3df1ca63	0.1180618
112	0xbe29ab51	-0.16569258
113	0x3cb35903	0.02189303
114	0xbdfa29a7	-0.12214976
115	0x3dea6e1f	0.11446785
116	0xbeaf34f6	-0.34220093
117	0x3d3784a4	0.04480423
118	0x3e41116a	0.18854299
119	0x3d191a8c	0.037378833
120	0xbbd34d00	-0.006448388
121	0xbd10e59e	-0.03537523
122	0xbd72db8c	-0.059291407
123	0xbe8e88f0	-0.2783885
124	0xbe8a215e	-0.26978582
125	0x3e3ba3da	0.18324223
126	0xbe272d03	-0.16325764
127	0x3f054924	0.5206473
128	0xbe62c080	-0.22143745
129	0xbc2a13b6	-0.010380676
130	0xbed68bae	-0.41903442
131	0x3e268e60	0.16265249
132	0x3cb4fd1d	0.02209335
133	0x3e91aa44	0.28450215
134	0xbe46881b	-0.19387858
135	0x3d27cae0	0.04096496
136	0x3e946348	0.28981996
137	0x3e656951	0.22403456
138	0x36be9c34	5.6806257e-06
139	0xbdf9c15d	-0.12195084
140	0xbe378aad	-0.17923994
141	0xbd9d6ab9	-0.07686371
142	0xbd9d612c	-0.0768455
143	0xbd9ed27d	-0.07754991
144	0x3e38fef7	0.18066011
145	0xbb27b199	-0.0025588034
146	0xbd3e4680	-0.046453953
147	0xbee78b82	-0.45223624
148	0x3f461272	0.77371895
149	0x3d576800	0.052589417
150	0x3d996ed2	0.074918404
151	0xbe64f3a4	-0.22358567
152	0x3f410fe9	0.754149
153	0x3d141b53	0.03615887
154	0xbd88e46d	-0.06684194
155	0xbcdf9c2d	-0.02729615
156	0x3d16bbe4	0.03680028
157	0xbc973dee	-0.018462148
158	0xbe0a5ea4	-0.13512665
159	0x3e3183a1	0.17335369
160	0xbc439a3b	-0.011938627
161	0x3ea4a8c4	0.32160008
162	0xbe7db3e4	-0.24775654
163	0x3dacf79e	0.08445667
164	0xbe896af7	-0.2683942
165	0x3eb8bee8	0.3608315
166	0xbdeb72fb	-0.1149654
167	0x3e0a867c	0.13527864
168	0xbee3090f	-0.4434285
169	0x3e9456f2	0.28972584
170	0x3e85b028	0.2611096
171	0xbdbab109	-0.09115798
172	0x3e067f3e	0.13134477
173	0x3e4fb14f	0.20282482
174	0xbeb5ceb7	-0.35509273
175	0xbdb4e123	-0.08832004
176	0x3e58e78f	0.21182083
177	0xbe423a5f	-0.1896758
178	0x3efd7292	0.49501473
179	0xbe303695	-0.17208321
180	0x3bb70279	0.0055850116
181	0xbe220ea6	-0.158259
182	0x3e013418	0.12617528
183	0xbcaac0c7	-0.020843877
184	0xbd26c72f	-0.0407173
185	0xbbdb654c	-0.006695425
186	0x3e802750	0.25029993
187	0x3df1d42b	0.11808046
188	0xbda0b052	-0.078461304
189	0xbd1d7300	-0.03843975
190	0x3d9cd267	0.076573186
191	0xbe174bc3	-0.14774995
192	0xbd94653a	-0.0724587
193	0xbe3d7bf7	-0.1850432
194	0x3cf1209e	0.029434498
195	0x3e3de227	0.18543302
196	0x3ded6ec6	0.11593394
197	0xbd9fe4b7	-0.07807296
198	0xbecd14ae	-0.4005484
199	0x3ef8e8b9	0.48615053
200	0x3e1486ed	0.14504595
201	0xbd7dc32e	-0.061953716
202	0xbe05a9c8	-0.13053048
203	0x3e3bc070	0.18335128
204	0x3d69be6f	0.057066377
205	0x3d4d3727	0.050101425
206	0xbe3982e9	-0.18116345
207	0x3e0c567e	0.13704869
208	0xbdac1cf4	-0.0840396
209	0xbd14404a	-0.036194123
210	0x3e44ec26	0.19230708
211	0x3cb7124f	0.022347597
212	0x3dbbd792	0.09171976
213	0xbe63da81	-0.22251321
214	0xbd383f65	-0.044982333
215	0xbde375a2	-0.11106421
216	0xbdfa7a09	-0.122303076
217	0xbdb439c5	-0.08800081
218	0xbe084a47	-0.13309585
219	0x3e0d4ad3	0.13798074
220	0xbe1a16a1	-0.15047695
221	0xbe1a435a	-0.15064755
222	0x3d2016bf	0.039084192
223	0x3f0d2aa5	0.55143195
224	0xbe338b0f	-0.17533515
225	0x3d3ed272	0.046587415
226	0x3d10e303	0.035372745
227	0xbeb2798d	-0.3485836
228	0xbe83eeda	-0.25768167
229	0x3c191e4d	0.009345603
230	0x3e5d3cca	0.2160522
231	0xbd7200e7	-0.05908289
232	0x3e0a964a	0.13533893
233	0x3c1e672f	0.009668156
234	0x3e8db463	0.27676687
235	0xbea7a369	-0.3274186
236	0xbd62194c	-0.055199906
237	0x3c811c13	0.015760457
238	0x3df33052	0.11874451
239	0xbe4c3771	-0.19943024
240	0xbddfdc1b	-0.10930654
241	0x3db10908	0.08644301
242	0xbe1be55a	-0.1522421
243	0xbcffcd47	-0.031225814
244	0x3e4c79e1	0.19968368
245	0x3e2072a9	0.1566874
246	0xbe55fe59	-0.20897807
247	0x3d7c74dd	0.061634887
248	0xbe0229ad	-0.1271121
249	0xbdacdb8b	-0.08440312
250	0xbdeafc35	-0.11473886
251	0x3cd31b17	0.025769753
252	0x3de1b78b	0.11021336
253	0x3d0e485e	0.034736983
254	0x3d829cdf	0.06377577
255	0xbce2a973	-0.02766869

transformer_encoder.layers.0.linear1.bias f4 [16]
0	0xbe4ac1f9	-0.19800557
1	0x3e411f9f	0.18859719
2	0x3dfd39a8	0.12364513
3	0xbd78c783	-0.060737144
4	0x3d025db5	0.031827647
5	0x3e28e39c	0.16493076
6	0x3d424b23	0.047434937
7	0x3da0585b	0.078293525
8	0xbd6e4c7a	-0.058178402
9	0xbdcca034	-0.09991494
10	0x3dc514ca	0.09623106
11	0xbe011162	-0.12604287
12	0xbe2ecf40	-0.17071247
13	0x3e6b18c1	0.22958662
14	0xbdf698d9	-0.12040872
15	0x3c537fc0	0.012908876

transformer_encoder.layers.0.linear2.weight f4 [17, 16]
0	0xbe600536	-0.21876988
1	0xbdd39fdd	-0.10333226
2	0x3e08281c	0.1329655
3	0xbe09f489	-0.13472189
4	0xbe0b32fd	-0.13593669
5	0x3d0e8edb	0.034804206
6	0x3c3ea069	0.011634924
7	0x3e036c07	0.12834178
8	0x3e56667a	0.20937529
9	0xbe054adf	-0.13016842
10	0x3dd25c63	0.102715276
11	0x3e278b5a	0.16361752
12	0xbc6ec0ba	-0.014572317
13	0xbd88b11f	-0.06674408
14	0x3e4effce	0.20214769
15	0xbe80949d	-0.25113383
16	0x3d980c07	0.07424169
17	0xbc0faa66	-0.0087686535
18	0xbe3ac074	-0.18237478
19	0xbd401424	-0.046894208
20	0x3d3c2756	0.04593595
21	0x3ea42088	0.3205607
22	0xbd9ed208	-0.07754904
23	0x3e6cf0a1	0.23138668
24	0xbe0de1ec	-0.13855714
25	0x3bdef1f2	0.0068037445
26	0x3e8109ae	0.25202698
27	0xbdc601d5	-0.09668318
28	0x3d70bc21	0.058773164
29	0x3ebdaaae	0.3704428
30	0x3c81b3d9	0.015832828
31	0x3e1e8cc8	0.15483391
32	0x3e51347f	0.20430182
33	0xbda5274c	-0.08064136
34	0xbcba6978	-0.02275537
35	0x3e172179	0.14758863
36	0xbd8cd292	-0.068761006
37	0x3eb875d1	0.36027387
38	0x3e84de94	0.25951064
39	0x3e9b2b15	0.30306306
40	0xbec4495e	-0.38337225
41	0x3e85c156	0.26124066
42	0x3d888199	0.06665344
43	0xbe00bd08	-0.1257211
44	0x3e92d11a	0.28675157
45	0x3eef9630	0.4679427
46	0xbc2fd8a0	-0.0107328
47	0x3e9c095c	0.3047589
48	0xbd9928c9	-0.07478482
49	0xbc1a00d1	-0.009399609
50	0x3dd500e3	0.1040056
51	0x3cf82356	0.030290287
52	0x3dc4d5aa	0.09611066
53	0xbd60f3cc	-0.054920003
54	0xbea9a1af	-0.33131167
55	0xbe115df9	-0.14196004
56	0xbe0d30aa	-0.13788095
57	0xbea2ef57	-0.31823227
58	0xbe63215c	-0.22180694
59	0xbd888913	-0.0666677
60	0xbda1802c	-0.07885775
61	0xbe4479af	-0.19187044
62	0xbe0d5d72	-0.13805178
63	0xbe023e0a	-0.12718979
64	0x3c680243	0.0141606955
65	0xbd4f0912	-0.05054576
66	0xbe8069f5	-0.2508084
67	0xbe4e5936	-0.20151219
68	0xbd7ca798	-0.061683267
69	0x3e2e2027	0.17004453
70	0x3d35aa37	0.044351783
71	0x3e5d32be	0.21601388
72	0xbe07eb76	-0.13273415
73	0x3e418938	0.18900001
74	0xbbc97f4f	-0.0061492096
75	0x3e367c08	0.17820752
76	0xbdcfff2e	-0.101560935
77	0xbd17f103	-0.03709508
78	0x3e1baf94	0.15203696
79	0x3e3c412d	0.18384238
80	0x3e7c2e80	0.24627113
81	0xbda448fe	-0.08021735
82	0x3cf3e01b	0.029769948
83	0xbdfcbc42	-0.12340595
84	0x3d5ba953	0.053628277
85	0xbe09a90a	-0.1344339
86	0xbcda5701	-0.026652815
87	0xbe72009b	-0.23633043
88	0x3ece02f1	0.4023662
89	0x3b86062e	0.004090092
90	0xbe77dd50	-0.24205518
91	0x3e4412c7	0.19147788
92	0x3dc4bf23	0.09606769
93	0x3eb758ef	0.35810038
94	0x3e1d564f	0.15364955
95	0x3dc67b2d	0.09691463
96	0x3e2e6de5	0.17034109
97	0x3e88b785	0.26702514
98	0xbd543d5b	-0.051816326
99	0x3e398802	0.18118289
100	0xbe110e9a	-0.14165726
101	0xbd87f0e5	-0.06637744
102	0x3e9309aa	0.2871831
103	0x3d8c85f7	0.06861489
104	0x3e28307c	0.16424745
105	0xbe31565c	-0.173181
106	0xbdf78671	-0.120861895
107	0x3e155390	0.14582658
108	0xbdfa4bef	-0.122215144
109	0xbd641294	-0.05568178
110	0xbcc7eaed	-0.024404014
111	0x3e476da6	0.19475421
112	0xbe5943ac	-0.21217221
113	0x3cbe8b5b	0.02325981
114	0xbc480980	-0.012209296
115	0xbe4be809	-0.19912733
116	0x3c7b29a6	0.015329754
117	0xbe412fb5	-0.18865855
118	0x3cd5d2ac	0.026101433
119	0xbe30869a	-0.17238846
120	0x3e9b880a	0.30377227
121	0xbe27e834	-0.16397172
122	0x3db53537	0.088480406
123	0x3e1e4c0b	0.15458696
124	0x3de25a96	0.11052434
125	0xbe87de3e	-0.26536745
126	0xbad73266	-0.0016418218
127	0xbe5beb1e	-0.21476409
128	0x3e0c433f	0.13697527
129	0x3eef0f9b	0.46691594
130	0x3e5443f7	0.20729052
131	0x3e240c1c	0.16020244
132	0xbe14bcf6	-0.14525208
133	0x3e8ae8b7	0.27130672
134	0x3e927d6f	0.28611323
135	0x3e3b148b	0.18269555
136	0x3f465c03	0.7748415
137	0x3e14e20d	0.14539357
138	0x3eadb3b4	0.33926165
139	0x3d7e0725	0.062018532
140	0x3ce605a0	0.028078854
141	0x3ed30ff0	0.41223097
142	0xbcb853a6	-0.022500824
143	0x3eaeff7a	0.34179288
144	0x3d379ca5	0.044827122
145	0x3dd85823	0.10563686
146	0xbe1bbfe8	-0.15209925
147	0xbdf6c2f7	-0.12048905
148	0x3e121af6	0.14268097
149	0x3ea34d01	0.31894687
150	0xbde0cf38	-0.10977024
151	0x3eaf2896	0.34210652
152	0x3ebb64eb	0.36600432
153	0x3ef4e644	0.4783193
154	0x3e4560da	0.19275227
155	0x3d07af3c	0.0331261
156	0x3e585fec	0.21130341
157	0x3e95762d	0.29191723
158	0x3ca4698c	0.02006986
159	0x3dfdbc60	0.12389445
160	0xbe93d82a	-0.28875858
161	0x3d9c1afb	0.076223336
162	0x3d254610	0.04035002
163	0xbb2a287d	-0.0025964074
164	0xbd323a71	-0.043512765
165	0xbdd0e8fd	-0.10200689
166	0x3df2d778	0.11857504
167	0xbeb96e95	-0.3621718
168	0x3eea85f8	0.45805335
169	0xbe955dce	-0.2917313
170	0xba9470f7	-0.001132517
171	0x3e423ceb	0.18968551
172	0x3db0a334	0.086248785
173	0xbdf2946e	-0.11844717
174	0x3e53ae49	0.20671953
175	0x3df0dfdc	0.11761448
176	0xbeeb776b	-0.45989546
177	0xbe06a4a4	-0.13148743
178	0xbd022aee	-0.031779222
179	0xbe20796e	-0.15671322
180	0xbcf52e6a	-0.029929359
181	0xbeb5d6bb	-0.3551539
182	0xbdeedffc	-0.116638154
183	0xbe545b4a	-0.20737949
184	0x3e00b514	0.12569076
185	0xbec3d95f	-0.38251778
186	0xbe80c4eb	-0.25150236
187	0x3db1239d	0.08649371
188	0x3d4e1653	0.05031426
189	0xbe1fd1cf	-0.1560738
190	0x3e29156a	0.16512075
191	0xbea760cd	-0.3269104
192	0xbd8d98ed	-0.06913934
193	0x3e535566	0.20638046
194	0xbcfcb596	-0.030848306
195	0x3d76d710	0.060263693
196	0xbd65c646	-0.05609729
197	0x3e849861	0.25897506
198	0xbdf91cf7	-0.12163728
199	0x3dcb0788	0.09913546
200	0xbe7fa137	-0.24963842
201	0x3dc051c3	0.09390595
202	0xbc8c2e1a	-0.017111827
203	0xbdc22e7e	-0.09481524
204	0xbdf14a6b	-0.11781772
205	0xbd975d6d	-0.073908664
206	0xbe41400e	-0.18872091
207	0xbc8b9a72	-0.017041419
208	0x3d81d315	0.06339089
209	0xbe301014	-0.17193633
210	0x3d866716	0.06562631
211	0x3e09ee16	0.13469729
212	0x3e63c759	0.22244014
213	0xbe829548	-0.25504518
214	0x3c4e3a9e	0.012587218
215	0xbdaefed9	-0.08544702
216	0xbf117500	-0.5681915
217	0x3dca799a	0.09886475
218	0xbddd2bfd	-0.10799406
219	0xbe4679a9	-0.19382347
220	0x3e39cf42	0.18145469
221	0x3ca7da53	0.020489847
222	0xbca6589f	-0.02030593
223	0xbdfb3bcb	-0.12267264
224	0xbe4703e8	-0.19435084
225	0x3e1e05d1	0.15431906
226	0x3e0466a1	0.12929775
227	0xbe76158a	-0.24031654
228	0x3db71708	0.0893994
229	0xbdef0113	-0.11670127
230	0xbe8c0488	-0.27347207
231	0xbe845b4f	-0.25850913
232	0x3e377180	0.1791439
233	0xbe910d6a	-0.28330547
234	0xbe03b4f6	-0.12862
235	0xbe1f7ee6	-0.15575752
236	0xbe65a785	-0.22427185
237	0xbeaa3264	-0.3324157
238	0xbe2884b0	-0.16456866
239	0x3dce3d28	0.100702584
240	0x3e92d694	0.28679335
241	0xbe21945e	-0.15779254
242	0xbe69fca9	-0.22850288
243	0x3e105ed2	0.14098671
244	0x3c9e993e	0.019360181
245	0xbdd28381	-0.10278989
246	0x3da77ba9	0.08177883
247	0x3e02bccd	0.12767334
248	0xbf1cf9bb	-0.6131856
249	0x3d5d389c	0.054009065
250	0xbea9722e	-0.33094925
251	0xbe87bf8e	-0.26513332
252	0xbd30c323	-0.043154847
253	0x3ea75ab8	0.326864
254	0xbe28957f	-0.16463278
255	0x3e49b09e	0.1969628

transformer_encoder.layers.0.linear2.bias f4 [17]
0	0x3e02a03b	0.12756436
1	0x3e34dc31	0.17662121
2	0x3c317ff7	0.010833732
3	0xbdf2b086	-0.118500754
4	0xbe067c71	-0.13133408
5	0x3cf7ad32	0.030233953
6	0xbd9b4718	-0.075819194
7	0xbd60fef7	-0.054930653
8	0x3c300d16	0.010745307
9	0x3d2ed8f5	0.042687375
10	0xbe160950	-0.1465199
11	0xbd87c0a6	-0.06628542
12	0x3e36be25	0.17845972
13	0x3e0ad2ed	0.13557024
14	0x3dd002cd	0.10156784
15	0xbc9fa892	-0.01948956
16	0x3e614d2c	0.22002095

transformer_encoder.layers.0.norm1.weight f4 [17]
0	0x3f558bea	0.83416617
1	0x3f501f59	0.8129783
2	0x3f793056	0.9733938
3	0x3f637d15	0.88862735
4	0x3f57623d	0.84134275
5	0x3f4d6433	0.80231017
6	0x3f5d5771	0.8646155
7	0x3f60996e	0.87734115
8	0x3f7dcd84	0.99141717
9	0x3f614d63	0.8800871
10	0x3f52e573	0.8238136
11	0x3f5ee121	0.8706227
12	0x3f5aba93	0.8544094
13	0x3f5f14ea	0.8714129
14	0x3f649b7d	0.89299756
15	0x3f50833e	0.8145026
16	0x3f64374e	0.8914689

transformer_encoder.layers.0.norm1.bias f4 [17]
0	0x3af548dc	0.001871373
1	0x3d0e1a58	0.034693092
2	0x3d90ff92	0.07079996
3	0xbd33b36b	-0.04387228
4	0xbcd71ff6	-0.026260357
5	0xbc5ec7fd	-0.013597486
6	0x3d1530e6	0.036423586
7	0xbd2ea1ea	-0.042634882
8	0x3d80ed64	0.06295279
9	0xbcc0cfde	-0.023536619
10	0xbd36d2e9	-0.044634733
11	0xbd67dda3	-0.056607854
12	0xbc40fa61	-0.011778445
13	0xbd28be3e	-0.041197054
14	0xbd07f26f	-0.033190187
15	0xbcf9f50d	-0.030512357
16	0x3d72dd9f	0.059293386

transformer_encoder.layers.0.norm2.weight f4 [17]
0	0x3f8dc418	1.1075468
1	0x3fa0c70a	1.2560742
2	0x3faccb82	1.3499606
3	0x3f91f9b7	1.1404332
4	0x3f80cb9d	1.0062138
5	0x3f98db3d	1.1941906
6	0x3f933fb8	1.150382
7	0x3fa58eac	1.2934165
8	0x3f98cacb	1.1936888
9	0x3f8bfbd2	1.0936224
10	0x3f9fb457	1.247691
11	0x3fa576d0	1.2926884
12	0x3fad2c1f	1.352909
13	0x3f902a1d	1.1262852
14	0x3f961467	1.1724976
15	0x3f8f25de	1.1183431
16	0x3f9f3d20	1.2440529

transformer_encoder.layers.0.norm2.bias f4 [17]
0	0xbd35d7b2	-0.044395156
1	0xbe7a7838	-0.24459922
2	0xbd54a661	-0.051916484
3	0x3bca24bd	0.0061689303
4	0xbd861fbd	-0.06549022
5	0x3e208124	0.15674263
6	0x3eb3f27f	0.35145947
7	0x3e56a967	0.2096306
8	0x3cc1df51	0.023666056
9	0x3ca50af4	0.020146824
10	0x3e8368e4	0.25665963
11	0x3e1b45cb	0.15163343
12	0xbe39169f	-0.18075036
13	0xbe23ab54	-0.15983325
14	0x3dc6f5b3	0.09714832
15	0x3e1ea565	0.1549278
16	0xbe547e02	-0.20751193

mlp.0.weight f4 [17, 17]
0	0xbe86a433	-0.2629715
1	0xbeb7d1a3	-0.35902128
2	0x3e38921d	0.18024488
3	0xbe8df8ee	-0.2772898
4	0x3e857b97	0.26070854
5	0x3eede4ce	0.46463627
6	0x3e8e7c5b	0.2782925
7	0x3e5bbb39	0.21458139
8	0xbea6c0e8	-0.3256905
9	0x3ebb2f54	0.36559546
10	0x3e6dd193	0.23224477
11	0x3f04b5f8	0.5184016
12	0xbe8180c7	-0.25293562
13	0x3e3c3f1e	0.18383452
14	0xbd686c2a	-0.05674378
15	0x3e9eed75	0.3104054
16	0xbee637de	-0.44964498
17	0xbd5cff8e	-0.053954653
18	0x3e6be0bc	0.23034948
19	0x3f177100	0.591568
20	0xbe230dc5	-0.15923221
21	0x3dfee194	0.12445369
22	0x3e93c3a8	0.2886021
23	0x3e038719	0.12844504
24	0xbf10b2b0	-0.56522655
25	0x3e7adb5e	0.24497744
26	0x3e72a073	0.23694019
27	0xbebc1c7f	-0.3674049
28	0xbe82d806	-0.25555438
29	0xbde66273	-0.112492464
30	0x3d95a455	0.073067345
31	0xbe56acb9	-0.20964326
32	0x3e5f2e83	0.21795087
33	0x3e40565b	0.18782942
34	0x3e16e74b	0.14736669
35	0x3e4c4bd3	0.199508
36	0xbb18b656	-0.002330204
37	0x3dd13bce	0.10216485
38	0x3e17e6bf	0.14834116
39	0xbeab6e4b	-0.33482584
40	0xbe7f8e59	-0.24956645
41	0x3c0b0b0e	0.008486522
42	0x3e75de92	0.24010685
43	0x3d55e825	0.052223343
44	0xbe520422	-0.20509389
45	0xbe9101b6	-0.28321618
46	0x3ee71770	0.4513507
47	0x3c8e4bba	0.017370094
48	0xbd9c9c8a	-0.07647045
49	0xbe48e5a2	-0.19618848
50	0x3f062b76	0.52410066
51	0x3e28fcbe	0.16502663
52	0x3e1c2f4b	0.15252416
53	0x3cc5c262	0.02414054
54	0xbe32b07b	-0.17450134
55	0x3e222695	0.1583503
56	0xbe8205df	-0.25395104
57	0x3d89cf3c	0.0672898
58	0xbdc2dcda	-0.0951478
59	0x3ea1016b	0.31446394
60	0x3d97a6d4	0.07404867
61	0xbe8ade98	-0.2712295
62	0xbea4ceef	-0.32189128
63	0x3ef72a39	0.482744
64	0xbe51c3e5	-0.20484884
65	0x3de152ef	0.110021465
66	0xbe473cb9	-0.19456758
67	0x3f00724e	0.50174415
68	0xbe92b7d5	-0.28655878
69	0xbe4a13ae	-0.1973407
70	0x3cbc58e9	0.022991614
71	0xbd37f11a	-0.044907667
72	0x3e23bdae	0.15990326
73	0x3ead78c2	0.33881193
74	0x3eae5e30	0.34056234
75	0x3ee52f3e	0.44762605
76	0xbe3f136f	-0.18659757
77	0x3ea0f98b	0.31440386
78	0x3ebe200d	0.37133828
79	0x3ed67ef1	0.41893724
80	0xbedd9d64	-0.43284142
81	0xbdc6281e	-0.096756205
82	0x3cbda191	0.02314833
83	0x3e8d54a2	0.27603632
84	0xbed7c690	-0.4214368
85	0xbd95bc24	-0.073112756
86	0x3eeb8e67	0.46007082
87	0x3e12fdb3	0.14354591
88	0xbe10e1c8	-0.14148629
89	0x3db23125	0.0870078
90	0xbeab397d	-0.33442298
91	0xb9fc6c79	-0.00048146004
92	0xbbeb28ad	-0.00717648
93	0x3e5b4338	0.2141236
94	0xbe228313	-0.15870313
95	0xbe77af0f	-0.24187873
96	0xbf0ade1e	-0.54245174
97	0x3f0217c0	0.5081749
98	0xbe3c2373	-0.18372898
99	0x3d9c86f5	0.076429285
100	0xbe211bef	-0.15733312
101	0x3ed1f2e9	0.41005638
102	0x3e807943	0.25092515
103	0x3ec72b57	0.38900253
104	0x3e89dc6d	0.26925984
105	0x3e28355d	0.16426606
106	0xbe0c60ab	-0.13708751
107	0xbe485b84	-0.1956616
108	0x3e04442f	0.12916635
109	0xbda14327	-0.078741364
110	0x3e8d0be4	0.27548134
111	0xbde244fc	-0.11048314
112	0xbe5f5ab5	-0.21811946
113	0xbece0c0a	-0.4024356
114	0x3ebc791e	0.36811155
115	0x3d10ca38	0.0353491
116	0xbc8746db	-0.016513279
117	0xbd079151	-0.03309757
118	0x3f0c2431	0.54742724
119	0x3f032253	0.5122425
120	0xbe554ebf	-0.2083082
121	0xbef0c1ae	-0.47022766
122	0x3e9a7390	0.30166292
123	0xbe685158	-0.2268728
124	0xbecd83b5	-0.40139547
125	0x3e59656c	0.21230096
126	0x3ec82c4d	0.390963
127	0x3ed2bb02	0.411583
128	0xbebaf7b2	-0.36517102
129	0x3ea10e3e	0.31456178
130	0xbe66b8af	-0.22531389
131	0x3dde4f01	0.108549125
132	0xbedd529e	-0.43227094
133	0x3e0fb6d1	0.14034583
134	0xbecd148b	-0.40054736
135	0xbe224149	-0.15845217
136	0x3dd2c4b3	0.10291424
137	0x3e935629	0.28776672
138	0x3e000009	0.12500013
139	0x3db717ee	0.08940111
140	0x3e09c356	0.13453421
141	0xbdf59f19	-0.11993236
142	0x3b1566da	0.00227969
143	0x3e83983d	0.25702086
144	0x3e85ea72	0.2615543
145	0x3e2946af	0.1653087
146	0xbe3e733f	-0.1859865
147	0xbe3d0dd2	-0.18462303
148	0x3ee3db87	0.44503424
149	0x3d40b650	0.047048867
150	0xbe56645e	-0.20936725
151	0xbb3a2c1e	-0.0028407644
152	0x3f01301f	0.5046405
153	0x3f2463c2	0.6421472
154	0xbeb44b66	-0.35213774
155	0xbf26df4b	-0.6518447
156	0x3e8fc87e	0.2808265
157	0xbe1cdf7d	-0.15319629
158	0xbee4976a	-0.4464677
159	0x3e8bbd73	0.27292976
160	0x3f1a7aeb	0.6034381
161	0x3eac17cf	0.33611915
162	0xbf19bd0d	-0.60054094
163	0x3eb48e58	0.3526485
164	0xbea9397b	-0.33051667
165	0x3dc627ec	0.09675583
166	0xbef79493	-0.4835554
167	0x3ea19db2	0.31565624
168	0xbf07d0e4	-0.53053117
169	0xbcc049a2	-0.02347261
170	0x3dae279a	0.08503647
171	0xbebef6c6	-0.37297648
172	0xbed15055	-0.408816
173	0x3c8509bd	0.016239995
174	0xbe3ee42f	-0.18641733
175	0x3d7dff2a	0.06201092
176	0x3e916ca1	0.2840319
177	0x3ee4a242	0.44655043
178	0x3ce64297	0.028107924
179	0xbe9ee975	-0.3103749
180	0x3ec36945	0.38166252
181	0x3ccb6391	0.02482775
182	0xbe5e05bb	-0.21681874
183	0xbe92cb25	-0.28670612
184	0x3e9e0d76	0.30869645
185	0x3e3db4c3	0.18525986
186	0xbe816cfb	-0.25278458
187	0x3e201fc0	0.15637112
188	0xbea16828	-0.31524777
189	0xbec62968	-0.38703465
190	0x3e5cd425	0.21565302
191	0xbe45d9f1	-0.1932142
192	0x3d619015	0.055069048
193	0x3ece5b4c	0.4030403
194	0x3e69d0f8	0.22833622
195	0xbd394e45	-0.04524066
196	0xbe5daaa6	-0.21647128
197	0x3e392a7b	0.18082611
198	0x3eba32db	0.36366925
199	0xbe4621e6	-0.19348869
200	0xbe7a557e	-0.24446675
201	0x3ecceddf	0.4002523
202	0x3db3375e	0.08750795
203	0xbe42b4cb	-0.1901428
204	0xbd19ef86	-0.037581943
205	0x3e23c4ea	0.15993086
206	0x3cbc38ff	0.022976397
207	0x3e7046c7	0.234645
208	0xbe86736a	-0.2625993
209	0xbe798bad	-0.24369688
210	0x3e849772	0.25896794
211	0x3e4d7946	0.20065793
212	0x3e1a0600	0.15041351
213	0x3c14bbce	0.009077979
214	0x3dcbd314	0.09952369
215	0xbea332b2	-0.31874615
216	0x3e7ad9de	0.24497172
217	0xbe89cf6a	-0.26916057
218	0x3d956032	0.072937384
219	0xbe5b8019	-0.21435584
220	0x3eac10af	0.3360648
221	0xbe15b88a	-0.14621177
222	0xbe01c104	-0.12671286
223	0x3f02861f	0.509859
224	0xbea8993a	-0.32929403
225	0xbd5c5450	-0.053791344
226	0x3d96a4be	0.07355641
227	0x3e36e9f0	0.17862678
228	0xbf121c16	-0.57074106
229	0xbda3cefd	-0.07998464
230	0x3e314fb9	0.17315568
231	0xbec244b5	-0.37943044
232	0xbe9b8788	-0.3037684
233	0xbe2ee95e	-0.1708121
234	0x3e72b0f9	0.23700322
235	0xbedf5f1d	-0.43627253
236	0x3e82f443	0.25576982
237	0x3e15ac06	0.14616403
238	0xbe530d5b	-0.20610563
239	0xbe979f71	-0.29613832
240	0xbd1d44e0	-0.038395762
241	0xbdfb546f	-0.12271964
242	0x3e79371a	0.24337426
243	0x3e3b2a93	0.1827796
244	0x3e0a9b31	0.13535763
245	0x3e65947f	0.22419928
246	0xbe11e66f	-0.1424806
247	0xbda95054	-0.082672745
248	0x3e87e48d	0.26541558
249	0x3d63c4ab	0.05560748
250	0xbf083dd4	-0.5321934
251	0xbd44f50e	-0.048085265
252	0x3e1a3bec	0.15061921
253	0xbd647c2d	-0.055782486
254	0xbe9d3df7	-0.30711338
255	0xbe6e85db	-0.2329325

mlp.0.bias f4 [17]
0	0x3e0d5534	0.13802034
1	0xbd0fae4b	-0.035078328
2	0x3e0e67e1	0.13906814
3	0x3cf952f9	0.030435072
4	0x3e0c6102	0.1370888
5	0x3e224d9b	0.15849917
6	0x3ce46614	0.027880706
7	0x3ec3e2fa	0.38259107
8	0xbe586235	-0.21131213
9	0x3ec4a203	0.38404855
10	0x3d8275ae	0.06370102
11	0x3e25b52e	0.16182396
12	0x3e8feec3	0.28111848
13	0x3d6342f3	0.05548377
14	0x3dd897ec	0.10575852
15	0x3e06be45	0.1315852
16	0x3d0aa835	0.03385182

mlp.2.weight f4 [4, 17]
0	0x3d6ae28b	0.057344954
1	0x3efb7ebc	0.49120128
2	0xbeb462a5	-0.3523151
3	0xbea64d75	-0.3248097
4	0x3d982223	0.07428386
5	0xbe84d378	-0.25942588
6	0x3ce37a57	0.027768297
7	0xbe929577	-0.28629658
8	0x3d9aa88c	0.07551679
9	0xbe2bf30b	-0.16791932
10	0xbece7872	-0.40326267
11	0xbed624d4	-0.41824973
12	0xbe586de2	-0.21135667
13	0x3eed7d7c	0.463848
14	0x3d3269a4	0.043557778
15	0x3eaad051	0.33362058
16	0xbf06156d	-0.52376443
17	0xbea7f121	-0.32801154
18	0xbdf14bfc	-0.11782071
19	0x3ec3238d	0.3811306
20	0x3ee68f49	0.45031193
21	0xbec05368	-0.37563634
22	0x3e415757	0.18880974
23	0x3ec54f10	0.38536882
24	0xbccea187	-0.025223507
25	0x3f0c8f23	0.5490591
26	0x3cd09939	0.025463687
27	0x3dde6c12	0.108604565
28	0xbc636d90	-0.013881102
29	0x3e8342db	0.25636944
30	0xbe78e2ac	-0.24305218
31	0xbf032473	-0.5122749
32	0xbe13d70a	-0.144375
33	0xbcba5550	-0.022745758
34	0x3e83253b	0.25614342
35	0xbf13474b	-0.5753066
36	0xbe128163	-0.1430717
37	0xbe398711	-0.1811793
38	0x3e8c5da3	0.2741519
39	0xbeeba921	-0.46027473
40	0xbc440cbb	-0.011965926
41	0xbed2f105	-0.41199508
42	0x3d3c2278	0.04593131
43	0xbef803f6	-0.48440522
44	0x3e6a34d6	0.22871718
45	0x3dcaab67	0.09895974
46	0xbe99f974	-0.3007313
47	0xbe7d19a4	-0.24716812
48	0x3e15daad	0.146342
49	0xbd832e48	-0.06405312
50	0x3ec411d5	0.38294855
51	0xbf05988f	-0.5218591
52	0xbe509c35	-0.20372088
53	0xbea16180	-0.315197
54	0xbef66a1d	-0.48127833
55	0xbe85273f	-0.26006505
56	0xbeeb4e7f	-0.45958325
57	0xbe8b9695	-0.27263322
58	0x3e13d1d4	0.14435512
59	0xbe8c0ae8	-0.2735207
60	0x3e72b3a1	0.23701335
61	0x3ec82094	0.39087355
62	0x3eaa9143	0.3331395
63	0xbcf269cf	-0.02959147
64	0xbe37ca9c	-0.17948383
65	0xbe032d3e	-0.12810227
66	0xbef7c4cf	-0.4839234
67	0x3e8d2dcf	0.27574012

mlp.2.bias f4 [4]
0	0x3cfb5f13	0.030684983
1	0xbd5c44c8	-0.053776532
2	0x3da0a047	0.078430705
3	0x3e13acee	0.14421436
